module attributes {torch.debug_module_name = "BraggNN"} {
  memref.global "private" constant @__constant_16x1x3x3xf32 : memref<16x1x3x3xf32> = dense<1.000000e+00>
  memref.global "private" constant @__constant_8x16x1x1xf32 : memref<8x16x1x1xf32> = dense<1.000000e+00>
  memref.global "private" constant @__constant_16x8x1x1xf32 : memref<16x8x1x1xf32> = dense<1.000000e+00>
  memref.global "private" constant @__constant_8x16x3x3xf32 : memref<8x16x3x3xf32> = dense<1.000000e+00>
  memref.global "private" constant @__constant_2x8x3x3xf32 : memref<2x8x3x3xf32> = dense<1.000000e+00>
  memref.global "private" constant @__constant_16x50xf32 : memref<16x50xf32> = dense<1.000000e+00>
  memref.global "private" constant @__constant_16xf32 : memref<16xf32> = dense<1.000000e+00>
  memref.global "private" constant @__constant_8x16xf32 : memref<8x16xf32> = dense<1.000000e+00>
  memref.global "private" constant @__constant_8xf32 : memref<8xf32> = dense<1.000000e+00>
  memref.global "private" constant @__constant_4x8xf32 : memref<4x8xf32> = dense<1.000000e+00>
  memref.global "private" constant @__constant_4xf32 : memref<4xf32> = dense<1.000000e+00>
  memref.global "private" constant @__constant_2x4xf32 : memref<2x4xf32> = dense<1.000000e+00>
  memref.global "private" constant @__constant_2x2xf32 : memref<2x2xf32> = dense<1.000000e+00>
  memref.global "private" constant @__constant_2xf32 : memref<2xf32> = dense<1.000000e+00>
  func @forward(%arg0: memref<1x1x11x11xf32>, %arg1: memref<1x1xf32>) {
    %c0 = arith.constant 0 : index
    %c0_0 = arith.constant 0 : index
    %c0_1 = arith.constant 0 : index
    %c0_2 = arith.constant 0 : index
    %c0_3 = arith.constant 0 : index
    %c0_4 = arith.constant 0 : index
    %c0_5 = arith.constant 0 : index
    %c0_6 = arith.constant 0 : index
    %c0_7 = arith.constant 0 : index
    %c0_8 = arith.constant 0 : index
    %c0_9 = arith.constant 0 : index
    %c0_10 = arith.constant 0 : index
    %c0_11 = arith.constant 0 : index
    %c0_12 = arith.constant 0 : index
    %c0_13 = arith.constant 0 : index
    %c0_14 = arith.constant 0 : index
    %c0_15 = arith.constant 0 : index
    %c0_16 = arith.constant 0 : index
    %c0_17 = arith.constant 0 : index
    %c0_18 = arith.constant 0 : index
    %0 = memref.alloca() : memref<1x2xf32>
    %c0_19 = arith.constant 0 : index
    %1 = memref.alloca() : memref<1x1xf32>
    %c0_20 = arith.constant 0 : index
    %2 = memref.alloca() : memref<1x1xf32>
    %3 = memref.alloca() : memref<1x2x5x5xf32>
    %c0_21 = arith.constant 0 : index
    %c0_22 = arith.constant 0 : index
    %4 = memref.alloca() : memref<1x8x7x7xf32>
    %c0_23 = arith.constant 0 : index
    %5 = memref.alloca() : memref<1x8x7x7xf32>
    %c0_24 = arith.constant 0 : index
    %c0_25 = arith.constant 0 : index
    %6 = memref.alloca() : memref<1x16x9x9xf32>
    %c0_26 = arith.constant 0 : index
    %7 = memref.alloca() : memref<1x16x9x9xf32>
    %c0_27 = arith.constant 0 : index
    %8 = memref.alloca() : memref<1x2xf32>
    %c0_28 = arith.constant 0 : index
    %c0_29 = arith.constant 0 : index
    %9 = memref.alloca() : memref<1x16x9x9xf32>
    %c0_30 = arith.constant 0 : index
    %c0_31 = arith.constant 0 : index
    %c0_32 = arith.constant 0 : index
    %10 = memref.alloca() : memref<1x1x1x1xf32>
    %c0_33 = arith.constant 0 : index
    %c0_34 = arith.constant 0 : index
    %c0_35 = arith.constant 0 : index
    %c0_36 = arith.constant 0 : index
    %11 = memref.alloca() : memref<1x1x1x1xf32>
    %c0_37 = arith.constant 0 : index
    %c0_38 = arith.constant 0 : index
    %c0_39 = arith.constant 0 : index
    %c0_40 = arith.constant 0 : index
    %12 = memref.alloca() : memref<1x1x1x1xf32>
    %c0_41 = arith.constant 0 : index
    %c0_42 = arith.constant 0 : index
    %c0_43 = arith.constant 0 : index
    %c0_44 = arith.constant 0 : index
    %13 = memref.alloca() : memref<1x1x1x1xf32>
    %c0_45 = arith.constant 0 : index
    %14 = memref.alloca() : memref<1x8x9x9xf32>
    %c0_46 = arith.constant 0 : index
    %15 = memref.alloca() : memref<1x1x1x1xf32>
    %c0_47 = arith.constant 0 : index
    %c0_48 = arith.constant 0 : index
    %c0_49 = arith.constant 0 : index
    %c0_50 = arith.constant 0 : index
    %16 = memref.alloca() : memref<1x1xf32>
    %17 = memref.alloca() : memref<1x1xf32>
    %c0_51 = arith.constant 0 : index
    %c0_52 = arith.constant 0 : index
    %18 = memref.alloca() : memref<1x16xf32>
    %c0_53 = arith.constant 0 : index
    %19 = memref.alloca() : memref<1x1xf32>
    %20 = memref.alloca() : memref<1x1xf32>
    %c0_54 = arith.constant 0 : index
    %c0_55 = arith.constant 0 : index
    %21 = memref.alloca() : memref<1x8xf32>
    %c0_56 = arith.constant 0 : index
    %22 = memref.alloca() : memref<1x1xf32>
    %23 = memref.alloca() : memref<1x1xf32>
    %c0_57 = arith.constant 0 : index
    %c0_58 = arith.constant 0 : index
    %24 = memref.alloca() : memref<1x4xf32>
    %c0_59 = arith.constant 0 : index
    %25 = memref.alloca() : memref<1x1xf32>
    %cst = arith.constant 0.000000e+00 : f32
    %cst_60 = arith.constant 1.000000e-02 : f64
    %true = arith.constant true
    %c0_61 = arith.constant 0 : index
    %26 = memref.get_global @__constant_16x1x3x3xf32 : memref<16x1x3x3xf32>
    %27 = memref.get_global @__constant_8x16x1x1xf32 : memref<8x16x1x1xf32>
    %28 = memref.get_global @__constant_16x8x1x1xf32 : memref<16x8x1x1xf32>
    %29 = memref.get_global @__constant_8x16x3x3xf32 : memref<8x16x3x3xf32>
    %30 = memref.get_global @__constant_2x8x3x3xf32 : memref<2x8x3x3xf32>
    %31 = memref.get_global @__constant_16x50xf32 : memref<16x50xf32>
    %32 = memref.get_global @__constant_16xf32 : memref<16xf32>
    %33 = memref.get_global @__constant_8x16xf32 : memref<8x16xf32>
    %34 = memref.get_global @__constant_8xf32 : memref<8xf32>
    %35 = memref.get_global @__constant_4x8xf32 : memref<4x8xf32>
    %36 = memref.get_global @__constant_4xf32 : memref<4xf32>
    %37 = memref.get_global @__constant_2x4xf32 : memref<2x4xf32>
    %38 = memref.get_global @__constant_2x2xf32 : memref<2x2xf32>
    %39 = memref.get_global @__constant_2xf32 : memref<2xf32>
    %40 = arith.truncf %cst_60 : f64 to f32
    %41 = arith.truncf %cst_60 : f64 to f32
    %42 = memref.alloca() : memref<1x2x5x5xf32>
    %43 = arith.truncf %cst_60 : f64 to f32
    %c0_62 = arith.constant 0 : index
    %c1 = arith.constant 1 : index
    %c1_63 = arith.constant 1 : index
    scf.for %arg2 = %c0_62 to %c1 step %c1_63 {
      %c0_67 = arith.constant 0 : index
      %c2 = arith.constant 2 : index
      %c1_68 = arith.constant 1 : index
      scf.for %arg3 = %c0_67 to %c2 step %c1_68 {
        %49 = memref.load %39[%arg3] : memref<2xf32>
        %c0_97 = arith.constant 0 : index
        %c5 = arith.constant 5 : index
        %c1_98 = arith.constant 1 : index
        scf.for %arg4 = %c0_97 to %c5 step %c1_98 {
          %c0_99 = arith.constant 0 : index
          memref.store %49, %3[%c0_99, %arg3, %arg4, %c0_18] : memref<1x2x5x5xf32>
          %c1_100 = arith.constant 1 : index
          %c0_101 = arith.constant 0 : index
          memref.store %49, %3[%c0_101, %arg3, %arg4, %c1_100] : memref<1x2x5x5xf32>
          %c2_102 = arith.constant 2 : index
          %c0_103 = arith.constant 0 : index
          memref.store %49, %3[%c0_103, %arg3, %arg4, %c2_102] : memref<1x2x5x5xf32>
          %c3 = arith.constant 3 : index
          %c0_104 = arith.constant 0 : index
          memref.store %49, %3[%c0_104, %arg3, %arg4, %c3] : memref<1x2x5x5xf32>
          %c4 = arith.constant 4 : index
          %c0_105 = arith.constant 0 : index
          memref.store %49, %3[%c0_105, %arg3, %arg4, %c4] : memref<1x2x5x5xf32>
        }
      }
      %c0_69 = arith.constant 0 : index
      %c8 = arith.constant 8 : index
      %c1_70 = arith.constant 1 : index
      scf.for %arg3 = %c0_69 to %c8 step %c1_70 {
        %49 = memref.load %34[%arg3] : memref<8xf32>
        %c0_97 = arith.constant 0 : index
        %c7 = arith.constant 7 : index
        %c1_98 = arith.constant 1 : index
        scf.for %arg4 = %c0_97 to %c7 step %c1_98 {
          %c0_99 = arith.constant 0 : index
          memref.store %49, %5[%c0_99, %arg3, %arg4, %c0_17] : memref<1x8x7x7xf32>
          %c1_100 = arith.constant 1 : index
          %c0_101 = arith.constant 0 : index
          memref.store %49, %5[%c0_101, %arg3, %arg4, %c1_100] : memref<1x8x7x7xf32>
          %c2_102 = arith.constant 2 : index
          %c0_103 = arith.constant 0 : index
          memref.store %49, %5[%c0_103, %arg3, %arg4, %c2_102] : memref<1x8x7x7xf32>
          %c3 = arith.constant 3 : index
          %c0_104 = arith.constant 0 : index
          memref.store %49, %5[%c0_104, %arg3, %arg4, %c3] : memref<1x8x7x7xf32>
          %c4 = arith.constant 4 : index
          %c0_105 = arith.constant 0 : index
          memref.store %49, %5[%c0_105, %arg3, %arg4, %c4] : memref<1x8x7x7xf32>
          %c5 = arith.constant 5 : index
          %c0_106 = arith.constant 0 : index
          memref.store %49, %5[%c0_106, %arg3, %arg4, %c5] : memref<1x8x7x7xf32>
          %c6 = arith.constant 6 : index
          %c0_107 = arith.constant 0 : index
          memref.store %49, %5[%c0_107, %arg3, %arg4, %c6] : memref<1x8x7x7xf32>
        }
      }
      %c0_71 = arith.constant 0 : index
      %c16 = arith.constant 16 : index
      %c1_72 = arith.constant 1 : index
      scf.for %arg3 = %c0_71 to %c16 step %c1_72 {
        %49 = memref.load %32[%arg3] : memref<16xf32>
        %c0_97 = arith.constant 0 : index
        %c9 = arith.constant 9 : index
        %c1_98 = arith.constant 1 : index
        scf.for %arg4 = %c0_97 to %c9 step %c1_98 {
          %c0_99 = arith.constant 0 : index
          memref.store %49, %9[%c0_99, %arg3, %arg4, %c0_16] : memref<1x16x9x9xf32>
          %c1_100 = arith.constant 1 : index
          %c0_101 = arith.constant 0 : index
          memref.store %49, %9[%c0_101, %arg3, %arg4, %c1_100] : memref<1x16x9x9xf32>
          %c2_102 = arith.constant 2 : index
          %c0_103 = arith.constant 0 : index
          memref.store %49, %9[%c0_103, %arg3, %arg4, %c2_102] : memref<1x16x9x9xf32>
          %c3 = arith.constant 3 : index
          %c0_104 = arith.constant 0 : index
          memref.store %49, %9[%c0_104, %arg3, %arg4, %c3] : memref<1x16x9x9xf32>
          %c4 = arith.constant 4 : index
          %c0_105 = arith.constant 0 : index
          memref.store %49, %9[%c0_105, %arg3, %arg4, %c4] : memref<1x16x9x9xf32>
          %c5 = arith.constant 5 : index
          %c0_106 = arith.constant 0 : index
          memref.store %49, %9[%c0_106, %arg3, %arg4, %c5] : memref<1x16x9x9xf32>
          %c6 = arith.constant 6 : index
          %c0_107 = arith.constant 0 : index
          memref.store %49, %9[%c0_107, %arg3, %arg4, %c6] : memref<1x16x9x9xf32>
          %c7 = arith.constant 7 : index
          %c0_108 = arith.constant 0 : index
          memref.store %49, %9[%c0_108, %arg3, %arg4, %c7] : memref<1x16x9x9xf32>
          %c8_109 = arith.constant 8 : index
          %c0_110 = arith.constant 0 : index
          memref.store %49, %9[%c0_110, %arg3, %arg4, %c8_109] : memref<1x16x9x9xf32>
        }
      }
      %c0_73 = arith.constant 0 : index
      %c16_74 = arith.constant 16 : index
      %c1_75 = arith.constant 1 : index
      scf.for %arg3 = %c0_73 to %c16_74 step %c1_75 {
        %c0_97 = arith.constant 0 : index
        %c9 = arith.constant 9 : index
        %c1_98 = arith.constant 1 : index
        scf.for %arg4 = %c0_97 to %c9 step %c1_98 {
          %c0_99 = arith.constant 0 : index
          %c9_100 = arith.constant 9 : index
          %c1_101 = arith.constant 1 : index
          scf.for %arg5 = %c0_99 to %c9_100 step %c1_101 {
            %c0_102 = arith.constant 0 : index
            %c3 = arith.constant 3 : index
            %c1_103 = arith.constant 1 : index
            scf.for %arg6 = %c0_102 to %c3 step %c1_103 {
              %49 = arith.addi %arg4, %arg6 : index
              %50 = arith.addi %arg5, %c0_15 : index
              %51 = memref.load %arg0[%c0_32, %c0_31, %49, %50] : memref<1x1x11x11xf32>
              %52 = memref.load %26[%arg3, %c0_31, %arg6, %c0_15] : memref<16x1x3x3xf32>
              %c0_104 = arith.constant 0 : index
              %53 = memref.load %9[%c0_104, %arg3, %arg4, %arg5] : memref<1x16x9x9xf32>
              %54 = arith.mulf %51, %52 : f32
              %55 = arith.addf %53, %54 : f32
              %c0_105 = arith.constant 0 : index
              memref.store %55, %9[%c0_105, %arg3, %arg4, %arg5] : memref<1x16x9x9xf32>
              %c1_106 = arith.constant 1 : index
              %56 = arith.addi %arg5, %c1_106 : index
              %57 = memref.load %arg0[%c0_32, %c0_31, %49, %56] : memref<1x1x11x11xf32>
              %58 = memref.load %26[%arg3, %c0_31, %arg6, %c1_106] : memref<16x1x3x3xf32>
              %c0_107 = arith.constant 0 : index
              %59 = memref.load %9[%c0_107, %arg3, %arg4, %arg5] : memref<1x16x9x9xf32>
              %60 = arith.mulf %57, %58 : f32
              %61 = arith.addf %59, %60 : f32
              %c0_108 = arith.constant 0 : index
              memref.store %61, %9[%c0_108, %arg3, %arg4, %arg5] : memref<1x16x9x9xf32>
              %c2_109 = arith.constant 2 : index
              %62 = arith.addi %arg5, %c2_109 : index
              %63 = memref.load %arg0[%c0_32, %c0_31, %49, %62] : memref<1x1x11x11xf32>
              %64 = memref.load %26[%arg3, %c0_31, %arg6, %c2_109] : memref<16x1x3x3xf32>
              %c0_110 = arith.constant 0 : index
              %65 = memref.load %9[%c0_110, %arg3, %arg4, %arg5] : memref<1x16x9x9xf32>
              %66 = arith.mulf %63, %64 : f32
              %67 = arith.addf %65, %66 : f32
              %c0_111 = arith.constant 0 : index
              memref.store %67, %9[%c0_111, %arg3, %arg4, %arg5] : memref<1x16x9x9xf32>
            }
          }
        }
      }
      %c0_76 = arith.constant 0 : index
      %c8_77 = arith.constant 8 : index
      %c1_78 = arith.constant 1 : index
      scf.for %arg3 = %c0_76 to %c8_77 step %c1_78 {
        %c0_97 = arith.constant 0 : index
        %c9 = arith.constant 9 : index
        %c1_98 = arith.constant 1 : index
        scf.for %arg4 = %c0_97 to %c9 step %c1_98 {
          %c0_99 = arith.constant 0 : index
          %c9_100 = arith.constant 9 : index
          %c1_101 = arith.constant 1 : index
          scf.for %arg5 = %c0_99 to %c9_100 step %c1_101 {
            %49 = memref.load %34[%arg3] : memref<8xf32>
            %c0_102 = arith.constant 0 : index
            %c0_103 = arith.constant 0 : index
            %c0_104 = arith.constant 0 : index
            %c0_105 = arith.constant 0 : index
            memref.store %49, %10[%c0_102, %c0_103, %c0_104, %c0_105] : memref<1x1x1x1xf32>
            %50 = arith.addi %arg4, %c0_35 : index
            %51 = arith.addi %arg5, %c0_34 : index
            %c0_106 = arith.constant 0 : index
            %52 = memref.load %9[%c0_106, %c0_14, %arg4, %arg5] : memref<1x16x9x9xf32>
            %53 = memref.load %27[%arg3, %c0_14, %c0_35, %c0_34] : memref<8x16x1x1xf32>
            %c0_107 = arith.constant 0 : index
            %c0_108 = arith.constant 0 : index
            %c0_109 = arith.constant 0 : index
            %c0_110 = arith.constant 0 : index
            %54 = memref.load %10[%c0_107, %c0_108, %c0_109, %c0_110] : memref<1x1x1x1xf32>
            %55 = arith.mulf %52, %53 : f32
            %56 = arith.addf %54, %55 : f32
            %c0_111 = arith.constant 0 : index
            %c0_112 = arith.constant 0 : index
            %c0_113 = arith.constant 0 : index
            %c0_114 = arith.constant 0 : index
            memref.store %56, %10[%c0_111, %c0_112, %c0_113, %c0_114] : memref<1x1x1x1xf32>
            %c1_115 = arith.constant 1 : index
            %57 = arith.addi %arg4, %c0_35 : index
            %58 = arith.addi %arg5, %c0_34 : index
            %c0_116 = arith.constant 0 : index
            %59 = memref.load %9[%c0_116, %c1_115, %arg4, %arg5] : memref<1x16x9x9xf32>
            %60 = memref.load %27[%arg3, %c1_115, %c0_35, %c0_34] : memref<8x16x1x1xf32>
            %c0_117 = arith.constant 0 : index
            %c0_118 = arith.constant 0 : index
            %c0_119 = arith.constant 0 : index
            %c0_120 = arith.constant 0 : index
            %61 = memref.load %10[%c0_117, %c0_118, %c0_119, %c0_120] : memref<1x1x1x1xf32>
            %62 = arith.mulf %59, %60 : f32
            %63 = arith.addf %61, %62 : f32
            %c0_121 = arith.constant 0 : index
            %c0_122 = arith.constant 0 : index
            %c0_123 = arith.constant 0 : index
            %c0_124 = arith.constant 0 : index
            memref.store %63, %10[%c0_121, %c0_122, %c0_123, %c0_124] : memref<1x1x1x1xf32>
            %c2_125 = arith.constant 2 : index
            %64 = arith.addi %arg4, %c0_35 : index
            %65 = arith.addi %arg5, %c0_34 : index
            %c0_126 = arith.constant 0 : index
            %66 = memref.load %9[%c0_126, %c2_125, %arg4, %arg5] : memref<1x16x9x9xf32>
            %67 = memref.load %27[%arg3, %c2_125, %c0_35, %c0_34] : memref<8x16x1x1xf32>
            %c0_127 = arith.constant 0 : index
            %c0_128 = arith.constant 0 : index
            %c0_129 = arith.constant 0 : index
            %c0_130 = arith.constant 0 : index
            %68 = memref.load %10[%c0_127, %c0_128, %c0_129, %c0_130] : memref<1x1x1x1xf32>
            %69 = arith.mulf %66, %67 : f32
            %70 = arith.addf %68, %69 : f32
            %c0_131 = arith.constant 0 : index
            %c0_132 = arith.constant 0 : index
            %c0_133 = arith.constant 0 : index
            %c0_134 = arith.constant 0 : index
            memref.store %70, %10[%c0_131, %c0_132, %c0_133, %c0_134] : memref<1x1x1x1xf32>
            %c3 = arith.constant 3 : index
            %71 = arith.addi %arg4, %c0_35 : index
            %72 = arith.addi %arg5, %c0_34 : index
            %c0_135 = arith.constant 0 : index
            %73 = memref.load %9[%c0_135, %c3, %arg4, %arg5] : memref<1x16x9x9xf32>
            %74 = memref.load %27[%arg3, %c3, %c0_35, %c0_34] : memref<8x16x1x1xf32>
            %c0_136 = arith.constant 0 : index
            %c0_137 = arith.constant 0 : index
            %c0_138 = arith.constant 0 : index
            %c0_139 = arith.constant 0 : index
            %75 = memref.load %10[%c0_136, %c0_137, %c0_138, %c0_139] : memref<1x1x1x1xf32>
            %76 = arith.mulf %73, %74 : f32
            %77 = arith.addf %75, %76 : f32
            %c0_140 = arith.constant 0 : index
            %c0_141 = arith.constant 0 : index
            %c0_142 = arith.constant 0 : index
            %c0_143 = arith.constant 0 : index
            memref.store %77, %10[%c0_140, %c0_141, %c0_142, %c0_143] : memref<1x1x1x1xf32>
            %c4 = arith.constant 4 : index
            %78 = arith.addi %arg4, %c0_35 : index
            %79 = arith.addi %arg5, %c0_34 : index
            %c0_144 = arith.constant 0 : index
            %80 = memref.load %9[%c0_144, %c4, %arg4, %arg5] : memref<1x16x9x9xf32>
            %81 = memref.load %27[%arg3, %c4, %c0_35, %c0_34] : memref<8x16x1x1xf32>
            %c0_145 = arith.constant 0 : index
            %c0_146 = arith.constant 0 : index
            %c0_147 = arith.constant 0 : index
            %c0_148 = arith.constant 0 : index
            %82 = memref.load %10[%c0_145, %c0_146, %c0_147, %c0_148] : memref<1x1x1x1xf32>
            %83 = arith.mulf %80, %81 : f32
            %84 = arith.addf %82, %83 : f32
            %c0_149 = arith.constant 0 : index
            %c0_150 = arith.constant 0 : index
            %c0_151 = arith.constant 0 : index
            %c0_152 = arith.constant 0 : index
            memref.store %84, %10[%c0_149, %c0_150, %c0_151, %c0_152] : memref<1x1x1x1xf32>
            %c5 = arith.constant 5 : index
            %85 = arith.addi %arg4, %c0_35 : index
            %86 = arith.addi %arg5, %c0_34 : index
            %c0_153 = arith.constant 0 : index
            %87 = memref.load %9[%c0_153, %c5, %arg4, %arg5] : memref<1x16x9x9xf32>
            %88 = memref.load %27[%arg3, %c5, %c0_35, %c0_34] : memref<8x16x1x1xf32>
            %c0_154 = arith.constant 0 : index
            %c0_155 = arith.constant 0 : index
            %c0_156 = arith.constant 0 : index
            %c0_157 = arith.constant 0 : index
            %89 = memref.load %10[%c0_154, %c0_155, %c0_156, %c0_157] : memref<1x1x1x1xf32>
            %90 = arith.mulf %87, %88 : f32
            %91 = arith.addf %89, %90 : f32
            %c0_158 = arith.constant 0 : index
            %c0_159 = arith.constant 0 : index
            %c0_160 = arith.constant 0 : index
            %c0_161 = arith.constant 0 : index
            memref.store %91, %10[%c0_158, %c0_159, %c0_160, %c0_161] : memref<1x1x1x1xf32>
            %c6 = arith.constant 6 : index
            %92 = arith.addi %arg4, %c0_35 : index
            %93 = arith.addi %arg5, %c0_34 : index
            %c0_162 = arith.constant 0 : index
            %94 = memref.load %9[%c0_162, %c6, %arg4, %arg5] : memref<1x16x9x9xf32>
            %95 = memref.load %27[%arg3, %c6, %c0_35, %c0_34] : memref<8x16x1x1xf32>
            %c0_163 = arith.constant 0 : index
            %c0_164 = arith.constant 0 : index
            %c0_165 = arith.constant 0 : index
            %c0_166 = arith.constant 0 : index
            %96 = memref.load %10[%c0_163, %c0_164, %c0_165, %c0_166] : memref<1x1x1x1xf32>
            %97 = arith.mulf %94, %95 : f32
            %98 = arith.addf %96, %97 : f32
            %c0_167 = arith.constant 0 : index
            %c0_168 = arith.constant 0 : index
            %c0_169 = arith.constant 0 : index
            %c0_170 = arith.constant 0 : index
            memref.store %98, %10[%c0_167, %c0_168, %c0_169, %c0_170] : memref<1x1x1x1xf32>
            %c7 = arith.constant 7 : index
            %99 = arith.addi %arg4, %c0_35 : index
            %100 = arith.addi %arg5, %c0_34 : index
            %c0_171 = arith.constant 0 : index
            %101 = memref.load %9[%c0_171, %c7, %arg4, %arg5] : memref<1x16x9x9xf32>
            %102 = memref.load %27[%arg3, %c7, %c0_35, %c0_34] : memref<8x16x1x1xf32>
            %c0_172 = arith.constant 0 : index
            %c0_173 = arith.constant 0 : index
            %c0_174 = arith.constant 0 : index
            %c0_175 = arith.constant 0 : index
            %103 = memref.load %10[%c0_172, %c0_173, %c0_174, %c0_175] : memref<1x1x1x1xf32>
            %104 = arith.mulf %101, %102 : f32
            %105 = arith.addf %103, %104 : f32
            %c0_176 = arith.constant 0 : index
            %c0_177 = arith.constant 0 : index
            %c0_178 = arith.constant 0 : index
            %c0_179 = arith.constant 0 : index
            memref.store %105, %10[%c0_176, %c0_177, %c0_178, %c0_179] : memref<1x1x1x1xf32>
            %c8_180 = arith.constant 8 : index
            %106 = arith.addi %arg4, %c0_35 : index
            %107 = arith.addi %arg5, %c0_34 : index
            %c0_181 = arith.constant 0 : index
            %108 = memref.load %9[%c0_181, %c8_180, %arg4, %arg5] : memref<1x16x9x9xf32>
            %109 = memref.load %27[%arg3, %c8_180, %c0_35, %c0_34] : memref<8x16x1x1xf32>
            %c0_182 = arith.constant 0 : index
            %c0_183 = arith.constant 0 : index
            %c0_184 = arith.constant 0 : index
            %c0_185 = arith.constant 0 : index
            %110 = memref.load %10[%c0_182, %c0_183, %c0_184, %c0_185] : memref<1x1x1x1xf32>
            %111 = arith.mulf %108, %109 : f32
            %112 = arith.addf %110, %111 : f32
            %c0_186 = arith.constant 0 : index
            %c0_187 = arith.constant 0 : index
            %c0_188 = arith.constant 0 : index
            %c0_189 = arith.constant 0 : index
            memref.store %112, %10[%c0_186, %c0_187, %c0_188, %c0_189] : memref<1x1x1x1xf32>
            %c9_190 = arith.constant 9 : index
            %113 = arith.addi %arg4, %c0_35 : index
            %114 = arith.addi %arg5, %c0_34 : index
            %c0_191 = arith.constant 0 : index
            %115 = memref.load %9[%c0_191, %c9_190, %arg4, %arg5] : memref<1x16x9x9xf32>
            %116 = memref.load %27[%arg3, %c9_190, %c0_35, %c0_34] : memref<8x16x1x1xf32>
            %c0_192 = arith.constant 0 : index
            %c0_193 = arith.constant 0 : index
            %c0_194 = arith.constant 0 : index
            %c0_195 = arith.constant 0 : index
            %117 = memref.load %10[%c0_192, %c0_193, %c0_194, %c0_195] : memref<1x1x1x1xf32>
            %118 = arith.mulf %115, %116 : f32
            %119 = arith.addf %117, %118 : f32
            %c0_196 = arith.constant 0 : index
            %c0_197 = arith.constant 0 : index
            %c0_198 = arith.constant 0 : index
            %c0_199 = arith.constant 0 : index
            memref.store %119, %10[%c0_196, %c0_197, %c0_198, %c0_199] : memref<1x1x1x1xf32>
            %c10 = arith.constant 10 : index
            %120 = arith.addi %arg4, %c0_35 : index
            %121 = arith.addi %arg5, %c0_34 : index
            %c0_200 = arith.constant 0 : index
            %122 = memref.load %9[%c0_200, %c10, %arg4, %arg5] : memref<1x16x9x9xf32>
            %123 = memref.load %27[%arg3, %c10, %c0_35, %c0_34] : memref<8x16x1x1xf32>
            %c0_201 = arith.constant 0 : index
            %c0_202 = arith.constant 0 : index
            %c0_203 = arith.constant 0 : index
            %c0_204 = arith.constant 0 : index
            %124 = memref.load %10[%c0_201, %c0_202, %c0_203, %c0_204] : memref<1x1x1x1xf32>
            %125 = arith.mulf %122, %123 : f32
            %126 = arith.addf %124, %125 : f32
            %c0_205 = arith.constant 0 : index
            %c0_206 = arith.constant 0 : index
            %c0_207 = arith.constant 0 : index
            %c0_208 = arith.constant 0 : index
            memref.store %126, %10[%c0_205, %c0_206, %c0_207, %c0_208] : memref<1x1x1x1xf32>
            %c11 = arith.constant 11 : index
            %127 = arith.addi %arg4, %c0_35 : index
            %128 = arith.addi %arg5, %c0_34 : index
            %c0_209 = arith.constant 0 : index
            %129 = memref.load %9[%c0_209, %c11, %arg4, %arg5] : memref<1x16x9x9xf32>
            %130 = memref.load %27[%arg3, %c11, %c0_35, %c0_34] : memref<8x16x1x1xf32>
            %c0_210 = arith.constant 0 : index
            %c0_211 = arith.constant 0 : index
            %c0_212 = arith.constant 0 : index
            %c0_213 = arith.constant 0 : index
            %131 = memref.load %10[%c0_210, %c0_211, %c0_212, %c0_213] : memref<1x1x1x1xf32>
            %132 = arith.mulf %129, %130 : f32
            %133 = arith.addf %131, %132 : f32
            %c0_214 = arith.constant 0 : index
            %c0_215 = arith.constant 0 : index
            %c0_216 = arith.constant 0 : index
            %c0_217 = arith.constant 0 : index
            memref.store %133, %10[%c0_214, %c0_215, %c0_216, %c0_217] : memref<1x1x1x1xf32>
            %c12 = arith.constant 12 : index
            %134 = arith.addi %arg4, %c0_35 : index
            %135 = arith.addi %arg5, %c0_34 : index
            %c0_218 = arith.constant 0 : index
            %136 = memref.load %9[%c0_218, %c12, %arg4, %arg5] : memref<1x16x9x9xf32>
            %137 = memref.load %27[%arg3, %c12, %c0_35, %c0_34] : memref<8x16x1x1xf32>
            %c0_219 = arith.constant 0 : index
            %c0_220 = arith.constant 0 : index
            %c0_221 = arith.constant 0 : index
            %c0_222 = arith.constant 0 : index
            %138 = memref.load %10[%c0_219, %c0_220, %c0_221, %c0_222] : memref<1x1x1x1xf32>
            %139 = arith.mulf %136, %137 : f32
            %140 = arith.addf %138, %139 : f32
            %c0_223 = arith.constant 0 : index
            %c0_224 = arith.constant 0 : index
            %c0_225 = arith.constant 0 : index
            %c0_226 = arith.constant 0 : index
            memref.store %140, %10[%c0_223, %c0_224, %c0_225, %c0_226] : memref<1x1x1x1xf32>
            %c13 = arith.constant 13 : index
            %141 = arith.addi %arg4, %c0_35 : index
            %142 = arith.addi %arg5, %c0_34 : index
            %c0_227 = arith.constant 0 : index
            %143 = memref.load %9[%c0_227, %c13, %arg4, %arg5] : memref<1x16x9x9xf32>
            %144 = memref.load %27[%arg3, %c13, %c0_35, %c0_34] : memref<8x16x1x1xf32>
            %c0_228 = arith.constant 0 : index
            %c0_229 = arith.constant 0 : index
            %c0_230 = arith.constant 0 : index
            %c0_231 = arith.constant 0 : index
            %145 = memref.load %10[%c0_228, %c0_229, %c0_230, %c0_231] : memref<1x1x1x1xf32>
            %146 = arith.mulf %143, %144 : f32
            %147 = arith.addf %145, %146 : f32
            %c0_232 = arith.constant 0 : index
            %c0_233 = arith.constant 0 : index
            %c0_234 = arith.constant 0 : index
            %c0_235 = arith.constant 0 : index
            memref.store %147, %10[%c0_232, %c0_233, %c0_234, %c0_235] : memref<1x1x1x1xf32>
            %c14 = arith.constant 14 : index
            %148 = arith.addi %arg4, %c0_35 : index
            %149 = arith.addi %arg5, %c0_34 : index
            %c0_236 = arith.constant 0 : index
            %150 = memref.load %9[%c0_236, %c14, %arg4, %arg5] : memref<1x16x9x9xf32>
            %151 = memref.load %27[%arg3, %c14, %c0_35, %c0_34] : memref<8x16x1x1xf32>
            %c0_237 = arith.constant 0 : index
            %c0_238 = arith.constant 0 : index
            %c0_239 = arith.constant 0 : index
            %c0_240 = arith.constant 0 : index
            %152 = memref.load %10[%c0_237, %c0_238, %c0_239, %c0_240] : memref<1x1x1x1xf32>
            %153 = arith.mulf %150, %151 : f32
            %154 = arith.addf %152, %153 : f32
            %c0_241 = arith.constant 0 : index
            %c0_242 = arith.constant 0 : index
            %c0_243 = arith.constant 0 : index
            %c0_244 = arith.constant 0 : index
            memref.store %154, %10[%c0_241, %c0_242, %c0_243, %c0_244] : memref<1x1x1x1xf32>
            %c15 = arith.constant 15 : index
            %155 = arith.addi %arg4, %c0_35 : index
            %156 = arith.addi %arg5, %c0_34 : index
            %c0_245 = arith.constant 0 : index
            %157 = memref.load %9[%c0_245, %c15, %arg4, %arg5] : memref<1x16x9x9xf32>
            %158 = memref.load %27[%arg3, %c15, %c0_35, %c0_34] : memref<8x16x1x1xf32>
            %c0_246 = arith.constant 0 : index
            %c0_247 = arith.constant 0 : index
            %c0_248 = arith.constant 0 : index
            %c0_249 = arith.constant 0 : index
            %159 = memref.load %10[%c0_246, %c0_247, %c0_248, %c0_249] : memref<1x1x1x1xf32>
            %160 = arith.mulf %157, %158 : f32
            %161 = arith.addf %159, %160 : f32
            %c0_250 = arith.constant 0 : index
            %c0_251 = arith.constant 0 : index
            %c0_252 = arith.constant 0 : index
            %c0_253 = arith.constant 0 : index
            memref.store %161, %10[%c0_250, %c0_251, %c0_252, %c0_253] : memref<1x1x1x1xf32>
            %162 = memref.load %34[%arg3] : memref<8xf32>
            %c0_254 = arith.constant 0 : index
            %c0_255 = arith.constant 0 : index
            %c0_256 = arith.constant 0 : index
            %c0_257 = arith.constant 0 : index
            memref.store %162, %11[%c0_254, %c0_255, %c0_256, %c0_257] : memref<1x1x1x1xf32>
            %163 = arith.addi %arg4, %c0_39 : index
            %164 = arith.addi %arg5, %c0_38 : index
            %c0_258 = arith.constant 0 : index
            %165 = memref.load %9[%c0_258, %c0_13, %arg4, %arg5] : memref<1x16x9x9xf32>
            %166 = memref.load %27[%arg3, %c0_13, %c0_39, %c0_38] : memref<8x16x1x1xf32>
            %c0_259 = arith.constant 0 : index
            %c0_260 = arith.constant 0 : index
            %c0_261 = arith.constant 0 : index
            %c0_262 = arith.constant 0 : index
            %167 = memref.load %11[%c0_259, %c0_260, %c0_261, %c0_262] : memref<1x1x1x1xf32>
            %168 = arith.mulf %165, %166 : f32
            %169 = arith.addf %167, %168 : f32
            %c0_263 = arith.constant 0 : index
            %c0_264 = arith.constant 0 : index
            %c0_265 = arith.constant 0 : index
            %c0_266 = arith.constant 0 : index
            memref.store %169, %11[%c0_263, %c0_264, %c0_265, %c0_266] : memref<1x1x1x1xf32>
            %c1_267 = arith.constant 1 : index
            %170 = arith.addi %arg4, %c0_39 : index
            %171 = arith.addi %arg5, %c0_38 : index
            %c0_268 = arith.constant 0 : index
            %172 = memref.load %9[%c0_268, %c1_267, %arg4, %arg5] : memref<1x16x9x9xf32>
            %173 = memref.load %27[%arg3, %c1_267, %c0_39, %c0_38] : memref<8x16x1x1xf32>
            %c0_269 = arith.constant 0 : index
            %c0_270 = arith.constant 0 : index
            %c0_271 = arith.constant 0 : index
            %c0_272 = arith.constant 0 : index
            %174 = memref.load %11[%c0_269, %c0_270, %c0_271, %c0_272] : memref<1x1x1x1xf32>
            %175 = arith.mulf %172, %173 : f32
            %176 = arith.addf %174, %175 : f32
            %c0_273 = arith.constant 0 : index
            %c0_274 = arith.constant 0 : index
            %c0_275 = arith.constant 0 : index
            %c0_276 = arith.constant 0 : index
            memref.store %176, %11[%c0_273, %c0_274, %c0_275, %c0_276] : memref<1x1x1x1xf32>
            %c2_277 = arith.constant 2 : index
            %177 = arith.addi %arg4, %c0_39 : index
            %178 = arith.addi %arg5, %c0_38 : index
            %c0_278 = arith.constant 0 : index
            %179 = memref.load %9[%c0_278, %c2_277, %arg4, %arg5] : memref<1x16x9x9xf32>
            %180 = memref.load %27[%arg3, %c2_277, %c0_39, %c0_38] : memref<8x16x1x1xf32>
            %c0_279 = arith.constant 0 : index
            %c0_280 = arith.constant 0 : index
            %c0_281 = arith.constant 0 : index
            %c0_282 = arith.constant 0 : index
            %181 = memref.load %11[%c0_279, %c0_280, %c0_281, %c0_282] : memref<1x1x1x1xf32>
            %182 = arith.mulf %179, %180 : f32
            %183 = arith.addf %181, %182 : f32
            %c0_283 = arith.constant 0 : index
            %c0_284 = arith.constant 0 : index
            %c0_285 = arith.constant 0 : index
            %c0_286 = arith.constant 0 : index
            memref.store %183, %11[%c0_283, %c0_284, %c0_285, %c0_286] : memref<1x1x1x1xf32>
            %c3_287 = arith.constant 3 : index
            %184 = arith.addi %arg4, %c0_39 : index
            %185 = arith.addi %arg5, %c0_38 : index
            %c0_288 = arith.constant 0 : index
            %186 = memref.load %9[%c0_288, %c3_287, %arg4, %arg5] : memref<1x16x9x9xf32>
            %187 = memref.load %27[%arg3, %c3_287, %c0_39, %c0_38] : memref<8x16x1x1xf32>
            %c0_289 = arith.constant 0 : index
            %c0_290 = arith.constant 0 : index
            %c0_291 = arith.constant 0 : index
            %c0_292 = arith.constant 0 : index
            %188 = memref.load %11[%c0_289, %c0_290, %c0_291, %c0_292] : memref<1x1x1x1xf32>
            %189 = arith.mulf %186, %187 : f32
            %190 = arith.addf %188, %189 : f32
            %c0_293 = arith.constant 0 : index
            %c0_294 = arith.constant 0 : index
            %c0_295 = arith.constant 0 : index
            %c0_296 = arith.constant 0 : index
            memref.store %190, %11[%c0_293, %c0_294, %c0_295, %c0_296] : memref<1x1x1x1xf32>
            %c4_297 = arith.constant 4 : index
            %191 = arith.addi %arg4, %c0_39 : index
            %192 = arith.addi %arg5, %c0_38 : index
            %c0_298 = arith.constant 0 : index
            %193 = memref.load %9[%c0_298, %c4_297, %arg4, %arg5] : memref<1x16x9x9xf32>
            %194 = memref.load %27[%arg3, %c4_297, %c0_39, %c0_38] : memref<8x16x1x1xf32>
            %c0_299 = arith.constant 0 : index
            %c0_300 = arith.constant 0 : index
            %c0_301 = arith.constant 0 : index
            %c0_302 = arith.constant 0 : index
            %195 = memref.load %11[%c0_299, %c0_300, %c0_301, %c0_302] : memref<1x1x1x1xf32>
            %196 = arith.mulf %193, %194 : f32
            %197 = arith.addf %195, %196 : f32
            %c0_303 = arith.constant 0 : index
            %c0_304 = arith.constant 0 : index
            %c0_305 = arith.constant 0 : index
            %c0_306 = arith.constant 0 : index
            memref.store %197, %11[%c0_303, %c0_304, %c0_305, %c0_306] : memref<1x1x1x1xf32>
            %c5_307 = arith.constant 5 : index
            %198 = arith.addi %arg4, %c0_39 : index
            %199 = arith.addi %arg5, %c0_38 : index
            %c0_308 = arith.constant 0 : index
            %200 = memref.load %9[%c0_308, %c5_307, %arg4, %arg5] : memref<1x16x9x9xf32>
            %201 = memref.load %27[%arg3, %c5_307, %c0_39, %c0_38] : memref<8x16x1x1xf32>
            %c0_309 = arith.constant 0 : index
            %c0_310 = arith.constant 0 : index
            %c0_311 = arith.constant 0 : index
            %c0_312 = arith.constant 0 : index
            %202 = memref.load %11[%c0_309, %c0_310, %c0_311, %c0_312] : memref<1x1x1x1xf32>
            %203 = arith.mulf %200, %201 : f32
            %204 = arith.addf %202, %203 : f32
            %c0_313 = arith.constant 0 : index
            %c0_314 = arith.constant 0 : index
            %c0_315 = arith.constant 0 : index
            %c0_316 = arith.constant 0 : index
            memref.store %204, %11[%c0_313, %c0_314, %c0_315, %c0_316] : memref<1x1x1x1xf32>
            %c6_317 = arith.constant 6 : index
            %205 = arith.addi %arg4, %c0_39 : index
            %206 = arith.addi %arg5, %c0_38 : index
            %c0_318 = arith.constant 0 : index
            %207 = memref.load %9[%c0_318, %c6_317, %arg4, %arg5] : memref<1x16x9x9xf32>
            %208 = memref.load %27[%arg3, %c6_317, %c0_39, %c0_38] : memref<8x16x1x1xf32>
            %c0_319 = arith.constant 0 : index
            %c0_320 = arith.constant 0 : index
            %c0_321 = arith.constant 0 : index
            %c0_322 = arith.constant 0 : index
            %209 = memref.load %11[%c0_319, %c0_320, %c0_321, %c0_322] : memref<1x1x1x1xf32>
            %210 = arith.mulf %207, %208 : f32
            %211 = arith.addf %209, %210 : f32
            %c0_323 = arith.constant 0 : index
            %c0_324 = arith.constant 0 : index
            %c0_325 = arith.constant 0 : index
            %c0_326 = arith.constant 0 : index
            memref.store %211, %11[%c0_323, %c0_324, %c0_325, %c0_326] : memref<1x1x1x1xf32>
            %c7_327 = arith.constant 7 : index
            %212 = arith.addi %arg4, %c0_39 : index
            %213 = arith.addi %arg5, %c0_38 : index
            %c0_328 = arith.constant 0 : index
            %214 = memref.load %9[%c0_328, %c7_327, %arg4, %arg5] : memref<1x16x9x9xf32>
            %215 = memref.load %27[%arg3, %c7_327, %c0_39, %c0_38] : memref<8x16x1x1xf32>
            %c0_329 = arith.constant 0 : index
            %c0_330 = arith.constant 0 : index
            %c0_331 = arith.constant 0 : index
            %c0_332 = arith.constant 0 : index
            %216 = memref.load %11[%c0_329, %c0_330, %c0_331, %c0_332] : memref<1x1x1x1xf32>
            %217 = arith.mulf %214, %215 : f32
            %218 = arith.addf %216, %217 : f32
            %c0_333 = arith.constant 0 : index
            %c0_334 = arith.constant 0 : index
            %c0_335 = arith.constant 0 : index
            %c0_336 = arith.constant 0 : index
            memref.store %218, %11[%c0_333, %c0_334, %c0_335, %c0_336] : memref<1x1x1x1xf32>
            %c8_337 = arith.constant 8 : index
            %219 = arith.addi %arg4, %c0_39 : index
            %220 = arith.addi %arg5, %c0_38 : index
            %c0_338 = arith.constant 0 : index
            %221 = memref.load %9[%c0_338, %c8_337, %arg4, %arg5] : memref<1x16x9x9xf32>
            %222 = memref.load %27[%arg3, %c8_337, %c0_39, %c0_38] : memref<8x16x1x1xf32>
            %c0_339 = arith.constant 0 : index
            %c0_340 = arith.constant 0 : index
            %c0_341 = arith.constant 0 : index
            %c0_342 = arith.constant 0 : index
            %223 = memref.load %11[%c0_339, %c0_340, %c0_341, %c0_342] : memref<1x1x1x1xf32>
            %224 = arith.mulf %221, %222 : f32
            %225 = arith.addf %223, %224 : f32
            %c0_343 = arith.constant 0 : index
            %c0_344 = arith.constant 0 : index
            %c0_345 = arith.constant 0 : index
            %c0_346 = arith.constant 0 : index
            memref.store %225, %11[%c0_343, %c0_344, %c0_345, %c0_346] : memref<1x1x1x1xf32>
            %c9_347 = arith.constant 9 : index
            %226 = arith.addi %arg4, %c0_39 : index
            %227 = arith.addi %arg5, %c0_38 : index
            %c0_348 = arith.constant 0 : index
            %228 = memref.load %9[%c0_348, %c9_347, %arg4, %arg5] : memref<1x16x9x9xf32>
            %229 = memref.load %27[%arg3, %c9_347, %c0_39, %c0_38] : memref<8x16x1x1xf32>
            %c0_349 = arith.constant 0 : index
            %c0_350 = arith.constant 0 : index
            %c0_351 = arith.constant 0 : index
            %c0_352 = arith.constant 0 : index
            %230 = memref.load %11[%c0_349, %c0_350, %c0_351, %c0_352] : memref<1x1x1x1xf32>
            %231 = arith.mulf %228, %229 : f32
            %232 = arith.addf %230, %231 : f32
            %c0_353 = arith.constant 0 : index
            %c0_354 = arith.constant 0 : index
            %c0_355 = arith.constant 0 : index
            %c0_356 = arith.constant 0 : index
            memref.store %232, %11[%c0_353, %c0_354, %c0_355, %c0_356] : memref<1x1x1x1xf32>
            %c10_357 = arith.constant 10 : index
            %233 = arith.addi %arg4, %c0_39 : index
            %234 = arith.addi %arg5, %c0_38 : index
            %c0_358 = arith.constant 0 : index
            %235 = memref.load %9[%c0_358, %c10_357, %arg4, %arg5] : memref<1x16x9x9xf32>
            %236 = memref.load %27[%arg3, %c10_357, %c0_39, %c0_38] : memref<8x16x1x1xf32>
            %c0_359 = arith.constant 0 : index
            %c0_360 = arith.constant 0 : index
            %c0_361 = arith.constant 0 : index
            %c0_362 = arith.constant 0 : index
            %237 = memref.load %11[%c0_359, %c0_360, %c0_361, %c0_362] : memref<1x1x1x1xf32>
            %238 = arith.mulf %235, %236 : f32
            %239 = arith.addf %237, %238 : f32
            %c0_363 = arith.constant 0 : index
            %c0_364 = arith.constant 0 : index
            %c0_365 = arith.constant 0 : index
            %c0_366 = arith.constant 0 : index
            memref.store %239, %11[%c0_363, %c0_364, %c0_365, %c0_366] : memref<1x1x1x1xf32>
            %c11_367 = arith.constant 11 : index
            %240 = arith.addi %arg4, %c0_39 : index
            %241 = arith.addi %arg5, %c0_38 : index
            %c0_368 = arith.constant 0 : index
            %242 = memref.load %9[%c0_368, %c11_367, %arg4, %arg5] : memref<1x16x9x9xf32>
            %243 = memref.load %27[%arg3, %c11_367, %c0_39, %c0_38] : memref<8x16x1x1xf32>
            %c0_369 = arith.constant 0 : index
            %c0_370 = arith.constant 0 : index
            %c0_371 = arith.constant 0 : index
            %c0_372 = arith.constant 0 : index
            %244 = memref.load %11[%c0_369, %c0_370, %c0_371, %c0_372] : memref<1x1x1x1xf32>
            %245 = arith.mulf %242, %243 : f32
            %246 = arith.addf %244, %245 : f32
            %c0_373 = arith.constant 0 : index
            %c0_374 = arith.constant 0 : index
            %c0_375 = arith.constant 0 : index
            %c0_376 = arith.constant 0 : index
            memref.store %246, %11[%c0_373, %c0_374, %c0_375, %c0_376] : memref<1x1x1x1xf32>
            %c12_377 = arith.constant 12 : index
            %247 = arith.addi %arg4, %c0_39 : index
            %248 = arith.addi %arg5, %c0_38 : index
            %c0_378 = arith.constant 0 : index
            %249 = memref.load %9[%c0_378, %c12_377, %arg4, %arg5] : memref<1x16x9x9xf32>
            %250 = memref.load %27[%arg3, %c12_377, %c0_39, %c0_38] : memref<8x16x1x1xf32>
            %c0_379 = arith.constant 0 : index
            %c0_380 = arith.constant 0 : index
            %c0_381 = arith.constant 0 : index
            %c0_382 = arith.constant 0 : index
            %251 = memref.load %11[%c0_379, %c0_380, %c0_381, %c0_382] : memref<1x1x1x1xf32>
            %252 = arith.mulf %249, %250 : f32
            %253 = arith.addf %251, %252 : f32
            %c0_383 = arith.constant 0 : index
            %c0_384 = arith.constant 0 : index
            %c0_385 = arith.constant 0 : index
            %c0_386 = arith.constant 0 : index
            memref.store %253, %11[%c0_383, %c0_384, %c0_385, %c0_386] : memref<1x1x1x1xf32>
            %c13_387 = arith.constant 13 : index
            %254 = arith.addi %arg4, %c0_39 : index
            %255 = arith.addi %arg5, %c0_38 : index
            %c0_388 = arith.constant 0 : index
            %256 = memref.load %9[%c0_388, %c13_387, %arg4, %arg5] : memref<1x16x9x9xf32>
            %257 = memref.load %27[%arg3, %c13_387, %c0_39, %c0_38] : memref<8x16x1x1xf32>
            %c0_389 = arith.constant 0 : index
            %c0_390 = arith.constant 0 : index
            %c0_391 = arith.constant 0 : index
            %c0_392 = arith.constant 0 : index
            %258 = memref.load %11[%c0_389, %c0_390, %c0_391, %c0_392] : memref<1x1x1x1xf32>
            %259 = arith.mulf %256, %257 : f32
            %260 = arith.addf %258, %259 : f32
            %c0_393 = arith.constant 0 : index
            %c0_394 = arith.constant 0 : index
            %c0_395 = arith.constant 0 : index
            %c0_396 = arith.constant 0 : index
            memref.store %260, %11[%c0_393, %c0_394, %c0_395, %c0_396] : memref<1x1x1x1xf32>
            %c14_397 = arith.constant 14 : index
            %261 = arith.addi %arg4, %c0_39 : index
            %262 = arith.addi %arg5, %c0_38 : index
            %c0_398 = arith.constant 0 : index
            %263 = memref.load %9[%c0_398, %c14_397, %arg4, %arg5] : memref<1x16x9x9xf32>
            %264 = memref.load %27[%arg3, %c14_397, %c0_39, %c0_38] : memref<8x16x1x1xf32>
            %c0_399 = arith.constant 0 : index
            %c0_400 = arith.constant 0 : index
            %c0_401 = arith.constant 0 : index
            %c0_402 = arith.constant 0 : index
            %265 = memref.load %11[%c0_399, %c0_400, %c0_401, %c0_402] : memref<1x1x1x1xf32>
            %266 = arith.mulf %263, %264 : f32
            %267 = arith.addf %265, %266 : f32
            %c0_403 = arith.constant 0 : index
            %c0_404 = arith.constant 0 : index
            %c0_405 = arith.constant 0 : index
            %c0_406 = arith.constant 0 : index
            memref.store %267, %11[%c0_403, %c0_404, %c0_405, %c0_406] : memref<1x1x1x1xf32>
            %c15_407 = arith.constant 15 : index
            %268 = arith.addi %arg4, %c0_39 : index
            %269 = arith.addi %arg5, %c0_38 : index
            %c0_408 = arith.constant 0 : index
            %270 = memref.load %9[%c0_408, %c15_407, %arg4, %arg5] : memref<1x16x9x9xf32>
            %271 = memref.load %27[%arg3, %c15_407, %c0_39, %c0_38] : memref<8x16x1x1xf32>
            %c0_409 = arith.constant 0 : index
            %c0_410 = arith.constant 0 : index
            %c0_411 = arith.constant 0 : index
            %c0_412 = arith.constant 0 : index
            %272 = memref.load %11[%c0_409, %c0_410, %c0_411, %c0_412] : memref<1x1x1x1xf32>
            %273 = arith.mulf %270, %271 : f32
            %274 = arith.addf %272, %273 : f32
            %c0_413 = arith.constant 0 : index
            %c0_414 = arith.constant 0 : index
            %c0_415 = arith.constant 0 : index
            %c0_416 = arith.constant 0 : index
            memref.store %274, %11[%c0_413, %c0_414, %c0_415, %c0_416] : memref<1x1x1x1xf32>
            %275 = memref.load %34[%arg3] : memref<8xf32>
            %c0_417 = arith.constant 0 : index
            %c0_418 = arith.constant 0 : index
            %c0_419 = arith.constant 0 : index
            %c0_420 = arith.constant 0 : index
            memref.store %275, %12[%c0_417, %c0_418, %c0_419, %c0_420] : memref<1x1x1x1xf32>
            %276 = arith.addi %arg4, %c0_43 : index
            %277 = arith.addi %arg5, %c0_42 : index
            %c0_421 = arith.constant 0 : index
            %278 = memref.load %9[%c0_421, %c0_12, %arg4, %arg5] : memref<1x16x9x9xf32>
            %279 = memref.load %27[%arg3, %c0_12, %c0_43, %c0_42] : memref<8x16x1x1xf32>
            %c0_422 = arith.constant 0 : index
            %c0_423 = arith.constant 0 : index
            %c0_424 = arith.constant 0 : index
            %c0_425 = arith.constant 0 : index
            %280 = memref.load %12[%c0_422, %c0_423, %c0_424, %c0_425] : memref<1x1x1x1xf32>
            %281 = arith.mulf %278, %279 : f32
            %282 = arith.addf %280, %281 : f32
            %c0_426 = arith.constant 0 : index
            %c0_427 = arith.constant 0 : index
            %c0_428 = arith.constant 0 : index
            %c0_429 = arith.constant 0 : index
            memref.store %282, %12[%c0_426, %c0_427, %c0_428, %c0_429] : memref<1x1x1x1xf32>
            %c1_430 = arith.constant 1 : index
            %283 = arith.addi %arg4, %c0_43 : index
            %284 = arith.addi %arg5, %c0_42 : index
            %c0_431 = arith.constant 0 : index
            %285 = memref.load %9[%c0_431, %c1_430, %arg4, %arg5] : memref<1x16x9x9xf32>
            %286 = memref.load %27[%arg3, %c1_430, %c0_43, %c0_42] : memref<8x16x1x1xf32>
            %c0_432 = arith.constant 0 : index
            %c0_433 = arith.constant 0 : index
            %c0_434 = arith.constant 0 : index
            %c0_435 = arith.constant 0 : index
            %287 = memref.load %12[%c0_432, %c0_433, %c0_434, %c0_435] : memref<1x1x1x1xf32>
            %288 = arith.mulf %285, %286 : f32
            %289 = arith.addf %287, %288 : f32
            %c0_436 = arith.constant 0 : index
            %c0_437 = arith.constant 0 : index
            %c0_438 = arith.constant 0 : index
            %c0_439 = arith.constant 0 : index
            memref.store %289, %12[%c0_436, %c0_437, %c0_438, %c0_439] : memref<1x1x1x1xf32>
            %c2_440 = arith.constant 2 : index
            %290 = arith.addi %arg4, %c0_43 : index
            %291 = arith.addi %arg5, %c0_42 : index
            %c0_441 = arith.constant 0 : index
            %292 = memref.load %9[%c0_441, %c2_440, %arg4, %arg5] : memref<1x16x9x9xf32>
            %293 = memref.load %27[%arg3, %c2_440, %c0_43, %c0_42] : memref<8x16x1x1xf32>
            %c0_442 = arith.constant 0 : index
            %c0_443 = arith.constant 0 : index
            %c0_444 = arith.constant 0 : index
            %c0_445 = arith.constant 0 : index
            %294 = memref.load %12[%c0_442, %c0_443, %c0_444, %c0_445] : memref<1x1x1x1xf32>
            %295 = arith.mulf %292, %293 : f32
            %296 = arith.addf %294, %295 : f32
            %c0_446 = arith.constant 0 : index
            %c0_447 = arith.constant 0 : index
            %c0_448 = arith.constant 0 : index
            %c0_449 = arith.constant 0 : index
            memref.store %296, %12[%c0_446, %c0_447, %c0_448, %c0_449] : memref<1x1x1x1xf32>
            %c3_450 = arith.constant 3 : index
            %297 = arith.addi %arg4, %c0_43 : index
            %298 = arith.addi %arg5, %c0_42 : index
            %c0_451 = arith.constant 0 : index
            %299 = memref.load %9[%c0_451, %c3_450, %arg4, %arg5] : memref<1x16x9x9xf32>
            %300 = memref.load %27[%arg3, %c3_450, %c0_43, %c0_42] : memref<8x16x1x1xf32>
            %c0_452 = arith.constant 0 : index
            %c0_453 = arith.constant 0 : index
            %c0_454 = arith.constant 0 : index
            %c0_455 = arith.constant 0 : index
            %301 = memref.load %12[%c0_452, %c0_453, %c0_454, %c0_455] : memref<1x1x1x1xf32>
            %302 = arith.mulf %299, %300 : f32
            %303 = arith.addf %301, %302 : f32
            %c0_456 = arith.constant 0 : index
            %c0_457 = arith.constant 0 : index
            %c0_458 = arith.constant 0 : index
            %c0_459 = arith.constant 0 : index
            memref.store %303, %12[%c0_456, %c0_457, %c0_458, %c0_459] : memref<1x1x1x1xf32>
            %c4_460 = arith.constant 4 : index
            %304 = arith.addi %arg4, %c0_43 : index
            %305 = arith.addi %arg5, %c0_42 : index
            %c0_461 = arith.constant 0 : index
            %306 = memref.load %9[%c0_461, %c4_460, %arg4, %arg5] : memref<1x16x9x9xf32>
            %307 = memref.load %27[%arg3, %c4_460, %c0_43, %c0_42] : memref<8x16x1x1xf32>
            %c0_462 = arith.constant 0 : index
            %c0_463 = arith.constant 0 : index
            %c0_464 = arith.constant 0 : index
            %c0_465 = arith.constant 0 : index
            %308 = memref.load %12[%c0_462, %c0_463, %c0_464, %c0_465] : memref<1x1x1x1xf32>
            %309 = arith.mulf %306, %307 : f32
            %310 = arith.addf %308, %309 : f32
            %c0_466 = arith.constant 0 : index
            %c0_467 = arith.constant 0 : index
            %c0_468 = arith.constant 0 : index
            %c0_469 = arith.constant 0 : index
            memref.store %310, %12[%c0_466, %c0_467, %c0_468, %c0_469] : memref<1x1x1x1xf32>
            %c5_470 = arith.constant 5 : index
            %311 = arith.addi %arg4, %c0_43 : index
            %312 = arith.addi %arg5, %c0_42 : index
            %c0_471 = arith.constant 0 : index
            %313 = memref.load %9[%c0_471, %c5_470, %arg4, %arg5] : memref<1x16x9x9xf32>
            %314 = memref.load %27[%arg3, %c5_470, %c0_43, %c0_42] : memref<8x16x1x1xf32>
            %c0_472 = arith.constant 0 : index
            %c0_473 = arith.constant 0 : index
            %c0_474 = arith.constant 0 : index
            %c0_475 = arith.constant 0 : index
            %315 = memref.load %12[%c0_472, %c0_473, %c0_474, %c0_475] : memref<1x1x1x1xf32>
            %316 = arith.mulf %313, %314 : f32
            %317 = arith.addf %315, %316 : f32
            %c0_476 = arith.constant 0 : index
            %c0_477 = arith.constant 0 : index
            %c0_478 = arith.constant 0 : index
            %c0_479 = arith.constant 0 : index
            memref.store %317, %12[%c0_476, %c0_477, %c0_478, %c0_479] : memref<1x1x1x1xf32>
            %c6_480 = arith.constant 6 : index
            %318 = arith.addi %arg4, %c0_43 : index
            %319 = arith.addi %arg5, %c0_42 : index
            %c0_481 = arith.constant 0 : index
            %320 = memref.load %9[%c0_481, %c6_480, %arg4, %arg5] : memref<1x16x9x9xf32>
            %321 = memref.load %27[%arg3, %c6_480, %c0_43, %c0_42] : memref<8x16x1x1xf32>
            %c0_482 = arith.constant 0 : index
            %c0_483 = arith.constant 0 : index
            %c0_484 = arith.constant 0 : index
            %c0_485 = arith.constant 0 : index
            %322 = memref.load %12[%c0_482, %c0_483, %c0_484, %c0_485] : memref<1x1x1x1xf32>
            %323 = arith.mulf %320, %321 : f32
            %324 = arith.addf %322, %323 : f32
            %c0_486 = arith.constant 0 : index
            %c0_487 = arith.constant 0 : index
            %c0_488 = arith.constant 0 : index
            %c0_489 = arith.constant 0 : index
            memref.store %324, %12[%c0_486, %c0_487, %c0_488, %c0_489] : memref<1x1x1x1xf32>
            %c7_490 = arith.constant 7 : index
            %325 = arith.addi %arg4, %c0_43 : index
            %326 = arith.addi %arg5, %c0_42 : index
            %c0_491 = arith.constant 0 : index
            %327 = memref.load %9[%c0_491, %c7_490, %arg4, %arg5] : memref<1x16x9x9xf32>
            %328 = memref.load %27[%arg3, %c7_490, %c0_43, %c0_42] : memref<8x16x1x1xf32>
            %c0_492 = arith.constant 0 : index
            %c0_493 = arith.constant 0 : index
            %c0_494 = arith.constant 0 : index
            %c0_495 = arith.constant 0 : index
            %329 = memref.load %12[%c0_492, %c0_493, %c0_494, %c0_495] : memref<1x1x1x1xf32>
            %330 = arith.mulf %327, %328 : f32
            %331 = arith.addf %329, %330 : f32
            %c0_496 = arith.constant 0 : index
            %c0_497 = arith.constant 0 : index
            %c0_498 = arith.constant 0 : index
            %c0_499 = arith.constant 0 : index
            memref.store %331, %12[%c0_496, %c0_497, %c0_498, %c0_499] : memref<1x1x1x1xf32>
            %c8_500 = arith.constant 8 : index
            %332 = arith.addi %arg4, %c0_43 : index
            %333 = arith.addi %arg5, %c0_42 : index
            %c0_501 = arith.constant 0 : index
            %334 = memref.load %9[%c0_501, %c8_500, %arg4, %arg5] : memref<1x16x9x9xf32>
            %335 = memref.load %27[%arg3, %c8_500, %c0_43, %c0_42] : memref<8x16x1x1xf32>
            %c0_502 = arith.constant 0 : index
            %c0_503 = arith.constant 0 : index
            %c0_504 = arith.constant 0 : index
            %c0_505 = arith.constant 0 : index
            %336 = memref.load %12[%c0_502, %c0_503, %c0_504, %c0_505] : memref<1x1x1x1xf32>
            %337 = arith.mulf %334, %335 : f32
            %338 = arith.addf %336, %337 : f32
            %c0_506 = arith.constant 0 : index
            %c0_507 = arith.constant 0 : index
            %c0_508 = arith.constant 0 : index
            %c0_509 = arith.constant 0 : index
            memref.store %338, %12[%c0_506, %c0_507, %c0_508, %c0_509] : memref<1x1x1x1xf32>
            %c9_510 = arith.constant 9 : index
            %339 = arith.addi %arg4, %c0_43 : index
            %340 = arith.addi %arg5, %c0_42 : index
            %c0_511 = arith.constant 0 : index
            %341 = memref.load %9[%c0_511, %c9_510, %arg4, %arg5] : memref<1x16x9x9xf32>
            %342 = memref.load %27[%arg3, %c9_510, %c0_43, %c0_42] : memref<8x16x1x1xf32>
            %c0_512 = arith.constant 0 : index
            %c0_513 = arith.constant 0 : index
            %c0_514 = arith.constant 0 : index
            %c0_515 = arith.constant 0 : index
            %343 = memref.load %12[%c0_512, %c0_513, %c0_514, %c0_515] : memref<1x1x1x1xf32>
            %344 = arith.mulf %341, %342 : f32
            %345 = arith.addf %343, %344 : f32
            %c0_516 = arith.constant 0 : index
            %c0_517 = arith.constant 0 : index
            %c0_518 = arith.constant 0 : index
            %c0_519 = arith.constant 0 : index
            memref.store %345, %12[%c0_516, %c0_517, %c0_518, %c0_519] : memref<1x1x1x1xf32>
            %c10_520 = arith.constant 10 : index
            %346 = arith.addi %arg4, %c0_43 : index
            %347 = arith.addi %arg5, %c0_42 : index
            %c0_521 = arith.constant 0 : index
            %348 = memref.load %9[%c0_521, %c10_520, %arg4, %arg5] : memref<1x16x9x9xf32>
            %349 = memref.load %27[%arg3, %c10_520, %c0_43, %c0_42] : memref<8x16x1x1xf32>
            %c0_522 = arith.constant 0 : index
            %c0_523 = arith.constant 0 : index
            %c0_524 = arith.constant 0 : index
            %c0_525 = arith.constant 0 : index
            %350 = memref.load %12[%c0_522, %c0_523, %c0_524, %c0_525] : memref<1x1x1x1xf32>
            %351 = arith.mulf %348, %349 : f32
            %352 = arith.addf %350, %351 : f32
            %c0_526 = arith.constant 0 : index
            %c0_527 = arith.constant 0 : index
            %c0_528 = arith.constant 0 : index
            %c0_529 = arith.constant 0 : index
            memref.store %352, %12[%c0_526, %c0_527, %c0_528, %c0_529] : memref<1x1x1x1xf32>
            %c11_530 = arith.constant 11 : index
            %353 = arith.addi %arg4, %c0_43 : index
            %354 = arith.addi %arg5, %c0_42 : index
            %c0_531 = arith.constant 0 : index
            %355 = memref.load %9[%c0_531, %c11_530, %arg4, %arg5] : memref<1x16x9x9xf32>
            %356 = memref.load %27[%arg3, %c11_530, %c0_43, %c0_42] : memref<8x16x1x1xf32>
            %c0_532 = arith.constant 0 : index
            %c0_533 = arith.constant 0 : index
            %c0_534 = arith.constant 0 : index
            %c0_535 = arith.constant 0 : index
            %357 = memref.load %12[%c0_532, %c0_533, %c0_534, %c0_535] : memref<1x1x1x1xf32>
            %358 = arith.mulf %355, %356 : f32
            %359 = arith.addf %357, %358 : f32
            %c0_536 = arith.constant 0 : index
            %c0_537 = arith.constant 0 : index
            %c0_538 = arith.constant 0 : index
            %c0_539 = arith.constant 0 : index
            memref.store %359, %12[%c0_536, %c0_537, %c0_538, %c0_539] : memref<1x1x1x1xf32>
            %c12_540 = arith.constant 12 : index
            %360 = arith.addi %arg4, %c0_43 : index
            %361 = arith.addi %arg5, %c0_42 : index
            %c0_541 = arith.constant 0 : index
            %362 = memref.load %9[%c0_541, %c12_540, %arg4, %arg5] : memref<1x16x9x9xf32>
            %363 = memref.load %27[%arg3, %c12_540, %c0_43, %c0_42] : memref<8x16x1x1xf32>
            %c0_542 = arith.constant 0 : index
            %c0_543 = arith.constant 0 : index
            %c0_544 = arith.constant 0 : index
            %c0_545 = arith.constant 0 : index
            %364 = memref.load %12[%c0_542, %c0_543, %c0_544, %c0_545] : memref<1x1x1x1xf32>
            %365 = arith.mulf %362, %363 : f32
            %366 = arith.addf %364, %365 : f32
            %c0_546 = arith.constant 0 : index
            %c0_547 = arith.constant 0 : index
            %c0_548 = arith.constant 0 : index
            %c0_549 = arith.constant 0 : index
            memref.store %366, %12[%c0_546, %c0_547, %c0_548, %c0_549] : memref<1x1x1x1xf32>
            %c13_550 = arith.constant 13 : index
            %367 = arith.addi %arg4, %c0_43 : index
            %368 = arith.addi %arg5, %c0_42 : index
            %c0_551 = arith.constant 0 : index
            %369 = memref.load %9[%c0_551, %c13_550, %arg4, %arg5] : memref<1x16x9x9xf32>
            %370 = memref.load %27[%arg3, %c13_550, %c0_43, %c0_42] : memref<8x16x1x1xf32>
            %c0_552 = arith.constant 0 : index
            %c0_553 = arith.constant 0 : index
            %c0_554 = arith.constant 0 : index
            %c0_555 = arith.constant 0 : index
            %371 = memref.load %12[%c0_552, %c0_553, %c0_554, %c0_555] : memref<1x1x1x1xf32>
            %372 = arith.mulf %369, %370 : f32
            %373 = arith.addf %371, %372 : f32
            %c0_556 = arith.constant 0 : index
            %c0_557 = arith.constant 0 : index
            %c0_558 = arith.constant 0 : index
            %c0_559 = arith.constant 0 : index
            memref.store %373, %12[%c0_556, %c0_557, %c0_558, %c0_559] : memref<1x1x1x1xf32>
            %c14_560 = arith.constant 14 : index
            %374 = arith.addi %arg4, %c0_43 : index
            %375 = arith.addi %arg5, %c0_42 : index
            %c0_561 = arith.constant 0 : index
            %376 = memref.load %9[%c0_561, %c14_560, %arg4, %arg5] : memref<1x16x9x9xf32>
            %377 = memref.load %27[%arg3, %c14_560, %c0_43, %c0_42] : memref<8x16x1x1xf32>
            %c0_562 = arith.constant 0 : index
            %c0_563 = arith.constant 0 : index
            %c0_564 = arith.constant 0 : index
            %c0_565 = arith.constant 0 : index
            %378 = memref.load %12[%c0_562, %c0_563, %c0_564, %c0_565] : memref<1x1x1x1xf32>
            %379 = arith.mulf %376, %377 : f32
            %380 = arith.addf %378, %379 : f32
            %c0_566 = arith.constant 0 : index
            %c0_567 = arith.constant 0 : index
            %c0_568 = arith.constant 0 : index
            %c0_569 = arith.constant 0 : index
            memref.store %380, %12[%c0_566, %c0_567, %c0_568, %c0_569] : memref<1x1x1x1xf32>
            %c15_570 = arith.constant 15 : index
            %381 = arith.addi %arg4, %c0_43 : index
            %382 = arith.addi %arg5, %c0_42 : index
            %c0_571 = arith.constant 0 : index
            %383 = memref.load %9[%c0_571, %c15_570, %arg4, %arg5] : memref<1x16x9x9xf32>
            %384 = memref.load %27[%arg3, %c15_570, %c0_43, %c0_42] : memref<8x16x1x1xf32>
            %c0_572 = arith.constant 0 : index
            %c0_573 = arith.constant 0 : index
            %c0_574 = arith.constant 0 : index
            %c0_575 = arith.constant 0 : index
            %385 = memref.load %12[%c0_572, %c0_573, %c0_574, %c0_575] : memref<1x1x1x1xf32>
            %386 = arith.mulf %383, %384 : f32
            %387 = arith.addf %385, %386 : f32
            %c0_576 = arith.constant 0 : index
            %c0_577 = arith.constant 0 : index
            %c0_578 = arith.constant 0 : index
            %c0_579 = arith.constant 0 : index
            memref.store %387, %12[%c0_576, %c0_577, %c0_578, %c0_579] : memref<1x1x1x1xf32>
            %c0_580 = arith.constant 0 : index
            %c0_581 = arith.constant 0 : index
            %c0_582 = arith.constant 0 : index
            %c0_583 = arith.constant 0 : index
            %388 = memref.load %10[%c0_580, %c0_581, %c0_582, %c0_583] : memref<1x1x1x1xf32>
            %c0_584 = arith.constant 0 : index
            %c0_585 = arith.constant 0 : index
            %c0_586 = arith.constant 0 : index
            %c0_587 = arith.constant 0 : index
            %389 = memref.load %11[%c0_584, %c0_585, %c0_586, %c0_587] : memref<1x1x1x1xf32>
            %390 = arith.mulf %388, %389 : f32
            %c0_588 = arith.constant 0 : index
            %c0_589 = arith.constant 0 : index
            %c0_590 = arith.constant 0 : index
            %c0_591 = arith.constant 0 : index
            memref.store %390, %13[%c0_588, %c0_589, %c0_590, %c0_591] : memref<1x1x1x1xf32>
            %c0_592 = arith.constant 0 : index
            %c0_593 = arith.constant 0 : index
            %c0_594 = arith.constant 0 : index
            %c0_595 = arith.constant 0 : index
            %391 = memref.load %13[%c0_592, %c0_593, %c0_594, %c0_595] : memref<1x1x1x1xf32>
            %c0_596 = arith.constant 0 : index
            %c0_597 = arith.constant 0 : index
            %c0_598 = arith.constant 0 : index
            %c0_599 = arith.constant 0 : index
            %392 = memref.load %12[%c0_596, %c0_597, %c0_598, %c0_599] : memref<1x1x1x1xf32>
            %393 = arith.mulf %391, %392 : f32
            %c0_600 = arith.constant 0 : index
            memref.store %393, %14[%c0_600, %arg3, %arg4, %arg5] : memref<1x8x9x9xf32>
          }
        }
      }
      %c0_79 = arith.constant 0 : index
      %c16_80 = arith.constant 16 : index
      %c1_81 = arith.constant 1 : index
      scf.for %arg3 = %c0_79 to %c16_80 step %c1_81 {
        %c0_97 = arith.constant 0 : index
        %c9 = arith.constant 9 : index
        %c1_98 = arith.constant 1 : index
        scf.for %arg4 = %c0_97 to %c9 step %c1_98 {
          %c0_99 = arith.constant 0 : index
          %c9_100 = arith.constant 9 : index
          %c1_101 = arith.constant 1 : index
          scf.for %arg5 = %c0_99 to %c9_100 step %c1_101 {
            %49 = memref.load %32[%arg3] : memref<16xf32>
            %c0_102 = arith.constant 0 : index
            %c0_103 = arith.constant 0 : index
            %c0_104 = arith.constant 0 : index
            %c0_105 = arith.constant 0 : index
            memref.store %49, %15[%c0_102, %c0_103, %c0_104, %c0_105] : memref<1x1x1x1xf32>
            %50 = arith.addi %arg4, %c0_49 : index
            %51 = arith.addi %arg5, %c0_48 : index
            %c0_106 = arith.constant 0 : index
            %52 = memref.load %14[%c0_106, %c0_11, %arg4, %arg5] : memref<1x8x9x9xf32>
            %53 = memref.load %28[%arg3, %c0_11, %c0_49, %c0_48] : memref<16x8x1x1xf32>
            %c0_107 = arith.constant 0 : index
            %c0_108 = arith.constant 0 : index
            %c0_109 = arith.constant 0 : index
            %c0_110 = arith.constant 0 : index
            %54 = memref.load %15[%c0_107, %c0_108, %c0_109, %c0_110] : memref<1x1x1x1xf32>
            %55 = arith.mulf %52, %53 : f32
            %56 = arith.addf %54, %55 : f32
            %c0_111 = arith.constant 0 : index
            %c0_112 = arith.constant 0 : index
            %c0_113 = arith.constant 0 : index
            %c0_114 = arith.constant 0 : index
            memref.store %56, %15[%c0_111, %c0_112, %c0_113, %c0_114] : memref<1x1x1x1xf32>
            %c1_115 = arith.constant 1 : index
            %57 = arith.addi %arg4, %c0_49 : index
            %58 = arith.addi %arg5, %c0_48 : index
            %c0_116 = arith.constant 0 : index
            %59 = memref.load %14[%c0_116, %c1_115, %arg4, %arg5] : memref<1x8x9x9xf32>
            %60 = memref.load %28[%arg3, %c1_115, %c0_49, %c0_48] : memref<16x8x1x1xf32>
            %c0_117 = arith.constant 0 : index
            %c0_118 = arith.constant 0 : index
            %c0_119 = arith.constant 0 : index
            %c0_120 = arith.constant 0 : index
            %61 = memref.load %15[%c0_117, %c0_118, %c0_119, %c0_120] : memref<1x1x1x1xf32>
            %62 = arith.mulf %59, %60 : f32
            %63 = arith.addf %61, %62 : f32
            %c0_121 = arith.constant 0 : index
            %c0_122 = arith.constant 0 : index
            %c0_123 = arith.constant 0 : index
            %c0_124 = arith.constant 0 : index
            memref.store %63, %15[%c0_121, %c0_122, %c0_123, %c0_124] : memref<1x1x1x1xf32>
            %c2_125 = arith.constant 2 : index
            %64 = arith.addi %arg4, %c0_49 : index
            %65 = arith.addi %arg5, %c0_48 : index
            %c0_126 = arith.constant 0 : index
            %66 = memref.load %14[%c0_126, %c2_125, %arg4, %arg5] : memref<1x8x9x9xf32>
            %67 = memref.load %28[%arg3, %c2_125, %c0_49, %c0_48] : memref<16x8x1x1xf32>
            %c0_127 = arith.constant 0 : index
            %c0_128 = arith.constant 0 : index
            %c0_129 = arith.constant 0 : index
            %c0_130 = arith.constant 0 : index
            %68 = memref.load %15[%c0_127, %c0_128, %c0_129, %c0_130] : memref<1x1x1x1xf32>
            %69 = arith.mulf %66, %67 : f32
            %70 = arith.addf %68, %69 : f32
            %c0_131 = arith.constant 0 : index
            %c0_132 = arith.constant 0 : index
            %c0_133 = arith.constant 0 : index
            %c0_134 = arith.constant 0 : index
            memref.store %70, %15[%c0_131, %c0_132, %c0_133, %c0_134] : memref<1x1x1x1xf32>
            %c3 = arith.constant 3 : index
            %71 = arith.addi %arg4, %c0_49 : index
            %72 = arith.addi %arg5, %c0_48 : index
            %c0_135 = arith.constant 0 : index
            %73 = memref.load %14[%c0_135, %c3, %arg4, %arg5] : memref<1x8x9x9xf32>
            %74 = memref.load %28[%arg3, %c3, %c0_49, %c0_48] : memref<16x8x1x1xf32>
            %c0_136 = arith.constant 0 : index
            %c0_137 = arith.constant 0 : index
            %c0_138 = arith.constant 0 : index
            %c0_139 = arith.constant 0 : index
            %75 = memref.load %15[%c0_136, %c0_137, %c0_138, %c0_139] : memref<1x1x1x1xf32>
            %76 = arith.mulf %73, %74 : f32
            %77 = arith.addf %75, %76 : f32
            %c0_140 = arith.constant 0 : index
            %c0_141 = arith.constant 0 : index
            %c0_142 = arith.constant 0 : index
            %c0_143 = arith.constant 0 : index
            memref.store %77, %15[%c0_140, %c0_141, %c0_142, %c0_143] : memref<1x1x1x1xf32>
            %c4 = arith.constant 4 : index
            %78 = arith.addi %arg4, %c0_49 : index
            %79 = arith.addi %arg5, %c0_48 : index
            %c0_144 = arith.constant 0 : index
            %80 = memref.load %14[%c0_144, %c4, %arg4, %arg5] : memref<1x8x9x9xf32>
            %81 = memref.load %28[%arg3, %c4, %c0_49, %c0_48] : memref<16x8x1x1xf32>
            %c0_145 = arith.constant 0 : index
            %c0_146 = arith.constant 0 : index
            %c0_147 = arith.constant 0 : index
            %c0_148 = arith.constant 0 : index
            %82 = memref.load %15[%c0_145, %c0_146, %c0_147, %c0_148] : memref<1x1x1x1xf32>
            %83 = arith.mulf %80, %81 : f32
            %84 = arith.addf %82, %83 : f32
            %c0_149 = arith.constant 0 : index
            %c0_150 = arith.constant 0 : index
            %c0_151 = arith.constant 0 : index
            %c0_152 = arith.constant 0 : index
            memref.store %84, %15[%c0_149, %c0_150, %c0_151, %c0_152] : memref<1x1x1x1xf32>
            %c5 = arith.constant 5 : index
            %85 = arith.addi %arg4, %c0_49 : index
            %86 = arith.addi %arg5, %c0_48 : index
            %c0_153 = arith.constant 0 : index
            %87 = memref.load %14[%c0_153, %c5, %arg4, %arg5] : memref<1x8x9x9xf32>
            %88 = memref.load %28[%arg3, %c5, %c0_49, %c0_48] : memref<16x8x1x1xf32>
            %c0_154 = arith.constant 0 : index
            %c0_155 = arith.constant 0 : index
            %c0_156 = arith.constant 0 : index
            %c0_157 = arith.constant 0 : index
            %89 = memref.load %15[%c0_154, %c0_155, %c0_156, %c0_157] : memref<1x1x1x1xf32>
            %90 = arith.mulf %87, %88 : f32
            %91 = arith.addf %89, %90 : f32
            %c0_158 = arith.constant 0 : index
            %c0_159 = arith.constant 0 : index
            %c0_160 = arith.constant 0 : index
            %c0_161 = arith.constant 0 : index
            memref.store %91, %15[%c0_158, %c0_159, %c0_160, %c0_161] : memref<1x1x1x1xf32>
            %c6 = arith.constant 6 : index
            %92 = arith.addi %arg4, %c0_49 : index
            %93 = arith.addi %arg5, %c0_48 : index
            %c0_162 = arith.constant 0 : index
            %94 = memref.load %14[%c0_162, %c6, %arg4, %arg5] : memref<1x8x9x9xf32>
            %95 = memref.load %28[%arg3, %c6, %c0_49, %c0_48] : memref<16x8x1x1xf32>
            %c0_163 = arith.constant 0 : index
            %c0_164 = arith.constant 0 : index
            %c0_165 = arith.constant 0 : index
            %c0_166 = arith.constant 0 : index
            %96 = memref.load %15[%c0_163, %c0_164, %c0_165, %c0_166] : memref<1x1x1x1xf32>
            %97 = arith.mulf %94, %95 : f32
            %98 = arith.addf %96, %97 : f32
            %c0_167 = arith.constant 0 : index
            %c0_168 = arith.constant 0 : index
            %c0_169 = arith.constant 0 : index
            %c0_170 = arith.constant 0 : index
            memref.store %98, %15[%c0_167, %c0_168, %c0_169, %c0_170] : memref<1x1x1x1xf32>
            %c7 = arith.constant 7 : index
            %99 = arith.addi %arg4, %c0_49 : index
            %100 = arith.addi %arg5, %c0_48 : index
            %c0_171 = arith.constant 0 : index
            %101 = memref.load %14[%c0_171, %c7, %arg4, %arg5] : memref<1x8x9x9xf32>
            %102 = memref.load %28[%arg3, %c7, %c0_49, %c0_48] : memref<16x8x1x1xf32>
            %c0_172 = arith.constant 0 : index
            %c0_173 = arith.constant 0 : index
            %c0_174 = arith.constant 0 : index
            %c0_175 = arith.constant 0 : index
            %103 = memref.load %15[%c0_172, %c0_173, %c0_174, %c0_175] : memref<1x1x1x1xf32>
            %104 = arith.mulf %101, %102 : f32
            %105 = arith.addf %103, %104 : f32
            %c0_176 = arith.constant 0 : index
            %c0_177 = arith.constant 0 : index
            %c0_178 = arith.constant 0 : index
            %c0_179 = arith.constant 0 : index
            memref.store %105, %15[%c0_176, %c0_177, %c0_178, %c0_179] : memref<1x1x1x1xf32>
            %c0_180 = arith.constant 0 : index
            %c0_181 = arith.constant 0 : index
            %c0_182 = arith.constant 0 : index
            %c0_183 = arith.constant 0 : index
            %106 = memref.load %15[%c0_180, %c0_181, %c0_182, %c0_183] : memref<1x1x1x1xf32>
            %c0_184 = arith.constant 0 : index
            %107 = memref.load %9[%c0_184, %arg3, %arg4, %arg5] : memref<1x16x9x9xf32>
            %108 = arith.addf %106, %107 : f32
            %c0_185 = arith.constant 0 : index
            memref.store %108, %7[%c0_185, %arg3, %arg4, %arg5] : memref<1x16x9x9xf32>
          }
        }
      }
      %c0_82 = arith.constant 0 : index
      %c16_83 = arith.constant 16 : index
      %c1_84 = arith.constant 1 : index
      scf.for %arg3 = %c0_82 to %c16_83 step %c1_84 {
        %c0_97 = arith.constant 0 : index
        %c9 = arith.constant 9 : index
        %c1_98 = arith.constant 1 : index
        scf.for %arg4 = %c0_97 to %c9 step %c1_98 {
          %c0_99 = arith.constant 0 : index
          %49 = memref.load %7[%c0_99, %arg3, %arg4, %c0_10] : memref<1x16x9x9xf32>
          %50 = arith.cmpf ugt, %49, %cst : f32
          %51 = arith.select %50, %49, %cst : f32
          %52 = arith.select %50, %cst, %49 : f32
          %53 = arith.mulf %52, %40 : f32
          %54 = arith.addf %51, %53 : f32
          %c0_100 = arith.constant 0 : index
          memref.store %54, %6[%c0_100, %arg3, %arg4, %c0_10] : memref<1x16x9x9xf32>
          %c1_101 = arith.constant 1 : index
          %c0_102 = arith.constant 0 : index
          %55 = memref.load %7[%c0_102, %arg3, %arg4, %c1_101] : memref<1x16x9x9xf32>
          %56 = arith.cmpf ugt, %55, %cst : f32
          %57 = arith.select %56, %55, %cst : f32
          %58 = arith.select %56, %cst, %55 : f32
          %59 = arith.mulf %58, %40 : f32
          %60 = arith.addf %57, %59 : f32
          %c0_103 = arith.constant 0 : index
          memref.store %60, %6[%c0_103, %arg3, %arg4, %c1_101] : memref<1x16x9x9xf32>
          %c2_104 = arith.constant 2 : index
          %c0_105 = arith.constant 0 : index
          %61 = memref.load %7[%c0_105, %arg3, %arg4, %c2_104] : memref<1x16x9x9xf32>
          %62 = arith.cmpf ugt, %61, %cst : f32
          %63 = arith.select %62, %61, %cst : f32
          %64 = arith.select %62, %cst, %61 : f32
          %65 = arith.mulf %64, %40 : f32
          %66 = arith.addf %63, %65 : f32
          %c0_106 = arith.constant 0 : index
          memref.store %66, %6[%c0_106, %arg3, %arg4, %c2_104] : memref<1x16x9x9xf32>
          %c3 = arith.constant 3 : index
          %c0_107 = arith.constant 0 : index
          %67 = memref.load %7[%c0_107, %arg3, %arg4, %c3] : memref<1x16x9x9xf32>
          %68 = arith.cmpf ugt, %67, %cst : f32
          %69 = arith.select %68, %67, %cst : f32
          %70 = arith.select %68, %cst, %67 : f32
          %71 = arith.mulf %70, %40 : f32
          %72 = arith.addf %69, %71 : f32
          %c0_108 = arith.constant 0 : index
          memref.store %72, %6[%c0_108, %arg3, %arg4, %c3] : memref<1x16x9x9xf32>
          %c4 = arith.constant 4 : index
          %c0_109 = arith.constant 0 : index
          %73 = memref.load %7[%c0_109, %arg3, %arg4, %c4] : memref<1x16x9x9xf32>
          %74 = arith.cmpf ugt, %73, %cst : f32
          %75 = arith.select %74, %73, %cst : f32
          %76 = arith.select %74, %cst, %73 : f32
          %77 = arith.mulf %76, %40 : f32
          %78 = arith.addf %75, %77 : f32
          %c0_110 = arith.constant 0 : index
          memref.store %78, %6[%c0_110, %arg3, %arg4, %c4] : memref<1x16x9x9xf32>
          %c5 = arith.constant 5 : index
          %c0_111 = arith.constant 0 : index
          %79 = memref.load %7[%c0_111, %arg3, %arg4, %c5] : memref<1x16x9x9xf32>
          %80 = arith.cmpf ugt, %79, %cst : f32
          %81 = arith.select %80, %79, %cst : f32
          %82 = arith.select %80, %cst, %79 : f32
          %83 = arith.mulf %82, %40 : f32
          %84 = arith.addf %81, %83 : f32
          %c0_112 = arith.constant 0 : index
          memref.store %84, %6[%c0_112, %arg3, %arg4, %c5] : memref<1x16x9x9xf32>
          %c6 = arith.constant 6 : index
          %c0_113 = arith.constant 0 : index
          %85 = memref.load %7[%c0_113, %arg3, %arg4, %c6] : memref<1x16x9x9xf32>
          %86 = arith.cmpf ugt, %85, %cst : f32
          %87 = arith.select %86, %85, %cst : f32
          %88 = arith.select %86, %cst, %85 : f32
          %89 = arith.mulf %88, %40 : f32
          %90 = arith.addf %87, %89 : f32
          %c0_114 = arith.constant 0 : index
          memref.store %90, %6[%c0_114, %arg3, %arg4, %c6] : memref<1x16x9x9xf32>
          %c7 = arith.constant 7 : index
          %c0_115 = arith.constant 0 : index
          %91 = memref.load %7[%c0_115, %arg3, %arg4, %c7] : memref<1x16x9x9xf32>
          %92 = arith.cmpf ugt, %91, %cst : f32
          %93 = arith.select %92, %91, %cst : f32
          %94 = arith.select %92, %cst, %91 : f32
          %95 = arith.mulf %94, %40 : f32
          %96 = arith.addf %93, %95 : f32
          %c0_116 = arith.constant 0 : index
          memref.store %96, %6[%c0_116, %arg3, %arg4, %c7] : memref<1x16x9x9xf32>
          %c8_117 = arith.constant 8 : index
          %c0_118 = arith.constant 0 : index
          %97 = memref.load %7[%c0_118, %arg3, %arg4, %c8_117] : memref<1x16x9x9xf32>
          %98 = arith.cmpf ugt, %97, %cst : f32
          %99 = arith.select %98, %97, %cst : f32
          %100 = arith.select %98, %cst, %97 : f32
          %101 = arith.mulf %100, %40 : f32
          %102 = arith.addf %99, %101 : f32
          %c0_119 = arith.constant 0 : index
          memref.store %102, %6[%c0_119, %arg3, %arg4, %c8_117] : memref<1x16x9x9xf32>
        }
      }
      %c0_85 = arith.constant 0 : index
      %c8_86 = arith.constant 8 : index
      %c1_87 = arith.constant 1 : index
      scf.for %arg3 = %c0_85 to %c8_86 step %c1_87 {
        %c0_97 = arith.constant 0 : index
        %c7 = arith.constant 7 : index
        %c1_98 = arith.constant 1 : index
        scf.for %arg4 = %c0_97 to %c7 step %c1_98 {
          %c0_99 = arith.constant 0 : index
          %c7_100 = arith.constant 7 : index
          %c1_101 = arith.constant 1 : index
          scf.for %arg5 = %c0_99 to %c7_100 step %c1_101 {
            %c0_102 = arith.constant 0 : index
            %c16_103 = arith.constant 16 : index
            %c1_104 = arith.constant 1 : index
            scf.for %arg6 = %c0_102 to %c16_103 step %c1_104 {
              %c0_105 = arith.constant 0 : index
              %c3 = arith.constant 3 : index
              %c1_106 = arith.constant 1 : index
              scf.for %arg7 = %c0_105 to %c3 step %c1_106 {
                %49 = arith.addi %arg4, %arg7 : index
                %50 = arith.addi %arg5, %c0_9 : index
                %51 = arith.addi %arg4, %arg7 : index
                %52 = arith.addi %arg5, %c0_9 : index
                %53 = memref.load %6[%c0_25, %arg6, %51, %52] : memref<1x16x9x9xf32>
                %54 = memref.load %29[%arg3, %arg6, %arg7, %c0_9] : memref<8x16x3x3xf32>
                %c0_107 = arith.constant 0 : index
                %55 = memref.load %5[%c0_107, %arg3, %arg4, %arg5] : memref<1x8x7x7xf32>
                %56 = arith.mulf %53, %54 : f32
                %57 = arith.addf %55, %56 : f32
                %c0_108 = arith.constant 0 : index
                memref.store %57, %5[%c0_108, %arg3, %arg4, %arg5] : memref<1x8x7x7xf32>
                %c1_109 = arith.constant 1 : index
                %58 = arith.addi %arg5, %c1_109 : index
                %59 = arith.addi %arg4, %arg7 : index
                %60 = arith.addi %arg5, %c1_109 : index
                %61 = memref.load %6[%c0_25, %arg6, %59, %60] : memref<1x16x9x9xf32>
                %62 = memref.load %29[%arg3, %arg6, %arg7, %c1_109] : memref<8x16x3x3xf32>
                %c0_110 = arith.constant 0 : index
                %63 = memref.load %5[%c0_110, %arg3, %arg4, %arg5] : memref<1x8x7x7xf32>
                %64 = arith.mulf %61, %62 : f32
                %65 = arith.addf %63, %64 : f32
                %c0_111 = arith.constant 0 : index
                memref.store %65, %5[%c0_111, %arg3, %arg4, %arg5] : memref<1x8x7x7xf32>
                %c2_112 = arith.constant 2 : index
                %66 = arith.addi %arg5, %c2_112 : index
                %67 = arith.addi %arg4, %arg7 : index
                %68 = arith.addi %arg5, %c2_112 : index
                %69 = memref.load %6[%c0_25, %arg6, %67, %68] : memref<1x16x9x9xf32>
                %70 = memref.load %29[%arg3, %arg6, %arg7, %c2_112] : memref<8x16x3x3xf32>
                %c0_113 = arith.constant 0 : index
                %71 = memref.load %5[%c0_113, %arg3, %arg4, %arg5] : memref<1x8x7x7xf32>
                %72 = arith.mulf %69, %70 : f32
                %73 = arith.addf %71, %72 : f32
                %c0_114 = arith.constant 0 : index
                memref.store %73, %5[%c0_114, %arg3, %arg4, %arg5] : memref<1x8x7x7xf32>
              }
            }
          }
        }
      }
      %c0_88 = arith.constant 0 : index
      %c8_89 = arith.constant 8 : index
      %c1_90 = arith.constant 1 : index
      scf.for %arg3 = %c0_88 to %c8_89 step %c1_90 {
        %c0_97 = arith.constant 0 : index
        %c7 = arith.constant 7 : index
        %c1_98 = arith.constant 1 : index
        scf.for %arg4 = %c0_97 to %c7 step %c1_98 {
          %c0_99 = arith.constant 0 : index
          %49 = memref.load %5[%c0_99, %arg3, %arg4, %c0_8] : memref<1x8x7x7xf32>
          %50 = arith.cmpf ugt, %49, %cst : f32
          %51 = arith.select %50, %49, %cst : f32
          %52 = arith.select %50, %cst, %49 : f32
          %53 = arith.mulf %52, %41 : f32
          %54 = arith.addf %51, %53 : f32
          %c0_100 = arith.constant 0 : index
          memref.store %54, %4[%c0_100, %arg3, %arg4, %c0_8] : memref<1x8x7x7xf32>
          %c1_101 = arith.constant 1 : index
          %c0_102 = arith.constant 0 : index
          %55 = memref.load %5[%c0_102, %arg3, %arg4, %c1_101] : memref<1x8x7x7xf32>
          %56 = arith.cmpf ugt, %55, %cst : f32
          %57 = arith.select %56, %55, %cst : f32
          %58 = arith.select %56, %cst, %55 : f32
          %59 = arith.mulf %58, %41 : f32
          %60 = arith.addf %57, %59 : f32
          %c0_103 = arith.constant 0 : index
          memref.store %60, %4[%c0_103, %arg3, %arg4, %c1_101] : memref<1x8x7x7xf32>
          %c2_104 = arith.constant 2 : index
          %c0_105 = arith.constant 0 : index
          %61 = memref.load %5[%c0_105, %arg3, %arg4, %c2_104] : memref<1x8x7x7xf32>
          %62 = arith.cmpf ugt, %61, %cst : f32
          %63 = arith.select %62, %61, %cst : f32
          %64 = arith.select %62, %cst, %61 : f32
          %65 = arith.mulf %64, %41 : f32
          %66 = arith.addf %63, %65 : f32
          %c0_106 = arith.constant 0 : index
          memref.store %66, %4[%c0_106, %arg3, %arg4, %c2_104] : memref<1x8x7x7xf32>
          %c3 = arith.constant 3 : index
          %c0_107 = arith.constant 0 : index
          %67 = memref.load %5[%c0_107, %arg3, %arg4, %c3] : memref<1x8x7x7xf32>
          %68 = arith.cmpf ugt, %67, %cst : f32
          %69 = arith.select %68, %67, %cst : f32
          %70 = arith.select %68, %cst, %67 : f32
          %71 = arith.mulf %70, %41 : f32
          %72 = arith.addf %69, %71 : f32
          %c0_108 = arith.constant 0 : index
          memref.store %72, %4[%c0_108, %arg3, %arg4, %c3] : memref<1x8x7x7xf32>
          %c4 = arith.constant 4 : index
          %c0_109 = arith.constant 0 : index
          %73 = memref.load %5[%c0_109, %arg3, %arg4, %c4] : memref<1x8x7x7xf32>
          %74 = arith.cmpf ugt, %73, %cst : f32
          %75 = arith.select %74, %73, %cst : f32
          %76 = arith.select %74, %cst, %73 : f32
          %77 = arith.mulf %76, %41 : f32
          %78 = arith.addf %75, %77 : f32
          %c0_110 = arith.constant 0 : index
          memref.store %78, %4[%c0_110, %arg3, %arg4, %c4] : memref<1x8x7x7xf32>
          %c5 = arith.constant 5 : index
          %c0_111 = arith.constant 0 : index
          %79 = memref.load %5[%c0_111, %arg3, %arg4, %c5] : memref<1x8x7x7xf32>
          %80 = arith.cmpf ugt, %79, %cst : f32
          %81 = arith.select %80, %79, %cst : f32
          %82 = arith.select %80, %cst, %79 : f32
          %83 = arith.mulf %82, %41 : f32
          %84 = arith.addf %81, %83 : f32
          %c0_112 = arith.constant 0 : index
          memref.store %84, %4[%c0_112, %arg3, %arg4, %c5] : memref<1x8x7x7xf32>
          %c6 = arith.constant 6 : index
          %c0_113 = arith.constant 0 : index
          %85 = memref.load %5[%c0_113, %arg3, %arg4, %c6] : memref<1x8x7x7xf32>
          %86 = arith.cmpf ugt, %85, %cst : f32
          %87 = arith.select %86, %85, %cst : f32
          %88 = arith.select %86, %cst, %85 : f32
          %89 = arith.mulf %88, %41 : f32
          %90 = arith.addf %87, %89 : f32
          %c0_114 = arith.constant 0 : index
          memref.store %90, %4[%c0_114, %arg3, %arg4, %c6] : memref<1x8x7x7xf32>
        }
      }
      %c0_91 = arith.constant 0 : index
      %c2_92 = arith.constant 2 : index
      %c1_93 = arith.constant 1 : index
      scf.for %arg3 = %c0_91 to %c2_92 step %c1_93 {
        %c0_97 = arith.constant 0 : index
        %c5 = arith.constant 5 : index
        %c1_98 = arith.constant 1 : index
        scf.for %arg4 = %c0_97 to %c5 step %c1_98 {
          %c0_99 = arith.constant 0 : index
          %c5_100 = arith.constant 5 : index
          %c1_101 = arith.constant 1 : index
          scf.for %arg5 = %c0_99 to %c5_100 step %c1_101 {
            %c0_102 = arith.constant 0 : index
            %c8_103 = arith.constant 8 : index
            %c1_104 = arith.constant 1 : index
            scf.for %arg6 = %c0_102 to %c8_103 step %c1_104 {
              %c0_105 = arith.constant 0 : index
              %c3 = arith.constant 3 : index
              %c1_106 = arith.constant 1 : index
              scf.for %arg7 = %c0_105 to %c3 step %c1_106 {
                %49 = arith.addi %arg4, %arg7 : index
                %50 = arith.addi %arg5, %c0_7 : index
                %51 = arith.addi %arg4, %arg7 : index
                %52 = arith.addi %arg5, %c0_7 : index
                %53 = memref.load %4[%c0_22, %arg6, %51, %52] : memref<1x8x7x7xf32>
                %54 = memref.load %30[%arg3, %arg6, %arg7, %c0_7] : memref<2x8x3x3xf32>
                %c0_107 = arith.constant 0 : index
                %55 = memref.load %3[%c0_107, %arg3, %arg4, %arg5] : memref<1x2x5x5xf32>
                %56 = arith.mulf %53, %54 : f32
                %57 = arith.addf %55, %56 : f32
                %c0_108 = arith.constant 0 : index
                memref.store %57, %3[%c0_108, %arg3, %arg4, %arg5] : memref<1x2x5x5xf32>
                %c1_109 = arith.constant 1 : index
                %58 = arith.addi %arg5, %c1_109 : index
                %59 = arith.addi %arg4, %arg7 : index
                %60 = arith.addi %arg5, %c1_109 : index
                %61 = memref.load %4[%c0_22, %arg6, %59, %60] : memref<1x8x7x7xf32>
                %62 = memref.load %30[%arg3, %arg6, %arg7, %c1_109] : memref<2x8x3x3xf32>
                %c0_110 = arith.constant 0 : index
                %63 = memref.load %3[%c0_110, %arg3, %arg4, %arg5] : memref<1x2x5x5xf32>
                %64 = arith.mulf %61, %62 : f32
                %65 = arith.addf %63, %64 : f32
                %c0_111 = arith.constant 0 : index
                memref.store %65, %3[%c0_111, %arg3, %arg4, %arg5] : memref<1x2x5x5xf32>
                %c2_112 = arith.constant 2 : index
                %66 = arith.addi %arg5, %c2_112 : index
                %67 = arith.addi %arg4, %arg7 : index
                %68 = arith.addi %arg5, %c2_112 : index
                %69 = memref.load %4[%c0_22, %arg6, %67, %68] : memref<1x8x7x7xf32>
                %70 = memref.load %30[%arg3, %arg6, %arg7, %c2_112] : memref<2x8x3x3xf32>
                %c0_113 = arith.constant 0 : index
                %71 = memref.load %3[%c0_113, %arg3, %arg4, %arg5] : memref<1x2x5x5xf32>
                %72 = arith.mulf %69, %70 : f32
                %73 = arith.addf %71, %72 : f32
                %c0_114 = arith.constant 0 : index
                memref.store %73, %3[%c0_114, %arg3, %arg4, %arg5] : memref<1x2x5x5xf32>
              }
            }
          }
        }
      }
      %c0_94 = arith.constant 0 : index
      %c2_95 = arith.constant 2 : index
      %c1_96 = arith.constant 1 : index
      scf.for %arg3 = %c0_94 to %c2_95 step %c1_96 {
        %c0_97 = arith.constant 0 : index
        %c5 = arith.constant 5 : index
        %c1_98 = arith.constant 1 : index
        scf.for %arg4 = %c0_97 to %c5 step %c1_98 {
          %c0_99 = arith.constant 0 : index
          %49 = memref.load %3[%c0_99, %arg3, %arg4, %c0_6] : memref<1x2x5x5xf32>
          %50 = arith.cmpf ugt, %49, %cst : f32
          %51 = arith.select %50, %49, %cst : f32
          %52 = arith.select %50, %cst, %49 : f32
          %53 = arith.mulf %52, %43 : f32
          %54 = arith.addf %51, %53 : f32
          memref.store %54, %42[%arg2, %arg3, %arg4, %c0_6] : memref<1x2x5x5xf32>
          %c1_100 = arith.constant 1 : index
          %c0_101 = arith.constant 0 : index
          %55 = memref.load %3[%c0_101, %arg3, %arg4, %c1_100] : memref<1x2x5x5xf32>
          %56 = arith.cmpf ugt, %55, %cst : f32
          %57 = arith.select %56, %55, %cst : f32
          %58 = arith.select %56, %cst, %55 : f32
          %59 = arith.mulf %58, %43 : f32
          %60 = arith.addf %57, %59 : f32
          memref.store %60, %42[%arg2, %arg3, %arg4, %c1_100] : memref<1x2x5x5xf32>
          %c2_102 = arith.constant 2 : index
          %c0_103 = arith.constant 0 : index
          %61 = memref.load %3[%c0_103, %arg3, %arg4, %c2_102] : memref<1x2x5x5xf32>
          %62 = arith.cmpf ugt, %61, %cst : f32
          %63 = arith.select %62, %61, %cst : f32
          %64 = arith.select %62, %cst, %61 : f32
          %65 = arith.mulf %64, %43 : f32
          %66 = arith.addf %63, %65 : f32
          memref.store %66, %42[%arg2, %arg3, %arg4, %c2_102] : memref<1x2x5x5xf32>
          %c3 = arith.constant 3 : index
          %c0_104 = arith.constant 0 : index
          %67 = memref.load %3[%c0_104, %arg3, %arg4, %c3] : memref<1x2x5x5xf32>
          %68 = arith.cmpf ugt, %67, %cst : f32
          %69 = arith.select %68, %67, %cst : f32
          %70 = arith.select %68, %cst, %67 : f32
          %71 = arith.mulf %70, %43 : f32
          %72 = arith.addf %69, %71 : f32
          memref.store %72, %42[%arg2, %arg3, %arg4, %c3] : memref<1x2x5x5xf32>
          %c4 = arith.constant 4 : index
          %c0_105 = arith.constant 0 : index
          %73 = memref.load %3[%c0_105, %arg3, %arg4, %c4] : memref<1x2x5x5xf32>
          %74 = arith.cmpf ugt, %73, %cst : f32
          %75 = arith.select %74, %73, %cst : f32
          %76 = arith.select %74, %cst, %73 : f32
          %77 = arith.mulf %76, %43 : f32
          %78 = arith.addf %75, %77 : f32
          memref.store %78, %42[%arg2, %arg3, %arg4, %c4] : memref<1x2x5x5xf32>
        }
      }
    }
    %44 = memref.collapse_shape %42 [[0], [1, 2, 3]] : memref<1x2x5x5xf32> into memref<1x50xf32>
    %45 = arith.truncf %cst_60 : f64 to f32
    %46 = arith.truncf %cst_60 : f64 to f32
    %47 = arith.truncf %cst_60 : f64 to f32
    %48 = arith.truncf %cst_60 : f64 to f32
    %c0_64 = arith.constant 0 : index
    %c1_65 = arith.constant 1 : index
    %c1_66 = arith.constant 1 : index
    scf.for %arg2 = %c0_64 to %c1_65 step %c1_66 {
      %49 = memref.load %39[%c0_5] : memref<2xf32>
      %c0_67 = arith.constant 0 : index
      memref.store %49, %8[%c0_67, %c0_5] : memref<1x2xf32>
      %c1_68 = arith.constant 1 : index
      %50 = memref.load %39[%c1_68] : memref<2xf32>
      %c0_69 = arith.constant 0 : index
      memref.store %50, %8[%c0_69, %c1_68] : memref<1x2xf32>
      %c0_70 = arith.constant 0 : index
      %c16 = arith.constant 16 : index
      %c1_71 = arith.constant 1 : index
      scf.for %arg3 = %c0_70 to %c16 step %c1_71 {
        %63 = memref.load %32[%arg3] : memref<16xf32>
        %c0_86 = arith.constant 0 : index
        %c0_87 = arith.constant 0 : index
        memref.store %63, %17[%c0_86, %c0_87] : memref<1x1xf32>
        %64 = memref.load %31[%arg3, %c0_4] : memref<16x50xf32>
        %c0_88 = arith.constant 0 : index
        %c0_89 = arith.constant 0 : index
        memref.store %64, %16[%c0_88, %c0_89] : memref<1x1xf32>
        %65 = memref.load %44[%c0_52, %c0_4] : memref<1x50xf32>
        %c0_90 = arith.constant 0 : index
        %c0_91 = arith.constant 0 : index
        %66 = memref.load %16[%c0_90, %c0_91] : memref<1x1xf32>
        %c0_92 = arith.constant 0 : index
        %c0_93 = arith.constant 0 : index
        %67 = memref.load %17[%c0_92, %c0_93] : memref<1x1xf32>
        %68 = arith.mulf %65, %66 : f32
        %69 = arith.addf %67, %68 : f32
        %c0_94 = arith.constant 0 : index
        %c0_95 = arith.constant 0 : index
        memref.store %69, %17[%c0_94, %c0_95] : memref<1x1xf32>
        %c1_96 = arith.constant 1 : index
        %70 = memref.load %31[%arg3, %c1_96] : memref<16x50xf32>
        %c0_97 = arith.constant 0 : index
        %c0_98 = arith.constant 0 : index
        memref.store %70, %16[%c0_97, %c0_98] : memref<1x1xf32>
        %71 = memref.load %44[%c0_52, %c1_96] : memref<1x50xf32>
        %c0_99 = arith.constant 0 : index
        %c0_100 = arith.constant 0 : index
        %72 = memref.load %16[%c0_99, %c0_100] : memref<1x1xf32>
        %c0_101 = arith.constant 0 : index
        %c0_102 = arith.constant 0 : index
        %73 = memref.load %17[%c0_101, %c0_102] : memref<1x1xf32>
        %74 = arith.mulf %71, %72 : f32
        %75 = arith.addf %73, %74 : f32
        %c0_103 = arith.constant 0 : index
        %c0_104 = arith.constant 0 : index
        memref.store %75, %17[%c0_103, %c0_104] : memref<1x1xf32>
        %c2_105 = arith.constant 2 : index
        %76 = memref.load %31[%arg3, %c2_105] : memref<16x50xf32>
        %c0_106 = arith.constant 0 : index
        %c0_107 = arith.constant 0 : index
        memref.store %76, %16[%c0_106, %c0_107] : memref<1x1xf32>
        %77 = memref.load %44[%c0_52, %c2_105] : memref<1x50xf32>
        %c0_108 = arith.constant 0 : index
        %c0_109 = arith.constant 0 : index
        %78 = memref.load %16[%c0_108, %c0_109] : memref<1x1xf32>
        %c0_110 = arith.constant 0 : index
        %c0_111 = arith.constant 0 : index
        %79 = memref.load %17[%c0_110, %c0_111] : memref<1x1xf32>
        %80 = arith.mulf %77, %78 : f32
        %81 = arith.addf %79, %80 : f32
        %c0_112 = arith.constant 0 : index
        %c0_113 = arith.constant 0 : index
        memref.store %81, %17[%c0_112, %c0_113] : memref<1x1xf32>
        %c3 = arith.constant 3 : index
        %82 = memref.load %31[%arg3, %c3] : memref<16x50xf32>
        %c0_114 = arith.constant 0 : index
        %c0_115 = arith.constant 0 : index
        memref.store %82, %16[%c0_114, %c0_115] : memref<1x1xf32>
        %83 = memref.load %44[%c0_52, %c3] : memref<1x50xf32>
        %c0_116 = arith.constant 0 : index
        %c0_117 = arith.constant 0 : index
        %84 = memref.load %16[%c0_116, %c0_117] : memref<1x1xf32>
        %c0_118 = arith.constant 0 : index
        %c0_119 = arith.constant 0 : index
        %85 = memref.load %17[%c0_118, %c0_119] : memref<1x1xf32>
        %86 = arith.mulf %83, %84 : f32
        %87 = arith.addf %85, %86 : f32
        %c0_120 = arith.constant 0 : index
        %c0_121 = arith.constant 0 : index
        memref.store %87, %17[%c0_120, %c0_121] : memref<1x1xf32>
        %c4_122 = arith.constant 4 : index
        %88 = memref.load %31[%arg3, %c4_122] : memref<16x50xf32>
        %c0_123 = arith.constant 0 : index
        %c0_124 = arith.constant 0 : index
        memref.store %88, %16[%c0_123, %c0_124] : memref<1x1xf32>
        %89 = memref.load %44[%c0_52, %c4_122] : memref<1x50xf32>
        %c0_125 = arith.constant 0 : index
        %c0_126 = arith.constant 0 : index
        %90 = memref.load %16[%c0_125, %c0_126] : memref<1x1xf32>
        %c0_127 = arith.constant 0 : index
        %c0_128 = arith.constant 0 : index
        %91 = memref.load %17[%c0_127, %c0_128] : memref<1x1xf32>
        %92 = arith.mulf %89, %90 : f32
        %93 = arith.addf %91, %92 : f32
        %c0_129 = arith.constant 0 : index
        %c0_130 = arith.constant 0 : index
        memref.store %93, %17[%c0_129, %c0_130] : memref<1x1xf32>
        %c5 = arith.constant 5 : index
        %94 = memref.load %31[%arg3, %c5] : memref<16x50xf32>
        %c0_131 = arith.constant 0 : index
        %c0_132 = arith.constant 0 : index
        memref.store %94, %16[%c0_131, %c0_132] : memref<1x1xf32>
        %95 = memref.load %44[%c0_52, %c5] : memref<1x50xf32>
        %c0_133 = arith.constant 0 : index
        %c0_134 = arith.constant 0 : index
        %96 = memref.load %16[%c0_133, %c0_134] : memref<1x1xf32>
        %c0_135 = arith.constant 0 : index
        %c0_136 = arith.constant 0 : index
        %97 = memref.load %17[%c0_135, %c0_136] : memref<1x1xf32>
        %98 = arith.mulf %95, %96 : f32
        %99 = arith.addf %97, %98 : f32
        %c0_137 = arith.constant 0 : index
        %c0_138 = arith.constant 0 : index
        memref.store %99, %17[%c0_137, %c0_138] : memref<1x1xf32>
        %c6 = arith.constant 6 : index
        %100 = memref.load %31[%arg3, %c6] : memref<16x50xf32>
        %c0_139 = arith.constant 0 : index
        %c0_140 = arith.constant 0 : index
        memref.store %100, %16[%c0_139, %c0_140] : memref<1x1xf32>
        %101 = memref.load %44[%c0_52, %c6] : memref<1x50xf32>
        %c0_141 = arith.constant 0 : index
        %c0_142 = arith.constant 0 : index
        %102 = memref.load %16[%c0_141, %c0_142] : memref<1x1xf32>
        %c0_143 = arith.constant 0 : index
        %c0_144 = arith.constant 0 : index
        %103 = memref.load %17[%c0_143, %c0_144] : memref<1x1xf32>
        %104 = arith.mulf %101, %102 : f32
        %105 = arith.addf %103, %104 : f32
        %c0_145 = arith.constant 0 : index
        %c0_146 = arith.constant 0 : index
        memref.store %105, %17[%c0_145, %c0_146] : memref<1x1xf32>
        %c7 = arith.constant 7 : index
        %106 = memref.load %31[%arg3, %c7] : memref<16x50xf32>
        %c0_147 = arith.constant 0 : index
        %c0_148 = arith.constant 0 : index
        memref.store %106, %16[%c0_147, %c0_148] : memref<1x1xf32>
        %107 = memref.load %44[%c0_52, %c7] : memref<1x50xf32>
        %c0_149 = arith.constant 0 : index
        %c0_150 = arith.constant 0 : index
        %108 = memref.load %16[%c0_149, %c0_150] : memref<1x1xf32>
        %c0_151 = arith.constant 0 : index
        %c0_152 = arith.constant 0 : index
        %109 = memref.load %17[%c0_151, %c0_152] : memref<1x1xf32>
        %110 = arith.mulf %107, %108 : f32
        %111 = arith.addf %109, %110 : f32
        %c0_153 = arith.constant 0 : index
        %c0_154 = arith.constant 0 : index
        memref.store %111, %17[%c0_153, %c0_154] : memref<1x1xf32>
        %c8_155 = arith.constant 8 : index
        %112 = memref.load %31[%arg3, %c8_155] : memref<16x50xf32>
        %c0_156 = arith.constant 0 : index
        %c0_157 = arith.constant 0 : index
        memref.store %112, %16[%c0_156, %c0_157] : memref<1x1xf32>
        %113 = memref.load %44[%c0_52, %c8_155] : memref<1x50xf32>
        %c0_158 = arith.constant 0 : index
        %c0_159 = arith.constant 0 : index
        %114 = memref.load %16[%c0_158, %c0_159] : memref<1x1xf32>
        %c0_160 = arith.constant 0 : index
        %c0_161 = arith.constant 0 : index
        %115 = memref.load %17[%c0_160, %c0_161] : memref<1x1xf32>
        %116 = arith.mulf %113, %114 : f32
        %117 = arith.addf %115, %116 : f32
        %c0_162 = arith.constant 0 : index
        %c0_163 = arith.constant 0 : index
        memref.store %117, %17[%c0_162, %c0_163] : memref<1x1xf32>
        %c9 = arith.constant 9 : index
        %118 = memref.load %31[%arg3, %c9] : memref<16x50xf32>
        %c0_164 = arith.constant 0 : index
        %c0_165 = arith.constant 0 : index
        memref.store %118, %16[%c0_164, %c0_165] : memref<1x1xf32>
        %119 = memref.load %44[%c0_52, %c9] : memref<1x50xf32>
        %c0_166 = arith.constant 0 : index
        %c0_167 = arith.constant 0 : index
        %120 = memref.load %16[%c0_166, %c0_167] : memref<1x1xf32>
        %c0_168 = arith.constant 0 : index
        %c0_169 = arith.constant 0 : index
        %121 = memref.load %17[%c0_168, %c0_169] : memref<1x1xf32>
        %122 = arith.mulf %119, %120 : f32
        %123 = arith.addf %121, %122 : f32
        %c0_170 = arith.constant 0 : index
        %c0_171 = arith.constant 0 : index
        memref.store %123, %17[%c0_170, %c0_171] : memref<1x1xf32>
        %c10 = arith.constant 10 : index
        %124 = memref.load %31[%arg3, %c10] : memref<16x50xf32>
        %c0_172 = arith.constant 0 : index
        %c0_173 = arith.constant 0 : index
        memref.store %124, %16[%c0_172, %c0_173] : memref<1x1xf32>
        %125 = memref.load %44[%c0_52, %c10] : memref<1x50xf32>
        %c0_174 = arith.constant 0 : index
        %c0_175 = arith.constant 0 : index
        %126 = memref.load %16[%c0_174, %c0_175] : memref<1x1xf32>
        %c0_176 = arith.constant 0 : index
        %c0_177 = arith.constant 0 : index
        %127 = memref.load %17[%c0_176, %c0_177] : memref<1x1xf32>
        %128 = arith.mulf %125, %126 : f32
        %129 = arith.addf %127, %128 : f32
        %c0_178 = arith.constant 0 : index
        %c0_179 = arith.constant 0 : index
        memref.store %129, %17[%c0_178, %c0_179] : memref<1x1xf32>
        %c11 = arith.constant 11 : index
        %130 = memref.load %31[%arg3, %c11] : memref<16x50xf32>
        %c0_180 = arith.constant 0 : index
        %c0_181 = arith.constant 0 : index
        memref.store %130, %16[%c0_180, %c0_181] : memref<1x1xf32>
        %131 = memref.load %44[%c0_52, %c11] : memref<1x50xf32>
        %c0_182 = arith.constant 0 : index
        %c0_183 = arith.constant 0 : index
        %132 = memref.load %16[%c0_182, %c0_183] : memref<1x1xf32>
        %c0_184 = arith.constant 0 : index
        %c0_185 = arith.constant 0 : index
        %133 = memref.load %17[%c0_184, %c0_185] : memref<1x1xf32>
        %134 = arith.mulf %131, %132 : f32
        %135 = arith.addf %133, %134 : f32
        %c0_186 = arith.constant 0 : index
        %c0_187 = arith.constant 0 : index
        memref.store %135, %17[%c0_186, %c0_187] : memref<1x1xf32>
        %c12 = arith.constant 12 : index
        %136 = memref.load %31[%arg3, %c12] : memref<16x50xf32>
        %c0_188 = arith.constant 0 : index
        %c0_189 = arith.constant 0 : index
        memref.store %136, %16[%c0_188, %c0_189] : memref<1x1xf32>
        %137 = memref.load %44[%c0_52, %c12] : memref<1x50xf32>
        %c0_190 = arith.constant 0 : index
        %c0_191 = arith.constant 0 : index
        %138 = memref.load %16[%c0_190, %c0_191] : memref<1x1xf32>
        %c0_192 = arith.constant 0 : index
        %c0_193 = arith.constant 0 : index
        %139 = memref.load %17[%c0_192, %c0_193] : memref<1x1xf32>
        %140 = arith.mulf %137, %138 : f32
        %141 = arith.addf %139, %140 : f32
        %c0_194 = arith.constant 0 : index
        %c0_195 = arith.constant 0 : index
        memref.store %141, %17[%c0_194, %c0_195] : memref<1x1xf32>
        %c13 = arith.constant 13 : index
        %142 = memref.load %31[%arg3, %c13] : memref<16x50xf32>
        %c0_196 = arith.constant 0 : index
        %c0_197 = arith.constant 0 : index
        memref.store %142, %16[%c0_196, %c0_197] : memref<1x1xf32>
        %143 = memref.load %44[%c0_52, %c13] : memref<1x50xf32>
        %c0_198 = arith.constant 0 : index
        %c0_199 = arith.constant 0 : index
        %144 = memref.load %16[%c0_198, %c0_199] : memref<1x1xf32>
        %c0_200 = arith.constant 0 : index
        %c0_201 = arith.constant 0 : index
        %145 = memref.load %17[%c0_200, %c0_201] : memref<1x1xf32>
        %146 = arith.mulf %143, %144 : f32
        %147 = arith.addf %145, %146 : f32
        %c0_202 = arith.constant 0 : index
        %c0_203 = arith.constant 0 : index
        memref.store %147, %17[%c0_202, %c0_203] : memref<1x1xf32>
        %c14 = arith.constant 14 : index
        %148 = memref.load %31[%arg3, %c14] : memref<16x50xf32>
        %c0_204 = arith.constant 0 : index
        %c0_205 = arith.constant 0 : index
        memref.store %148, %16[%c0_204, %c0_205] : memref<1x1xf32>
        %149 = memref.load %44[%c0_52, %c14] : memref<1x50xf32>
        %c0_206 = arith.constant 0 : index
        %c0_207 = arith.constant 0 : index
        %150 = memref.load %16[%c0_206, %c0_207] : memref<1x1xf32>
        %c0_208 = arith.constant 0 : index
        %c0_209 = arith.constant 0 : index
        %151 = memref.load %17[%c0_208, %c0_209] : memref<1x1xf32>
        %152 = arith.mulf %149, %150 : f32
        %153 = arith.addf %151, %152 : f32
        %c0_210 = arith.constant 0 : index
        %c0_211 = arith.constant 0 : index
        memref.store %153, %17[%c0_210, %c0_211] : memref<1x1xf32>
        %c15 = arith.constant 15 : index
        %154 = memref.load %31[%arg3, %c15] : memref<16x50xf32>
        %c0_212 = arith.constant 0 : index
        %c0_213 = arith.constant 0 : index
        memref.store %154, %16[%c0_212, %c0_213] : memref<1x1xf32>
        %155 = memref.load %44[%c0_52, %c15] : memref<1x50xf32>
        %c0_214 = arith.constant 0 : index
        %c0_215 = arith.constant 0 : index
        %156 = memref.load %16[%c0_214, %c0_215] : memref<1x1xf32>
        %c0_216 = arith.constant 0 : index
        %c0_217 = arith.constant 0 : index
        %157 = memref.load %17[%c0_216, %c0_217] : memref<1x1xf32>
        %158 = arith.mulf %155, %156 : f32
        %159 = arith.addf %157, %158 : f32
        %c0_218 = arith.constant 0 : index
        %c0_219 = arith.constant 0 : index
        memref.store %159, %17[%c0_218, %c0_219] : memref<1x1xf32>
        %c16_220 = arith.constant 16 : index
        %160 = memref.load %31[%arg3, %c16_220] : memref<16x50xf32>
        %c0_221 = arith.constant 0 : index
        %c0_222 = arith.constant 0 : index
        memref.store %160, %16[%c0_221, %c0_222] : memref<1x1xf32>
        %161 = memref.load %44[%c0_52, %c16_220] : memref<1x50xf32>
        %c0_223 = arith.constant 0 : index
        %c0_224 = arith.constant 0 : index
        %162 = memref.load %16[%c0_223, %c0_224] : memref<1x1xf32>
        %c0_225 = arith.constant 0 : index
        %c0_226 = arith.constant 0 : index
        %163 = memref.load %17[%c0_225, %c0_226] : memref<1x1xf32>
        %164 = arith.mulf %161, %162 : f32
        %165 = arith.addf %163, %164 : f32
        %c0_227 = arith.constant 0 : index
        %c0_228 = arith.constant 0 : index
        memref.store %165, %17[%c0_227, %c0_228] : memref<1x1xf32>
        %c17 = arith.constant 17 : index
        %166 = memref.load %31[%arg3, %c17] : memref<16x50xf32>
        %c0_229 = arith.constant 0 : index
        %c0_230 = arith.constant 0 : index
        memref.store %166, %16[%c0_229, %c0_230] : memref<1x1xf32>
        %167 = memref.load %44[%c0_52, %c17] : memref<1x50xf32>
        %c0_231 = arith.constant 0 : index
        %c0_232 = arith.constant 0 : index
        %168 = memref.load %16[%c0_231, %c0_232] : memref<1x1xf32>
        %c0_233 = arith.constant 0 : index
        %c0_234 = arith.constant 0 : index
        %169 = memref.load %17[%c0_233, %c0_234] : memref<1x1xf32>
        %170 = arith.mulf %167, %168 : f32
        %171 = arith.addf %169, %170 : f32
        %c0_235 = arith.constant 0 : index
        %c0_236 = arith.constant 0 : index
        memref.store %171, %17[%c0_235, %c0_236] : memref<1x1xf32>
        %c18 = arith.constant 18 : index
        %172 = memref.load %31[%arg3, %c18] : memref<16x50xf32>
        %c0_237 = arith.constant 0 : index
        %c0_238 = arith.constant 0 : index
        memref.store %172, %16[%c0_237, %c0_238] : memref<1x1xf32>
        %173 = memref.load %44[%c0_52, %c18] : memref<1x50xf32>
        %c0_239 = arith.constant 0 : index
        %c0_240 = arith.constant 0 : index
        %174 = memref.load %16[%c0_239, %c0_240] : memref<1x1xf32>
        %c0_241 = arith.constant 0 : index
        %c0_242 = arith.constant 0 : index
        %175 = memref.load %17[%c0_241, %c0_242] : memref<1x1xf32>
        %176 = arith.mulf %173, %174 : f32
        %177 = arith.addf %175, %176 : f32
        %c0_243 = arith.constant 0 : index
        %c0_244 = arith.constant 0 : index
        memref.store %177, %17[%c0_243, %c0_244] : memref<1x1xf32>
        %c19 = arith.constant 19 : index
        %178 = memref.load %31[%arg3, %c19] : memref<16x50xf32>
        %c0_245 = arith.constant 0 : index
        %c0_246 = arith.constant 0 : index
        memref.store %178, %16[%c0_245, %c0_246] : memref<1x1xf32>
        %179 = memref.load %44[%c0_52, %c19] : memref<1x50xf32>
        %c0_247 = arith.constant 0 : index
        %c0_248 = arith.constant 0 : index
        %180 = memref.load %16[%c0_247, %c0_248] : memref<1x1xf32>
        %c0_249 = arith.constant 0 : index
        %c0_250 = arith.constant 0 : index
        %181 = memref.load %17[%c0_249, %c0_250] : memref<1x1xf32>
        %182 = arith.mulf %179, %180 : f32
        %183 = arith.addf %181, %182 : f32
        %c0_251 = arith.constant 0 : index
        %c0_252 = arith.constant 0 : index
        memref.store %183, %17[%c0_251, %c0_252] : memref<1x1xf32>
        %c20 = arith.constant 20 : index
        %184 = memref.load %31[%arg3, %c20] : memref<16x50xf32>
        %c0_253 = arith.constant 0 : index
        %c0_254 = arith.constant 0 : index
        memref.store %184, %16[%c0_253, %c0_254] : memref<1x1xf32>
        %185 = memref.load %44[%c0_52, %c20] : memref<1x50xf32>
        %c0_255 = arith.constant 0 : index
        %c0_256 = arith.constant 0 : index
        %186 = memref.load %16[%c0_255, %c0_256] : memref<1x1xf32>
        %c0_257 = arith.constant 0 : index
        %c0_258 = arith.constant 0 : index
        %187 = memref.load %17[%c0_257, %c0_258] : memref<1x1xf32>
        %188 = arith.mulf %185, %186 : f32
        %189 = arith.addf %187, %188 : f32
        %c0_259 = arith.constant 0 : index
        %c0_260 = arith.constant 0 : index
        memref.store %189, %17[%c0_259, %c0_260] : memref<1x1xf32>
        %c21 = arith.constant 21 : index
        %190 = memref.load %31[%arg3, %c21] : memref<16x50xf32>
        %c0_261 = arith.constant 0 : index
        %c0_262 = arith.constant 0 : index
        memref.store %190, %16[%c0_261, %c0_262] : memref<1x1xf32>
        %191 = memref.load %44[%c0_52, %c21] : memref<1x50xf32>
        %c0_263 = arith.constant 0 : index
        %c0_264 = arith.constant 0 : index
        %192 = memref.load %16[%c0_263, %c0_264] : memref<1x1xf32>
        %c0_265 = arith.constant 0 : index
        %c0_266 = arith.constant 0 : index
        %193 = memref.load %17[%c0_265, %c0_266] : memref<1x1xf32>
        %194 = arith.mulf %191, %192 : f32
        %195 = arith.addf %193, %194 : f32
        %c0_267 = arith.constant 0 : index
        %c0_268 = arith.constant 0 : index
        memref.store %195, %17[%c0_267, %c0_268] : memref<1x1xf32>
        %c22 = arith.constant 22 : index
        %196 = memref.load %31[%arg3, %c22] : memref<16x50xf32>
        %c0_269 = arith.constant 0 : index
        %c0_270 = arith.constant 0 : index
        memref.store %196, %16[%c0_269, %c0_270] : memref<1x1xf32>
        %197 = memref.load %44[%c0_52, %c22] : memref<1x50xf32>
        %c0_271 = arith.constant 0 : index
        %c0_272 = arith.constant 0 : index
        %198 = memref.load %16[%c0_271, %c0_272] : memref<1x1xf32>
        %c0_273 = arith.constant 0 : index
        %c0_274 = arith.constant 0 : index
        %199 = memref.load %17[%c0_273, %c0_274] : memref<1x1xf32>
        %200 = arith.mulf %197, %198 : f32
        %201 = arith.addf %199, %200 : f32
        %c0_275 = arith.constant 0 : index
        %c0_276 = arith.constant 0 : index
        memref.store %201, %17[%c0_275, %c0_276] : memref<1x1xf32>
        %c23 = arith.constant 23 : index
        %202 = memref.load %31[%arg3, %c23] : memref<16x50xf32>
        %c0_277 = arith.constant 0 : index
        %c0_278 = arith.constant 0 : index
        memref.store %202, %16[%c0_277, %c0_278] : memref<1x1xf32>
        %203 = memref.load %44[%c0_52, %c23] : memref<1x50xf32>
        %c0_279 = arith.constant 0 : index
        %c0_280 = arith.constant 0 : index
        %204 = memref.load %16[%c0_279, %c0_280] : memref<1x1xf32>
        %c0_281 = arith.constant 0 : index
        %c0_282 = arith.constant 0 : index
        %205 = memref.load %17[%c0_281, %c0_282] : memref<1x1xf32>
        %206 = arith.mulf %203, %204 : f32
        %207 = arith.addf %205, %206 : f32
        %c0_283 = arith.constant 0 : index
        %c0_284 = arith.constant 0 : index
        memref.store %207, %17[%c0_283, %c0_284] : memref<1x1xf32>
        %c24 = arith.constant 24 : index
        %208 = memref.load %31[%arg3, %c24] : memref<16x50xf32>
        %c0_285 = arith.constant 0 : index
        %c0_286 = arith.constant 0 : index
        memref.store %208, %16[%c0_285, %c0_286] : memref<1x1xf32>
        %209 = memref.load %44[%c0_52, %c24] : memref<1x50xf32>
        %c0_287 = arith.constant 0 : index
        %c0_288 = arith.constant 0 : index
        %210 = memref.load %16[%c0_287, %c0_288] : memref<1x1xf32>
        %c0_289 = arith.constant 0 : index
        %c0_290 = arith.constant 0 : index
        %211 = memref.load %17[%c0_289, %c0_290] : memref<1x1xf32>
        %212 = arith.mulf %209, %210 : f32
        %213 = arith.addf %211, %212 : f32
        %c0_291 = arith.constant 0 : index
        %c0_292 = arith.constant 0 : index
        memref.store %213, %17[%c0_291, %c0_292] : memref<1x1xf32>
        %c25 = arith.constant 25 : index
        %214 = memref.load %31[%arg3, %c25] : memref<16x50xf32>
        %c0_293 = arith.constant 0 : index
        %c0_294 = arith.constant 0 : index
        memref.store %214, %16[%c0_293, %c0_294] : memref<1x1xf32>
        %215 = memref.load %44[%c0_52, %c25] : memref<1x50xf32>
        %c0_295 = arith.constant 0 : index
        %c0_296 = arith.constant 0 : index
        %216 = memref.load %16[%c0_295, %c0_296] : memref<1x1xf32>
        %c0_297 = arith.constant 0 : index
        %c0_298 = arith.constant 0 : index
        %217 = memref.load %17[%c0_297, %c0_298] : memref<1x1xf32>
        %218 = arith.mulf %215, %216 : f32
        %219 = arith.addf %217, %218 : f32
        %c0_299 = arith.constant 0 : index
        %c0_300 = arith.constant 0 : index
        memref.store %219, %17[%c0_299, %c0_300] : memref<1x1xf32>
        %c26 = arith.constant 26 : index
        %220 = memref.load %31[%arg3, %c26] : memref<16x50xf32>
        %c0_301 = arith.constant 0 : index
        %c0_302 = arith.constant 0 : index
        memref.store %220, %16[%c0_301, %c0_302] : memref<1x1xf32>
        %221 = memref.load %44[%c0_52, %c26] : memref<1x50xf32>
        %c0_303 = arith.constant 0 : index
        %c0_304 = arith.constant 0 : index
        %222 = memref.load %16[%c0_303, %c0_304] : memref<1x1xf32>
        %c0_305 = arith.constant 0 : index
        %c0_306 = arith.constant 0 : index
        %223 = memref.load %17[%c0_305, %c0_306] : memref<1x1xf32>
        %224 = arith.mulf %221, %222 : f32
        %225 = arith.addf %223, %224 : f32
        %c0_307 = arith.constant 0 : index
        %c0_308 = arith.constant 0 : index
        memref.store %225, %17[%c0_307, %c0_308] : memref<1x1xf32>
        %c27 = arith.constant 27 : index
        %226 = memref.load %31[%arg3, %c27] : memref<16x50xf32>
        %c0_309 = arith.constant 0 : index
        %c0_310 = arith.constant 0 : index
        memref.store %226, %16[%c0_309, %c0_310] : memref<1x1xf32>
        %227 = memref.load %44[%c0_52, %c27] : memref<1x50xf32>
        %c0_311 = arith.constant 0 : index
        %c0_312 = arith.constant 0 : index
        %228 = memref.load %16[%c0_311, %c0_312] : memref<1x1xf32>
        %c0_313 = arith.constant 0 : index
        %c0_314 = arith.constant 0 : index
        %229 = memref.load %17[%c0_313, %c0_314] : memref<1x1xf32>
        %230 = arith.mulf %227, %228 : f32
        %231 = arith.addf %229, %230 : f32
        %c0_315 = arith.constant 0 : index
        %c0_316 = arith.constant 0 : index
        memref.store %231, %17[%c0_315, %c0_316] : memref<1x1xf32>
        %c28 = arith.constant 28 : index
        %232 = memref.load %31[%arg3, %c28] : memref<16x50xf32>
        %c0_317 = arith.constant 0 : index
        %c0_318 = arith.constant 0 : index
        memref.store %232, %16[%c0_317, %c0_318] : memref<1x1xf32>
        %233 = memref.load %44[%c0_52, %c28] : memref<1x50xf32>
        %c0_319 = arith.constant 0 : index
        %c0_320 = arith.constant 0 : index
        %234 = memref.load %16[%c0_319, %c0_320] : memref<1x1xf32>
        %c0_321 = arith.constant 0 : index
        %c0_322 = arith.constant 0 : index
        %235 = memref.load %17[%c0_321, %c0_322] : memref<1x1xf32>
        %236 = arith.mulf %233, %234 : f32
        %237 = arith.addf %235, %236 : f32
        %c0_323 = arith.constant 0 : index
        %c0_324 = arith.constant 0 : index
        memref.store %237, %17[%c0_323, %c0_324] : memref<1x1xf32>
        %c29 = arith.constant 29 : index
        %238 = memref.load %31[%arg3, %c29] : memref<16x50xf32>
        %c0_325 = arith.constant 0 : index
        %c0_326 = arith.constant 0 : index
        memref.store %238, %16[%c0_325, %c0_326] : memref<1x1xf32>
        %239 = memref.load %44[%c0_52, %c29] : memref<1x50xf32>
        %c0_327 = arith.constant 0 : index
        %c0_328 = arith.constant 0 : index
        %240 = memref.load %16[%c0_327, %c0_328] : memref<1x1xf32>
        %c0_329 = arith.constant 0 : index
        %c0_330 = arith.constant 0 : index
        %241 = memref.load %17[%c0_329, %c0_330] : memref<1x1xf32>
        %242 = arith.mulf %239, %240 : f32
        %243 = arith.addf %241, %242 : f32
        %c0_331 = arith.constant 0 : index
        %c0_332 = arith.constant 0 : index
        memref.store %243, %17[%c0_331, %c0_332] : memref<1x1xf32>
        %c30 = arith.constant 30 : index
        %244 = memref.load %31[%arg3, %c30] : memref<16x50xf32>
        %c0_333 = arith.constant 0 : index
        %c0_334 = arith.constant 0 : index
        memref.store %244, %16[%c0_333, %c0_334] : memref<1x1xf32>
        %245 = memref.load %44[%c0_52, %c30] : memref<1x50xf32>
        %c0_335 = arith.constant 0 : index
        %c0_336 = arith.constant 0 : index
        %246 = memref.load %16[%c0_335, %c0_336] : memref<1x1xf32>
        %c0_337 = arith.constant 0 : index
        %c0_338 = arith.constant 0 : index
        %247 = memref.load %17[%c0_337, %c0_338] : memref<1x1xf32>
        %248 = arith.mulf %245, %246 : f32
        %249 = arith.addf %247, %248 : f32
        %c0_339 = arith.constant 0 : index
        %c0_340 = arith.constant 0 : index
        memref.store %249, %17[%c0_339, %c0_340] : memref<1x1xf32>
        %c31 = arith.constant 31 : index
        %250 = memref.load %31[%arg3, %c31] : memref<16x50xf32>
        %c0_341 = arith.constant 0 : index
        %c0_342 = arith.constant 0 : index
        memref.store %250, %16[%c0_341, %c0_342] : memref<1x1xf32>
        %251 = memref.load %44[%c0_52, %c31] : memref<1x50xf32>
        %c0_343 = arith.constant 0 : index
        %c0_344 = arith.constant 0 : index
        %252 = memref.load %16[%c0_343, %c0_344] : memref<1x1xf32>
        %c0_345 = arith.constant 0 : index
        %c0_346 = arith.constant 0 : index
        %253 = memref.load %17[%c0_345, %c0_346] : memref<1x1xf32>
        %254 = arith.mulf %251, %252 : f32
        %255 = arith.addf %253, %254 : f32
        %c0_347 = arith.constant 0 : index
        %c0_348 = arith.constant 0 : index
        memref.store %255, %17[%c0_347, %c0_348] : memref<1x1xf32>
        %c32 = arith.constant 32 : index
        %256 = memref.load %31[%arg3, %c32] : memref<16x50xf32>
        %c0_349 = arith.constant 0 : index
        %c0_350 = arith.constant 0 : index
        memref.store %256, %16[%c0_349, %c0_350] : memref<1x1xf32>
        %257 = memref.load %44[%c0_52, %c32] : memref<1x50xf32>
        %c0_351 = arith.constant 0 : index
        %c0_352 = arith.constant 0 : index
        %258 = memref.load %16[%c0_351, %c0_352] : memref<1x1xf32>
        %c0_353 = arith.constant 0 : index
        %c0_354 = arith.constant 0 : index
        %259 = memref.load %17[%c0_353, %c0_354] : memref<1x1xf32>
        %260 = arith.mulf %257, %258 : f32
        %261 = arith.addf %259, %260 : f32
        %c0_355 = arith.constant 0 : index
        %c0_356 = arith.constant 0 : index
        memref.store %261, %17[%c0_355, %c0_356] : memref<1x1xf32>
        %c33 = arith.constant 33 : index
        %262 = memref.load %31[%arg3, %c33] : memref<16x50xf32>
        %c0_357 = arith.constant 0 : index
        %c0_358 = arith.constant 0 : index
        memref.store %262, %16[%c0_357, %c0_358] : memref<1x1xf32>
        %263 = memref.load %44[%c0_52, %c33] : memref<1x50xf32>
        %c0_359 = arith.constant 0 : index
        %c0_360 = arith.constant 0 : index
        %264 = memref.load %16[%c0_359, %c0_360] : memref<1x1xf32>
        %c0_361 = arith.constant 0 : index
        %c0_362 = arith.constant 0 : index
        %265 = memref.load %17[%c0_361, %c0_362] : memref<1x1xf32>
        %266 = arith.mulf %263, %264 : f32
        %267 = arith.addf %265, %266 : f32
        %c0_363 = arith.constant 0 : index
        %c0_364 = arith.constant 0 : index
        memref.store %267, %17[%c0_363, %c0_364] : memref<1x1xf32>
        %c34 = arith.constant 34 : index
        %268 = memref.load %31[%arg3, %c34] : memref<16x50xf32>
        %c0_365 = arith.constant 0 : index
        %c0_366 = arith.constant 0 : index
        memref.store %268, %16[%c0_365, %c0_366] : memref<1x1xf32>
        %269 = memref.load %44[%c0_52, %c34] : memref<1x50xf32>
        %c0_367 = arith.constant 0 : index
        %c0_368 = arith.constant 0 : index
        %270 = memref.load %16[%c0_367, %c0_368] : memref<1x1xf32>
        %c0_369 = arith.constant 0 : index
        %c0_370 = arith.constant 0 : index
        %271 = memref.load %17[%c0_369, %c0_370] : memref<1x1xf32>
        %272 = arith.mulf %269, %270 : f32
        %273 = arith.addf %271, %272 : f32
        %c0_371 = arith.constant 0 : index
        %c0_372 = arith.constant 0 : index
        memref.store %273, %17[%c0_371, %c0_372] : memref<1x1xf32>
        %c35 = arith.constant 35 : index
        %274 = memref.load %31[%arg3, %c35] : memref<16x50xf32>
        %c0_373 = arith.constant 0 : index
        %c0_374 = arith.constant 0 : index
        memref.store %274, %16[%c0_373, %c0_374] : memref<1x1xf32>
        %275 = memref.load %44[%c0_52, %c35] : memref<1x50xf32>
        %c0_375 = arith.constant 0 : index
        %c0_376 = arith.constant 0 : index
        %276 = memref.load %16[%c0_375, %c0_376] : memref<1x1xf32>
        %c0_377 = arith.constant 0 : index
        %c0_378 = arith.constant 0 : index
        %277 = memref.load %17[%c0_377, %c0_378] : memref<1x1xf32>
        %278 = arith.mulf %275, %276 : f32
        %279 = arith.addf %277, %278 : f32
        %c0_379 = arith.constant 0 : index
        %c0_380 = arith.constant 0 : index
        memref.store %279, %17[%c0_379, %c0_380] : memref<1x1xf32>
        %c36 = arith.constant 36 : index
        %280 = memref.load %31[%arg3, %c36] : memref<16x50xf32>
        %c0_381 = arith.constant 0 : index
        %c0_382 = arith.constant 0 : index
        memref.store %280, %16[%c0_381, %c0_382] : memref<1x1xf32>
        %281 = memref.load %44[%c0_52, %c36] : memref<1x50xf32>
        %c0_383 = arith.constant 0 : index
        %c0_384 = arith.constant 0 : index
        %282 = memref.load %16[%c0_383, %c0_384] : memref<1x1xf32>
        %c0_385 = arith.constant 0 : index
        %c0_386 = arith.constant 0 : index
        %283 = memref.load %17[%c0_385, %c0_386] : memref<1x1xf32>
        %284 = arith.mulf %281, %282 : f32
        %285 = arith.addf %283, %284 : f32
        %c0_387 = arith.constant 0 : index
        %c0_388 = arith.constant 0 : index
        memref.store %285, %17[%c0_387, %c0_388] : memref<1x1xf32>
        %c37 = arith.constant 37 : index
        %286 = memref.load %31[%arg3, %c37] : memref<16x50xf32>
        %c0_389 = arith.constant 0 : index
        %c0_390 = arith.constant 0 : index
        memref.store %286, %16[%c0_389, %c0_390] : memref<1x1xf32>
        %287 = memref.load %44[%c0_52, %c37] : memref<1x50xf32>
        %c0_391 = arith.constant 0 : index
        %c0_392 = arith.constant 0 : index
        %288 = memref.load %16[%c0_391, %c0_392] : memref<1x1xf32>
        %c0_393 = arith.constant 0 : index
        %c0_394 = arith.constant 0 : index
        %289 = memref.load %17[%c0_393, %c0_394] : memref<1x1xf32>
        %290 = arith.mulf %287, %288 : f32
        %291 = arith.addf %289, %290 : f32
        %c0_395 = arith.constant 0 : index
        %c0_396 = arith.constant 0 : index
        memref.store %291, %17[%c0_395, %c0_396] : memref<1x1xf32>
        %c38 = arith.constant 38 : index
        %292 = memref.load %31[%arg3, %c38] : memref<16x50xf32>
        %c0_397 = arith.constant 0 : index
        %c0_398 = arith.constant 0 : index
        memref.store %292, %16[%c0_397, %c0_398] : memref<1x1xf32>
        %293 = memref.load %44[%c0_52, %c38] : memref<1x50xf32>
        %c0_399 = arith.constant 0 : index
        %c0_400 = arith.constant 0 : index
        %294 = memref.load %16[%c0_399, %c0_400] : memref<1x1xf32>
        %c0_401 = arith.constant 0 : index
        %c0_402 = arith.constant 0 : index
        %295 = memref.load %17[%c0_401, %c0_402] : memref<1x1xf32>
        %296 = arith.mulf %293, %294 : f32
        %297 = arith.addf %295, %296 : f32
        %c0_403 = arith.constant 0 : index
        %c0_404 = arith.constant 0 : index
        memref.store %297, %17[%c0_403, %c0_404] : memref<1x1xf32>
        %c39 = arith.constant 39 : index
        %298 = memref.load %31[%arg3, %c39] : memref<16x50xf32>
        %c0_405 = arith.constant 0 : index
        %c0_406 = arith.constant 0 : index
        memref.store %298, %16[%c0_405, %c0_406] : memref<1x1xf32>
        %299 = memref.load %44[%c0_52, %c39] : memref<1x50xf32>
        %c0_407 = arith.constant 0 : index
        %c0_408 = arith.constant 0 : index
        %300 = memref.load %16[%c0_407, %c0_408] : memref<1x1xf32>
        %c0_409 = arith.constant 0 : index
        %c0_410 = arith.constant 0 : index
        %301 = memref.load %17[%c0_409, %c0_410] : memref<1x1xf32>
        %302 = arith.mulf %299, %300 : f32
        %303 = arith.addf %301, %302 : f32
        %c0_411 = arith.constant 0 : index
        %c0_412 = arith.constant 0 : index
        memref.store %303, %17[%c0_411, %c0_412] : memref<1x1xf32>
        %c40 = arith.constant 40 : index
        %304 = memref.load %31[%arg3, %c40] : memref<16x50xf32>
        %c0_413 = arith.constant 0 : index
        %c0_414 = arith.constant 0 : index
        memref.store %304, %16[%c0_413, %c0_414] : memref<1x1xf32>
        %305 = memref.load %44[%c0_52, %c40] : memref<1x50xf32>
        %c0_415 = arith.constant 0 : index
        %c0_416 = arith.constant 0 : index
        %306 = memref.load %16[%c0_415, %c0_416] : memref<1x1xf32>
        %c0_417 = arith.constant 0 : index
        %c0_418 = arith.constant 0 : index
        %307 = memref.load %17[%c0_417, %c0_418] : memref<1x1xf32>
        %308 = arith.mulf %305, %306 : f32
        %309 = arith.addf %307, %308 : f32
        %c0_419 = arith.constant 0 : index
        %c0_420 = arith.constant 0 : index
        memref.store %309, %17[%c0_419, %c0_420] : memref<1x1xf32>
        %c41 = arith.constant 41 : index
        %310 = memref.load %31[%arg3, %c41] : memref<16x50xf32>
        %c0_421 = arith.constant 0 : index
        %c0_422 = arith.constant 0 : index
        memref.store %310, %16[%c0_421, %c0_422] : memref<1x1xf32>
        %311 = memref.load %44[%c0_52, %c41] : memref<1x50xf32>
        %c0_423 = arith.constant 0 : index
        %c0_424 = arith.constant 0 : index
        %312 = memref.load %16[%c0_423, %c0_424] : memref<1x1xf32>
        %c0_425 = arith.constant 0 : index
        %c0_426 = arith.constant 0 : index
        %313 = memref.load %17[%c0_425, %c0_426] : memref<1x1xf32>
        %314 = arith.mulf %311, %312 : f32
        %315 = arith.addf %313, %314 : f32
        %c0_427 = arith.constant 0 : index
        %c0_428 = arith.constant 0 : index
        memref.store %315, %17[%c0_427, %c0_428] : memref<1x1xf32>
        %c42 = arith.constant 42 : index
        %316 = memref.load %31[%arg3, %c42] : memref<16x50xf32>
        %c0_429 = arith.constant 0 : index
        %c0_430 = arith.constant 0 : index
        memref.store %316, %16[%c0_429, %c0_430] : memref<1x1xf32>
        %317 = memref.load %44[%c0_52, %c42] : memref<1x50xf32>
        %c0_431 = arith.constant 0 : index
        %c0_432 = arith.constant 0 : index
        %318 = memref.load %16[%c0_431, %c0_432] : memref<1x1xf32>
        %c0_433 = arith.constant 0 : index
        %c0_434 = arith.constant 0 : index
        %319 = memref.load %17[%c0_433, %c0_434] : memref<1x1xf32>
        %320 = arith.mulf %317, %318 : f32
        %321 = arith.addf %319, %320 : f32
        %c0_435 = arith.constant 0 : index
        %c0_436 = arith.constant 0 : index
        memref.store %321, %17[%c0_435, %c0_436] : memref<1x1xf32>
        %c43 = arith.constant 43 : index
        %322 = memref.load %31[%arg3, %c43] : memref<16x50xf32>
        %c0_437 = arith.constant 0 : index
        %c0_438 = arith.constant 0 : index
        memref.store %322, %16[%c0_437, %c0_438] : memref<1x1xf32>
        %323 = memref.load %44[%c0_52, %c43] : memref<1x50xf32>
        %c0_439 = arith.constant 0 : index
        %c0_440 = arith.constant 0 : index
        %324 = memref.load %16[%c0_439, %c0_440] : memref<1x1xf32>
        %c0_441 = arith.constant 0 : index
        %c0_442 = arith.constant 0 : index
        %325 = memref.load %17[%c0_441, %c0_442] : memref<1x1xf32>
        %326 = arith.mulf %323, %324 : f32
        %327 = arith.addf %325, %326 : f32
        %c0_443 = arith.constant 0 : index
        %c0_444 = arith.constant 0 : index
        memref.store %327, %17[%c0_443, %c0_444] : memref<1x1xf32>
        %c44 = arith.constant 44 : index
        %328 = memref.load %31[%arg3, %c44] : memref<16x50xf32>
        %c0_445 = arith.constant 0 : index
        %c0_446 = arith.constant 0 : index
        memref.store %328, %16[%c0_445, %c0_446] : memref<1x1xf32>
        %329 = memref.load %44[%c0_52, %c44] : memref<1x50xf32>
        %c0_447 = arith.constant 0 : index
        %c0_448 = arith.constant 0 : index
        %330 = memref.load %16[%c0_447, %c0_448] : memref<1x1xf32>
        %c0_449 = arith.constant 0 : index
        %c0_450 = arith.constant 0 : index
        %331 = memref.load %17[%c0_449, %c0_450] : memref<1x1xf32>
        %332 = arith.mulf %329, %330 : f32
        %333 = arith.addf %331, %332 : f32
        %c0_451 = arith.constant 0 : index
        %c0_452 = arith.constant 0 : index
        memref.store %333, %17[%c0_451, %c0_452] : memref<1x1xf32>
        %c45 = arith.constant 45 : index
        %334 = memref.load %31[%arg3, %c45] : memref<16x50xf32>
        %c0_453 = arith.constant 0 : index
        %c0_454 = arith.constant 0 : index
        memref.store %334, %16[%c0_453, %c0_454] : memref<1x1xf32>
        %335 = memref.load %44[%c0_52, %c45] : memref<1x50xf32>
        %c0_455 = arith.constant 0 : index
        %c0_456 = arith.constant 0 : index
        %336 = memref.load %16[%c0_455, %c0_456] : memref<1x1xf32>
        %c0_457 = arith.constant 0 : index
        %c0_458 = arith.constant 0 : index
        %337 = memref.load %17[%c0_457, %c0_458] : memref<1x1xf32>
        %338 = arith.mulf %335, %336 : f32
        %339 = arith.addf %337, %338 : f32
        %c0_459 = arith.constant 0 : index
        %c0_460 = arith.constant 0 : index
        memref.store %339, %17[%c0_459, %c0_460] : memref<1x1xf32>
        %c46 = arith.constant 46 : index
        %340 = memref.load %31[%arg3, %c46] : memref<16x50xf32>
        %c0_461 = arith.constant 0 : index
        %c0_462 = arith.constant 0 : index
        memref.store %340, %16[%c0_461, %c0_462] : memref<1x1xf32>
        %341 = memref.load %44[%c0_52, %c46] : memref<1x50xf32>
        %c0_463 = arith.constant 0 : index
        %c0_464 = arith.constant 0 : index
        %342 = memref.load %16[%c0_463, %c0_464] : memref<1x1xf32>
        %c0_465 = arith.constant 0 : index
        %c0_466 = arith.constant 0 : index
        %343 = memref.load %17[%c0_465, %c0_466] : memref<1x1xf32>
        %344 = arith.mulf %341, %342 : f32
        %345 = arith.addf %343, %344 : f32
        %c0_467 = arith.constant 0 : index
        %c0_468 = arith.constant 0 : index
        memref.store %345, %17[%c0_467, %c0_468] : memref<1x1xf32>
        %c47 = arith.constant 47 : index
        %346 = memref.load %31[%arg3, %c47] : memref<16x50xf32>
        %c0_469 = arith.constant 0 : index
        %c0_470 = arith.constant 0 : index
        memref.store %346, %16[%c0_469, %c0_470] : memref<1x1xf32>
        %347 = memref.load %44[%c0_52, %c47] : memref<1x50xf32>
        %c0_471 = arith.constant 0 : index
        %c0_472 = arith.constant 0 : index
        %348 = memref.load %16[%c0_471, %c0_472] : memref<1x1xf32>
        %c0_473 = arith.constant 0 : index
        %c0_474 = arith.constant 0 : index
        %349 = memref.load %17[%c0_473, %c0_474] : memref<1x1xf32>
        %350 = arith.mulf %347, %348 : f32
        %351 = arith.addf %349, %350 : f32
        %c0_475 = arith.constant 0 : index
        %c0_476 = arith.constant 0 : index
        memref.store %351, %17[%c0_475, %c0_476] : memref<1x1xf32>
        %c48 = arith.constant 48 : index
        %352 = memref.load %31[%arg3, %c48] : memref<16x50xf32>
        %c0_477 = arith.constant 0 : index
        %c0_478 = arith.constant 0 : index
        memref.store %352, %16[%c0_477, %c0_478] : memref<1x1xf32>
        %353 = memref.load %44[%c0_52, %c48] : memref<1x50xf32>
        %c0_479 = arith.constant 0 : index
        %c0_480 = arith.constant 0 : index
        %354 = memref.load %16[%c0_479, %c0_480] : memref<1x1xf32>
        %c0_481 = arith.constant 0 : index
        %c0_482 = arith.constant 0 : index
        %355 = memref.load %17[%c0_481, %c0_482] : memref<1x1xf32>
        %356 = arith.mulf %353, %354 : f32
        %357 = arith.addf %355, %356 : f32
        %c0_483 = arith.constant 0 : index
        %c0_484 = arith.constant 0 : index
        memref.store %357, %17[%c0_483, %c0_484] : memref<1x1xf32>
        %c49 = arith.constant 49 : index
        %358 = memref.load %31[%arg3, %c49] : memref<16x50xf32>
        %c0_485 = arith.constant 0 : index
        %c0_486 = arith.constant 0 : index
        memref.store %358, %16[%c0_485, %c0_486] : memref<1x1xf32>
        %359 = memref.load %44[%c0_52, %c49] : memref<1x50xf32>
        %c0_487 = arith.constant 0 : index
        %c0_488 = arith.constant 0 : index
        %360 = memref.load %16[%c0_487, %c0_488] : memref<1x1xf32>
        %c0_489 = arith.constant 0 : index
        %c0_490 = arith.constant 0 : index
        %361 = memref.load %17[%c0_489, %c0_490] : memref<1x1xf32>
        %362 = arith.mulf %359, %360 : f32
        %363 = arith.addf %361, %362 : f32
        %c0_491 = arith.constant 0 : index
        %c0_492 = arith.constant 0 : index
        memref.store %363, %17[%c0_491, %c0_492] : memref<1x1xf32>
        %c0_493 = arith.constant 0 : index
        %c0_494 = arith.constant 0 : index
        %364 = memref.load %17[%c0_493, %c0_494] : memref<1x1xf32>
        %365 = arith.cmpf ugt, %364, %cst : f32
        %366 = arith.select %365, %364, %cst : f32
        %367 = arith.select %365, %cst, %364 : f32
        %368 = arith.mulf %367, %45 : f32
        %369 = arith.addf %366, %368 : f32
        %c0_495 = arith.constant 0 : index
        memref.store %369, %18[%c0_495, %arg3] : memref<1x16xf32>
      }
      %c0_72 = arith.constant 0 : index
      %c8 = arith.constant 8 : index
      %c1_73 = arith.constant 1 : index
      scf.for %arg3 = %c0_72 to %c8 step %c1_73 {
        %63 = memref.load %34[%arg3] : memref<8xf32>
        %c0_86 = arith.constant 0 : index
        %c0_87 = arith.constant 0 : index
        memref.store %63, %20[%c0_86, %c0_87] : memref<1x1xf32>
        %64 = memref.load %33[%arg3, %c0_3] : memref<8x16xf32>
        %c0_88 = arith.constant 0 : index
        %c0_89 = arith.constant 0 : index
        memref.store %64, %19[%c0_88, %c0_89] : memref<1x1xf32>
        %c0_90 = arith.constant 0 : index
        %65 = memref.load %18[%c0_90, %c0_3] : memref<1x16xf32>
        %c0_91 = arith.constant 0 : index
        %c0_92 = arith.constant 0 : index
        %66 = memref.load %19[%c0_91, %c0_92] : memref<1x1xf32>
        %c0_93 = arith.constant 0 : index
        %c0_94 = arith.constant 0 : index
        %67 = memref.load %20[%c0_93, %c0_94] : memref<1x1xf32>
        %68 = arith.mulf %65, %66 : f32
        %69 = arith.addf %67, %68 : f32
        %c0_95 = arith.constant 0 : index
        %c0_96 = arith.constant 0 : index
        memref.store %69, %20[%c0_95, %c0_96] : memref<1x1xf32>
        %c1_97 = arith.constant 1 : index
        %70 = memref.load %33[%arg3, %c1_97] : memref<8x16xf32>
        %c0_98 = arith.constant 0 : index
        %c0_99 = arith.constant 0 : index
        memref.store %70, %19[%c0_98, %c0_99] : memref<1x1xf32>
        %c0_100 = arith.constant 0 : index
        %71 = memref.load %18[%c0_100, %c1_97] : memref<1x16xf32>
        %c0_101 = arith.constant 0 : index
        %c0_102 = arith.constant 0 : index
        %72 = memref.load %19[%c0_101, %c0_102] : memref<1x1xf32>
        %c0_103 = arith.constant 0 : index
        %c0_104 = arith.constant 0 : index
        %73 = memref.load %20[%c0_103, %c0_104] : memref<1x1xf32>
        %74 = arith.mulf %71, %72 : f32
        %75 = arith.addf %73, %74 : f32
        %c0_105 = arith.constant 0 : index
        %c0_106 = arith.constant 0 : index
        memref.store %75, %20[%c0_105, %c0_106] : memref<1x1xf32>
        %c2_107 = arith.constant 2 : index
        %76 = memref.load %33[%arg3, %c2_107] : memref<8x16xf32>
        %c0_108 = arith.constant 0 : index
        %c0_109 = arith.constant 0 : index
        memref.store %76, %19[%c0_108, %c0_109] : memref<1x1xf32>
        %c0_110 = arith.constant 0 : index
        %77 = memref.load %18[%c0_110, %c2_107] : memref<1x16xf32>
        %c0_111 = arith.constant 0 : index
        %c0_112 = arith.constant 0 : index
        %78 = memref.load %19[%c0_111, %c0_112] : memref<1x1xf32>
        %c0_113 = arith.constant 0 : index
        %c0_114 = arith.constant 0 : index
        %79 = memref.load %20[%c0_113, %c0_114] : memref<1x1xf32>
        %80 = arith.mulf %77, %78 : f32
        %81 = arith.addf %79, %80 : f32
        %c0_115 = arith.constant 0 : index
        %c0_116 = arith.constant 0 : index
        memref.store %81, %20[%c0_115, %c0_116] : memref<1x1xf32>
        %c3 = arith.constant 3 : index
        %82 = memref.load %33[%arg3, %c3] : memref<8x16xf32>
        %c0_117 = arith.constant 0 : index
        %c0_118 = arith.constant 0 : index
        memref.store %82, %19[%c0_117, %c0_118] : memref<1x1xf32>
        %c0_119 = arith.constant 0 : index
        %83 = memref.load %18[%c0_119, %c3] : memref<1x16xf32>
        %c0_120 = arith.constant 0 : index
        %c0_121 = arith.constant 0 : index
        %84 = memref.load %19[%c0_120, %c0_121] : memref<1x1xf32>
        %c0_122 = arith.constant 0 : index
        %c0_123 = arith.constant 0 : index
        %85 = memref.load %20[%c0_122, %c0_123] : memref<1x1xf32>
        %86 = arith.mulf %83, %84 : f32
        %87 = arith.addf %85, %86 : f32
        %c0_124 = arith.constant 0 : index
        %c0_125 = arith.constant 0 : index
        memref.store %87, %20[%c0_124, %c0_125] : memref<1x1xf32>
        %c4_126 = arith.constant 4 : index
        %88 = memref.load %33[%arg3, %c4_126] : memref<8x16xf32>
        %c0_127 = arith.constant 0 : index
        %c0_128 = arith.constant 0 : index
        memref.store %88, %19[%c0_127, %c0_128] : memref<1x1xf32>
        %c0_129 = arith.constant 0 : index
        %89 = memref.load %18[%c0_129, %c4_126] : memref<1x16xf32>
        %c0_130 = arith.constant 0 : index
        %c0_131 = arith.constant 0 : index
        %90 = memref.load %19[%c0_130, %c0_131] : memref<1x1xf32>
        %c0_132 = arith.constant 0 : index
        %c0_133 = arith.constant 0 : index
        %91 = memref.load %20[%c0_132, %c0_133] : memref<1x1xf32>
        %92 = arith.mulf %89, %90 : f32
        %93 = arith.addf %91, %92 : f32
        %c0_134 = arith.constant 0 : index
        %c0_135 = arith.constant 0 : index
        memref.store %93, %20[%c0_134, %c0_135] : memref<1x1xf32>
        %c5 = arith.constant 5 : index
        %94 = memref.load %33[%arg3, %c5] : memref<8x16xf32>
        %c0_136 = arith.constant 0 : index
        %c0_137 = arith.constant 0 : index
        memref.store %94, %19[%c0_136, %c0_137] : memref<1x1xf32>
        %c0_138 = arith.constant 0 : index
        %95 = memref.load %18[%c0_138, %c5] : memref<1x16xf32>
        %c0_139 = arith.constant 0 : index
        %c0_140 = arith.constant 0 : index
        %96 = memref.load %19[%c0_139, %c0_140] : memref<1x1xf32>
        %c0_141 = arith.constant 0 : index
        %c0_142 = arith.constant 0 : index
        %97 = memref.load %20[%c0_141, %c0_142] : memref<1x1xf32>
        %98 = arith.mulf %95, %96 : f32
        %99 = arith.addf %97, %98 : f32
        %c0_143 = arith.constant 0 : index
        %c0_144 = arith.constant 0 : index
        memref.store %99, %20[%c0_143, %c0_144] : memref<1x1xf32>
        %c6 = arith.constant 6 : index
        %100 = memref.load %33[%arg3, %c6] : memref<8x16xf32>
        %c0_145 = arith.constant 0 : index
        %c0_146 = arith.constant 0 : index
        memref.store %100, %19[%c0_145, %c0_146] : memref<1x1xf32>
        %c0_147 = arith.constant 0 : index
        %101 = memref.load %18[%c0_147, %c6] : memref<1x16xf32>
        %c0_148 = arith.constant 0 : index
        %c0_149 = arith.constant 0 : index
        %102 = memref.load %19[%c0_148, %c0_149] : memref<1x1xf32>
        %c0_150 = arith.constant 0 : index
        %c0_151 = arith.constant 0 : index
        %103 = memref.load %20[%c0_150, %c0_151] : memref<1x1xf32>
        %104 = arith.mulf %101, %102 : f32
        %105 = arith.addf %103, %104 : f32
        %c0_152 = arith.constant 0 : index
        %c0_153 = arith.constant 0 : index
        memref.store %105, %20[%c0_152, %c0_153] : memref<1x1xf32>
        %c7 = arith.constant 7 : index
        %106 = memref.load %33[%arg3, %c7] : memref<8x16xf32>
        %c0_154 = arith.constant 0 : index
        %c0_155 = arith.constant 0 : index
        memref.store %106, %19[%c0_154, %c0_155] : memref<1x1xf32>
        %c0_156 = arith.constant 0 : index
        %107 = memref.load %18[%c0_156, %c7] : memref<1x16xf32>
        %c0_157 = arith.constant 0 : index
        %c0_158 = arith.constant 0 : index
        %108 = memref.load %19[%c0_157, %c0_158] : memref<1x1xf32>
        %c0_159 = arith.constant 0 : index
        %c0_160 = arith.constant 0 : index
        %109 = memref.load %20[%c0_159, %c0_160] : memref<1x1xf32>
        %110 = arith.mulf %107, %108 : f32
        %111 = arith.addf %109, %110 : f32
        %c0_161 = arith.constant 0 : index
        %c0_162 = arith.constant 0 : index
        memref.store %111, %20[%c0_161, %c0_162] : memref<1x1xf32>
        %c8_163 = arith.constant 8 : index
        %112 = memref.load %33[%arg3, %c8_163] : memref<8x16xf32>
        %c0_164 = arith.constant 0 : index
        %c0_165 = arith.constant 0 : index
        memref.store %112, %19[%c0_164, %c0_165] : memref<1x1xf32>
        %c0_166 = arith.constant 0 : index
        %113 = memref.load %18[%c0_166, %c8_163] : memref<1x16xf32>
        %c0_167 = arith.constant 0 : index
        %c0_168 = arith.constant 0 : index
        %114 = memref.load %19[%c0_167, %c0_168] : memref<1x1xf32>
        %c0_169 = arith.constant 0 : index
        %c0_170 = arith.constant 0 : index
        %115 = memref.load %20[%c0_169, %c0_170] : memref<1x1xf32>
        %116 = arith.mulf %113, %114 : f32
        %117 = arith.addf %115, %116 : f32
        %c0_171 = arith.constant 0 : index
        %c0_172 = arith.constant 0 : index
        memref.store %117, %20[%c0_171, %c0_172] : memref<1x1xf32>
        %c9 = arith.constant 9 : index
        %118 = memref.load %33[%arg3, %c9] : memref<8x16xf32>
        %c0_173 = arith.constant 0 : index
        %c0_174 = arith.constant 0 : index
        memref.store %118, %19[%c0_173, %c0_174] : memref<1x1xf32>
        %c0_175 = arith.constant 0 : index
        %119 = memref.load %18[%c0_175, %c9] : memref<1x16xf32>
        %c0_176 = arith.constant 0 : index
        %c0_177 = arith.constant 0 : index
        %120 = memref.load %19[%c0_176, %c0_177] : memref<1x1xf32>
        %c0_178 = arith.constant 0 : index
        %c0_179 = arith.constant 0 : index
        %121 = memref.load %20[%c0_178, %c0_179] : memref<1x1xf32>
        %122 = arith.mulf %119, %120 : f32
        %123 = arith.addf %121, %122 : f32
        %c0_180 = arith.constant 0 : index
        %c0_181 = arith.constant 0 : index
        memref.store %123, %20[%c0_180, %c0_181] : memref<1x1xf32>
        %c10 = arith.constant 10 : index
        %124 = memref.load %33[%arg3, %c10] : memref<8x16xf32>
        %c0_182 = arith.constant 0 : index
        %c0_183 = arith.constant 0 : index
        memref.store %124, %19[%c0_182, %c0_183] : memref<1x1xf32>
        %c0_184 = arith.constant 0 : index
        %125 = memref.load %18[%c0_184, %c10] : memref<1x16xf32>
        %c0_185 = arith.constant 0 : index
        %c0_186 = arith.constant 0 : index
        %126 = memref.load %19[%c0_185, %c0_186] : memref<1x1xf32>
        %c0_187 = arith.constant 0 : index
        %c0_188 = arith.constant 0 : index
        %127 = memref.load %20[%c0_187, %c0_188] : memref<1x1xf32>
        %128 = arith.mulf %125, %126 : f32
        %129 = arith.addf %127, %128 : f32
        %c0_189 = arith.constant 0 : index
        %c0_190 = arith.constant 0 : index
        memref.store %129, %20[%c0_189, %c0_190] : memref<1x1xf32>
        %c11 = arith.constant 11 : index
        %130 = memref.load %33[%arg3, %c11] : memref<8x16xf32>
        %c0_191 = arith.constant 0 : index
        %c0_192 = arith.constant 0 : index
        memref.store %130, %19[%c0_191, %c0_192] : memref<1x1xf32>
        %c0_193 = arith.constant 0 : index
        %131 = memref.load %18[%c0_193, %c11] : memref<1x16xf32>
        %c0_194 = arith.constant 0 : index
        %c0_195 = arith.constant 0 : index
        %132 = memref.load %19[%c0_194, %c0_195] : memref<1x1xf32>
        %c0_196 = arith.constant 0 : index
        %c0_197 = arith.constant 0 : index
        %133 = memref.load %20[%c0_196, %c0_197] : memref<1x1xf32>
        %134 = arith.mulf %131, %132 : f32
        %135 = arith.addf %133, %134 : f32
        %c0_198 = arith.constant 0 : index
        %c0_199 = arith.constant 0 : index
        memref.store %135, %20[%c0_198, %c0_199] : memref<1x1xf32>
        %c12 = arith.constant 12 : index
        %136 = memref.load %33[%arg3, %c12] : memref<8x16xf32>
        %c0_200 = arith.constant 0 : index
        %c0_201 = arith.constant 0 : index
        memref.store %136, %19[%c0_200, %c0_201] : memref<1x1xf32>
        %c0_202 = arith.constant 0 : index
        %137 = memref.load %18[%c0_202, %c12] : memref<1x16xf32>
        %c0_203 = arith.constant 0 : index
        %c0_204 = arith.constant 0 : index
        %138 = memref.load %19[%c0_203, %c0_204] : memref<1x1xf32>
        %c0_205 = arith.constant 0 : index
        %c0_206 = arith.constant 0 : index
        %139 = memref.load %20[%c0_205, %c0_206] : memref<1x1xf32>
        %140 = arith.mulf %137, %138 : f32
        %141 = arith.addf %139, %140 : f32
        %c0_207 = arith.constant 0 : index
        %c0_208 = arith.constant 0 : index
        memref.store %141, %20[%c0_207, %c0_208] : memref<1x1xf32>
        %c13 = arith.constant 13 : index
        %142 = memref.load %33[%arg3, %c13] : memref<8x16xf32>
        %c0_209 = arith.constant 0 : index
        %c0_210 = arith.constant 0 : index
        memref.store %142, %19[%c0_209, %c0_210] : memref<1x1xf32>
        %c0_211 = arith.constant 0 : index
        %143 = memref.load %18[%c0_211, %c13] : memref<1x16xf32>
        %c0_212 = arith.constant 0 : index
        %c0_213 = arith.constant 0 : index
        %144 = memref.load %19[%c0_212, %c0_213] : memref<1x1xf32>
        %c0_214 = arith.constant 0 : index
        %c0_215 = arith.constant 0 : index
        %145 = memref.load %20[%c0_214, %c0_215] : memref<1x1xf32>
        %146 = arith.mulf %143, %144 : f32
        %147 = arith.addf %145, %146 : f32
        %c0_216 = arith.constant 0 : index
        %c0_217 = arith.constant 0 : index
        memref.store %147, %20[%c0_216, %c0_217] : memref<1x1xf32>
        %c14 = arith.constant 14 : index
        %148 = memref.load %33[%arg3, %c14] : memref<8x16xf32>
        %c0_218 = arith.constant 0 : index
        %c0_219 = arith.constant 0 : index
        memref.store %148, %19[%c0_218, %c0_219] : memref<1x1xf32>
        %c0_220 = arith.constant 0 : index
        %149 = memref.load %18[%c0_220, %c14] : memref<1x16xf32>
        %c0_221 = arith.constant 0 : index
        %c0_222 = arith.constant 0 : index
        %150 = memref.load %19[%c0_221, %c0_222] : memref<1x1xf32>
        %c0_223 = arith.constant 0 : index
        %c0_224 = arith.constant 0 : index
        %151 = memref.load %20[%c0_223, %c0_224] : memref<1x1xf32>
        %152 = arith.mulf %149, %150 : f32
        %153 = arith.addf %151, %152 : f32
        %c0_225 = arith.constant 0 : index
        %c0_226 = arith.constant 0 : index
        memref.store %153, %20[%c0_225, %c0_226] : memref<1x1xf32>
        %c15 = arith.constant 15 : index
        %154 = memref.load %33[%arg3, %c15] : memref<8x16xf32>
        %c0_227 = arith.constant 0 : index
        %c0_228 = arith.constant 0 : index
        memref.store %154, %19[%c0_227, %c0_228] : memref<1x1xf32>
        %c0_229 = arith.constant 0 : index
        %155 = memref.load %18[%c0_229, %c15] : memref<1x16xf32>
        %c0_230 = arith.constant 0 : index
        %c0_231 = arith.constant 0 : index
        %156 = memref.load %19[%c0_230, %c0_231] : memref<1x1xf32>
        %c0_232 = arith.constant 0 : index
        %c0_233 = arith.constant 0 : index
        %157 = memref.load %20[%c0_232, %c0_233] : memref<1x1xf32>
        %158 = arith.mulf %155, %156 : f32
        %159 = arith.addf %157, %158 : f32
        %c0_234 = arith.constant 0 : index
        %c0_235 = arith.constant 0 : index
        memref.store %159, %20[%c0_234, %c0_235] : memref<1x1xf32>
        %c0_236 = arith.constant 0 : index
        %c0_237 = arith.constant 0 : index
        %160 = memref.load %20[%c0_236, %c0_237] : memref<1x1xf32>
        %161 = arith.cmpf ugt, %160, %cst : f32
        %162 = arith.select %161, %160, %cst : f32
        %163 = arith.select %161, %cst, %160 : f32
        %164 = arith.mulf %163, %46 : f32
        %165 = arith.addf %162, %164 : f32
        %c0_238 = arith.constant 0 : index
        memref.store %165, %21[%c0_238, %arg3] : memref<1x8xf32>
      }
      %c0_74 = arith.constant 0 : index
      %c4 = arith.constant 4 : index
      %c1_75 = arith.constant 1 : index
      scf.for %arg3 = %c0_74 to %c4 step %c1_75 {
        %63 = memref.load %36[%arg3] : memref<4xf32>
        %c0_86 = arith.constant 0 : index
        %c0_87 = arith.constant 0 : index
        memref.store %63, %23[%c0_86, %c0_87] : memref<1x1xf32>
        %64 = memref.load %35[%arg3, %c0_2] : memref<4x8xf32>
        %c0_88 = arith.constant 0 : index
        %c0_89 = arith.constant 0 : index
        memref.store %64, %22[%c0_88, %c0_89] : memref<1x1xf32>
        %c0_90 = arith.constant 0 : index
        %65 = memref.load %21[%c0_90, %c0_2] : memref<1x8xf32>
        %c0_91 = arith.constant 0 : index
        %c0_92 = arith.constant 0 : index
        %66 = memref.load %22[%c0_91, %c0_92] : memref<1x1xf32>
        %c0_93 = arith.constant 0 : index
        %c0_94 = arith.constant 0 : index
        %67 = memref.load %23[%c0_93, %c0_94] : memref<1x1xf32>
        %68 = arith.mulf %65, %66 : f32
        %69 = arith.addf %67, %68 : f32
        %c0_95 = arith.constant 0 : index
        %c0_96 = arith.constant 0 : index
        memref.store %69, %23[%c0_95, %c0_96] : memref<1x1xf32>
        %c1_97 = arith.constant 1 : index
        %70 = memref.load %35[%arg3, %c1_97] : memref<4x8xf32>
        %c0_98 = arith.constant 0 : index
        %c0_99 = arith.constant 0 : index
        memref.store %70, %22[%c0_98, %c0_99] : memref<1x1xf32>
        %c0_100 = arith.constant 0 : index
        %71 = memref.load %21[%c0_100, %c1_97] : memref<1x8xf32>
        %c0_101 = arith.constant 0 : index
        %c0_102 = arith.constant 0 : index
        %72 = memref.load %22[%c0_101, %c0_102] : memref<1x1xf32>
        %c0_103 = arith.constant 0 : index
        %c0_104 = arith.constant 0 : index
        %73 = memref.load %23[%c0_103, %c0_104] : memref<1x1xf32>
        %74 = arith.mulf %71, %72 : f32
        %75 = arith.addf %73, %74 : f32
        %c0_105 = arith.constant 0 : index
        %c0_106 = arith.constant 0 : index
        memref.store %75, %23[%c0_105, %c0_106] : memref<1x1xf32>
        %c2_107 = arith.constant 2 : index
        %76 = memref.load %35[%arg3, %c2_107] : memref<4x8xf32>
        %c0_108 = arith.constant 0 : index
        %c0_109 = arith.constant 0 : index
        memref.store %76, %22[%c0_108, %c0_109] : memref<1x1xf32>
        %c0_110 = arith.constant 0 : index
        %77 = memref.load %21[%c0_110, %c2_107] : memref<1x8xf32>
        %c0_111 = arith.constant 0 : index
        %c0_112 = arith.constant 0 : index
        %78 = memref.load %22[%c0_111, %c0_112] : memref<1x1xf32>
        %c0_113 = arith.constant 0 : index
        %c0_114 = arith.constant 0 : index
        %79 = memref.load %23[%c0_113, %c0_114] : memref<1x1xf32>
        %80 = arith.mulf %77, %78 : f32
        %81 = arith.addf %79, %80 : f32
        %c0_115 = arith.constant 0 : index
        %c0_116 = arith.constant 0 : index
        memref.store %81, %23[%c0_115, %c0_116] : memref<1x1xf32>
        %c3 = arith.constant 3 : index
        %82 = memref.load %35[%arg3, %c3] : memref<4x8xf32>
        %c0_117 = arith.constant 0 : index
        %c0_118 = arith.constant 0 : index
        memref.store %82, %22[%c0_117, %c0_118] : memref<1x1xf32>
        %c0_119 = arith.constant 0 : index
        %83 = memref.load %21[%c0_119, %c3] : memref<1x8xf32>
        %c0_120 = arith.constant 0 : index
        %c0_121 = arith.constant 0 : index
        %84 = memref.load %22[%c0_120, %c0_121] : memref<1x1xf32>
        %c0_122 = arith.constant 0 : index
        %c0_123 = arith.constant 0 : index
        %85 = memref.load %23[%c0_122, %c0_123] : memref<1x1xf32>
        %86 = arith.mulf %83, %84 : f32
        %87 = arith.addf %85, %86 : f32
        %c0_124 = arith.constant 0 : index
        %c0_125 = arith.constant 0 : index
        memref.store %87, %23[%c0_124, %c0_125] : memref<1x1xf32>
        %c4_126 = arith.constant 4 : index
        %88 = memref.load %35[%arg3, %c4_126] : memref<4x8xf32>
        %c0_127 = arith.constant 0 : index
        %c0_128 = arith.constant 0 : index
        memref.store %88, %22[%c0_127, %c0_128] : memref<1x1xf32>
        %c0_129 = arith.constant 0 : index
        %89 = memref.load %21[%c0_129, %c4_126] : memref<1x8xf32>
        %c0_130 = arith.constant 0 : index
        %c0_131 = arith.constant 0 : index
        %90 = memref.load %22[%c0_130, %c0_131] : memref<1x1xf32>
        %c0_132 = arith.constant 0 : index
        %c0_133 = arith.constant 0 : index
        %91 = memref.load %23[%c0_132, %c0_133] : memref<1x1xf32>
        %92 = arith.mulf %89, %90 : f32
        %93 = arith.addf %91, %92 : f32
        %c0_134 = arith.constant 0 : index
        %c0_135 = arith.constant 0 : index
        memref.store %93, %23[%c0_134, %c0_135] : memref<1x1xf32>
        %c5 = arith.constant 5 : index
        %94 = memref.load %35[%arg3, %c5] : memref<4x8xf32>
        %c0_136 = arith.constant 0 : index
        %c0_137 = arith.constant 0 : index
        memref.store %94, %22[%c0_136, %c0_137] : memref<1x1xf32>
        %c0_138 = arith.constant 0 : index
        %95 = memref.load %21[%c0_138, %c5] : memref<1x8xf32>
        %c0_139 = arith.constant 0 : index
        %c0_140 = arith.constant 0 : index
        %96 = memref.load %22[%c0_139, %c0_140] : memref<1x1xf32>
        %c0_141 = arith.constant 0 : index
        %c0_142 = arith.constant 0 : index
        %97 = memref.load %23[%c0_141, %c0_142] : memref<1x1xf32>
        %98 = arith.mulf %95, %96 : f32
        %99 = arith.addf %97, %98 : f32
        %c0_143 = arith.constant 0 : index
        %c0_144 = arith.constant 0 : index
        memref.store %99, %23[%c0_143, %c0_144] : memref<1x1xf32>
        %c6 = arith.constant 6 : index
        %100 = memref.load %35[%arg3, %c6] : memref<4x8xf32>
        %c0_145 = arith.constant 0 : index
        %c0_146 = arith.constant 0 : index
        memref.store %100, %22[%c0_145, %c0_146] : memref<1x1xf32>
        %c0_147 = arith.constant 0 : index
        %101 = memref.load %21[%c0_147, %c6] : memref<1x8xf32>
        %c0_148 = arith.constant 0 : index
        %c0_149 = arith.constant 0 : index
        %102 = memref.load %22[%c0_148, %c0_149] : memref<1x1xf32>
        %c0_150 = arith.constant 0 : index
        %c0_151 = arith.constant 0 : index
        %103 = memref.load %23[%c0_150, %c0_151] : memref<1x1xf32>
        %104 = arith.mulf %101, %102 : f32
        %105 = arith.addf %103, %104 : f32
        %c0_152 = arith.constant 0 : index
        %c0_153 = arith.constant 0 : index
        memref.store %105, %23[%c0_152, %c0_153] : memref<1x1xf32>
        %c7 = arith.constant 7 : index
        %106 = memref.load %35[%arg3, %c7] : memref<4x8xf32>
        %c0_154 = arith.constant 0 : index
        %c0_155 = arith.constant 0 : index
        memref.store %106, %22[%c0_154, %c0_155] : memref<1x1xf32>
        %c0_156 = arith.constant 0 : index
        %107 = memref.load %21[%c0_156, %c7] : memref<1x8xf32>
        %c0_157 = arith.constant 0 : index
        %c0_158 = arith.constant 0 : index
        %108 = memref.load %22[%c0_157, %c0_158] : memref<1x1xf32>
        %c0_159 = arith.constant 0 : index
        %c0_160 = arith.constant 0 : index
        %109 = memref.load %23[%c0_159, %c0_160] : memref<1x1xf32>
        %110 = arith.mulf %107, %108 : f32
        %111 = arith.addf %109, %110 : f32
        %c0_161 = arith.constant 0 : index
        %c0_162 = arith.constant 0 : index
        memref.store %111, %23[%c0_161, %c0_162] : memref<1x1xf32>
        %c0_163 = arith.constant 0 : index
        %c0_164 = arith.constant 0 : index
        %112 = memref.load %23[%c0_163, %c0_164] : memref<1x1xf32>
        %113 = arith.cmpf ugt, %112, %cst : f32
        %114 = arith.select %113, %112, %cst : f32
        %115 = arith.select %113, %cst, %112 : f32
        %116 = arith.mulf %115, %47 : f32
        %117 = arith.addf %114, %116 : f32
        %c0_165 = arith.constant 0 : index
        memref.store %117, %24[%c0_165, %arg3] : memref<1x4xf32>
      }
      %c0_76 = arith.constant 0 : index
      %c2 = arith.constant 2 : index
      %c1_77 = arith.constant 1 : index
      scf.for %arg3 = %c0_76 to %c2 step %c1_77 {
        %63 = memref.load %37[%arg3, %c0_1] : memref<2x4xf32>
        %c0_86 = arith.constant 0 : index
        %c0_87 = arith.constant 0 : index
        memref.store %63, %25[%c0_86, %c0_87] : memref<1x1xf32>
        %64 = memref.load %24[%c0_29, %c0_1] : memref<1x4xf32>
        %c0_88 = arith.constant 0 : index
        %c0_89 = arith.constant 0 : index
        %65 = memref.load %25[%c0_88, %c0_89] : memref<1x1xf32>
        %c0_90 = arith.constant 0 : index
        %66 = memref.load %8[%c0_90, %arg3] : memref<1x2xf32>
        %67 = arith.mulf %64, %65 : f32
        %68 = arith.addf %66, %67 : f32
        %c0_91 = arith.constant 0 : index
        memref.store %68, %8[%c0_91, %arg3] : memref<1x2xf32>
        %c1_92 = arith.constant 1 : index
        %69 = memref.load %37[%arg3, %c1_92] : memref<2x4xf32>
        %c0_93 = arith.constant 0 : index
        %c0_94 = arith.constant 0 : index
        memref.store %69, %25[%c0_93, %c0_94] : memref<1x1xf32>
        %70 = memref.load %24[%c0_29, %c1_92] : memref<1x4xf32>
        %c0_95 = arith.constant 0 : index
        %c0_96 = arith.constant 0 : index
        %71 = memref.load %25[%c0_95, %c0_96] : memref<1x1xf32>
        %c0_97 = arith.constant 0 : index
        %72 = memref.load %8[%c0_97, %arg3] : memref<1x2xf32>
        %73 = arith.mulf %70, %71 : f32
        %74 = arith.addf %72, %73 : f32
        %c0_98 = arith.constant 0 : index
        memref.store %74, %8[%c0_98, %arg3] : memref<1x2xf32>
        %c2_99 = arith.constant 2 : index
        %75 = memref.load %37[%arg3, %c2_99] : memref<2x4xf32>
        %c0_100 = arith.constant 0 : index
        %c0_101 = arith.constant 0 : index
        memref.store %75, %25[%c0_100, %c0_101] : memref<1x1xf32>
        %76 = memref.load %24[%c0_29, %c2_99] : memref<1x4xf32>
        %c0_102 = arith.constant 0 : index
        %c0_103 = arith.constant 0 : index
        %77 = memref.load %25[%c0_102, %c0_103] : memref<1x1xf32>
        %c0_104 = arith.constant 0 : index
        %78 = memref.load %8[%c0_104, %arg3] : memref<1x2xf32>
        %79 = arith.mulf %76, %77 : f32
        %80 = arith.addf %78, %79 : f32
        %c0_105 = arith.constant 0 : index
        memref.store %80, %8[%c0_105, %arg3] : memref<1x2xf32>
        %c3 = arith.constant 3 : index
        %81 = memref.load %37[%arg3, %c3] : memref<2x4xf32>
        %c0_106 = arith.constant 0 : index
        %c0_107 = arith.constant 0 : index
        memref.store %81, %25[%c0_106, %c0_107] : memref<1x1xf32>
        %82 = memref.load %24[%c0_29, %c3] : memref<1x4xf32>
        %c0_108 = arith.constant 0 : index
        %c0_109 = arith.constant 0 : index
        %83 = memref.load %25[%c0_108, %c0_109] : memref<1x1xf32>
        %c0_110 = arith.constant 0 : index
        %84 = memref.load %8[%c0_110, %arg3] : memref<1x2xf32>
        %85 = arith.mulf %82, %83 : f32
        %86 = arith.addf %84, %85 : f32
        %c0_111 = arith.constant 0 : index
        memref.store %86, %8[%c0_111, %arg3] : memref<1x2xf32>
      }
      %c0_78 = arith.constant 0 : index
      %51 = memref.load %8[%c0_78, %c0_0] : memref<1x2xf32>
      %52 = arith.cmpf ugt, %51, %cst : f32
      %53 = arith.select %52, %51, %cst : f32
      %54 = arith.select %52, %cst, %51 : f32
      %55 = arith.mulf %54, %48 : f32
      %56 = arith.addf %53, %55 : f32
      %c0_79 = arith.constant 0 : index
      memref.store %56, %0[%c0_79, %c0_0] : memref<1x2xf32>
      %c1_80 = arith.constant 1 : index
      %c0_81 = arith.constant 0 : index
      %57 = memref.load %8[%c0_81, %c1_80] : memref<1x2xf32>
      %58 = arith.cmpf ugt, %57, %cst : f32
      %59 = arith.select %58, %57, %cst : f32
      %60 = arith.select %58, %cst, %57 : f32
      %61 = arith.mulf %60, %48 : f32
      %62 = arith.addf %59, %61 : f32
      %c0_82 = arith.constant 0 : index
      memref.store %62, %0[%c0_82, %c1_80] : memref<1x2xf32>
      %c0_83 = arith.constant 0 : index
      %c2_84 = arith.constant 2 : index
      %c1_85 = arith.constant 1 : index
      scf.for %arg3 = %c0_83 to %c2_84 step %c1_85 {
        %63 = memref.load %39[%arg3] : memref<2xf32>
        %c0_86 = arith.constant 0 : index
        %c0_87 = arith.constant 0 : index
        memref.store %63, %arg1[%c0_86, %c0_87] : memref<1x1xf32>
        %64 = memref.load %38[%arg3, %c0] : memref<2x2xf32>
        %c0_88 = arith.constant 0 : index
        %c0_89 = arith.constant 0 : index
        memref.store %64, %2[%c0_88, %c0_89] : memref<1x1xf32>
        %65 = memref.load %0[%arg2, %c0] : memref<1x2xf32>
        %c0_90 = arith.constant 0 : index
        %c0_91 = arith.constant 0 : index
        %66 = memref.load %2[%c0_90, %c0_91] : memref<1x1xf32>
        %c0_92 = arith.constant 0 : index
        %67 = memref.load %arg1[%arg2, %c0_92] : memref<1x1xf32>
        %68 = arith.mulf %65, %66 : f32
        %69 = arith.addf %67, %68 : f32
        %c0_93 = arith.constant 0 : index
        memref.store %69, %arg1[%arg2, %c0_93] : memref<1x1xf32>
        %c1_94 = arith.constant 1 : index
        %70 = memref.load %38[%arg3, %c1_94] : memref<2x2xf32>
        %c0_95 = arith.constant 0 : index
        %c0_96 = arith.constant 0 : index
        memref.store %70, %2[%c0_95, %c0_96] : memref<1x1xf32>
        %71 = memref.load %0[%arg2, %c1_94] : memref<1x2xf32>
        %c0_97 = arith.constant 0 : index
        %c0_98 = arith.constant 0 : index
        %72 = memref.load %2[%c0_97, %c0_98] : memref<1x1xf32>
        %c0_99 = arith.constant 0 : index
        %73 = memref.load %arg1[%arg2, %c0_99] : memref<1x1xf32>
        %74 = arith.mulf %71, %72 : f32
        %75 = arith.addf %73, %74 : f32
        %c0_100 = arith.constant 0 : index
        memref.store %75, %arg1[%arg2, %c0_100] : memref<1x1xf32>
      }
    }
    return
  }
}
