#map0 = affine_map<(d0) -> (d0 + 1)>
#map1 = affine_map<(d0) -> (d0 + 2)>
#map2 = affine_map<(d0) -> (d0 + 3)>
#map3 = affine_map<(d0) -> (d0 + 4)>
#map4 = affine_map<(d0) -> (d0 + 5)>
#map5 = affine_map<(d0) -> (d0 + 6)>
#map6 = affine_map<(d0) -> (d0 + 7)>
#map7 = affine_map<(d0) -> (d0 + 8)>
#map8 = affine_map<(d0) -> (d0 + 9)>
#map9 = affine_map<(d0) -> (d0 + 10)>
#map10 = affine_map<(d0) -> (d0 + 11)>
#map11 = affine_map<(d0) -> (d0 + 12)>
#map12 = affine_map<(d0) -> (d0 + 13)>
#map13 = affine_map<(d0) -> (d0 + 14)>
#map14 = affine_map<(d0) -> (d0 + 15)>
#map15 = affine_map<(d0) -> (d0 + 16)>
#map16 = affine_map<(d0) -> (d0 + 17)>
#map17 = affine_map<(d0) -> (d0 + 18)>
#map18 = affine_map<(d0) -> (d0 + 19)>
#map19 = affine_map<(d0) -> (d0 + 20)>
#map20 = affine_map<(d0) -> (d0 + 21)>
#map21 = affine_map<(d0) -> (d0 + 22)>
#map22 = affine_map<(d0) -> (d0 + 23)>
#map23 = affine_map<(d0) -> (d0 + 24)>
#map24 = affine_map<(d0) -> (d0 + 25)>
#map25 = affine_map<(d0) -> (d0 + 26)>
#map26 = affine_map<(d0) -> (d0 + 27)>
#map27 = affine_map<(d0) -> (d0 + 28)>
#map28 = affine_map<(d0) -> (d0 + 29)>
#map29 = affine_map<(d0) -> (d0 + 30)>
#map30 = affine_map<(d0) -> (d0 + 31)>
#map31 = affine_map<(d0) -> (d0 + 32)>
#map32 = affine_map<(d0) -> (d0 + 33)>
#map33 = affine_map<(d0, d1, d2, d3) -> (d0 * 3468 + d1 * 1156 + d2 * 34 + d3 + 35)>
#map34 = affine_map<(d0, d1) -> (d0 + d1)>
#map35 = affine_map<(d0, d1, d2, d3) -> (d0 * 73984 + d1 * 1156 + d2 * 34 + d3 + 35)>
#map36 = affine_map<(d0, d1, d2, d3) -> (d0 * 41472 + d1 * 324 + d2 * 18 + d3 + 19)>
#map37 = affine_map<(d0, d1) -> (d0 * 2 + d1)>
#map38 = affine_map<(d0) -> (d0 * 2)>
#map39 = affine_map<(d0, d1) -> (d0 + d1 * 2)>
#map40 = affine_map<(d0, d1, d2, d3) -> (d0 * 25600 + d1 * 100 + d2 * 10 + d3 + 11)>
#map41 = affine_map<(d0, d1, d2, d3) -> (d0 * 18432 + d1 * 36 + d2 * 6 + d3 + 7)>
#map42 = affine_map<(d0) -> (d0 + 34)>
#map43 = affine_map<(d0) -> (d0 + 35)>
#map44 = affine_map<(d0) -> (d0 + 36)>
#map45 = affine_map<(d0) -> (d0 + 37)>
#map46 = affine_map<(d0) -> (d0 + 38)>
#map47 = affine_map<(d0) -> (d0 + 39)>
#map48 = affine_map<(d0) -> (d0 + 40)>
#map49 = affine_map<(d0) -> (d0 + 41)>
#map50 = affine_map<(d0) -> (d0 + 42)>
#map51 = affine_map<(d0) -> (d0 + 43)>
#map52 = affine_map<(d0) -> (d0 + 44)>
#map53 = affine_map<(d0) -> (d0 + 45)>
#map54 = affine_map<(d0) -> (d0 + 46)>
#map55 = affine_map<(d0) -> (d0 + 47)>
#map56 = affine_map<(d0) -> (d0 + 48)>
#map57 = affine_map<(d0) -> (d0 + 49)>
#map58 = affine_map<(d0) -> (d0 + 50)>
#map59 = affine_map<(d0) -> (d0 + 51)>
#map60 = affine_map<(d0) -> (d0 + 52)>
#map61 = affine_map<(d0) -> (d0 + 53)>
#map62 = affine_map<(d0) -> (d0 + 54)>
#map63 = affine_map<(d0) -> (d0 + 55)>
#map64 = affine_map<(d0) -> (d0 + 56)>
#map65 = affine_map<(d0) -> (d0 + 57)>
#map66 = affine_map<(d0) -> (d0 + 58)>
#map67 = affine_map<(d0) -> (d0 + 59)>
#map68 = affine_map<(d0) -> (d0 + 60)>
#map69 = affine_map<(d0) -> (d0 + 61)>
#map70 = affine_map<(d0) -> (d0 + 62)>
#map71 = affine_map<(d0) -> (d0 + 63)>
#map72 = affine_map<(d0) -> (d0 + 64)>
#map73 = affine_map<(d0) -> (d0 + 65)>
#map74 = affine_map<(d0) -> (d0 + 66)>
#map75 = affine_map<(d0) -> (d0 + 67)>
#map76 = affine_map<(d0) -> (d0 + 68)>
#map77 = affine_map<(d0) -> (d0 + 69)>
#map78 = affine_map<(d0) -> (d0 + 70)>
#map79 = affine_map<(d0) -> (d0 + 71)>
#map80 = affine_map<(d0) -> (d0 + 72)>
#map81 = affine_map<(d0) -> (d0 + 73)>
#map82 = affine_map<(d0) -> (d0 + 74)>
#map83 = affine_map<(d0) -> (d0 + 75)>
#map84 = affine_map<(d0) -> (d0 + 76)>
#map85 = affine_map<(d0) -> (d0 + 77)>
#map86 = affine_map<(d0) -> (d0 + 78)>
#map87 = affine_map<(d0) -> (d0 + 79)>
#map88 = affine_map<(d0) -> (d0 + 80)>
#map89 = affine_map<(d0) -> (d0 + 81)>
#map90 = affine_map<(d0) -> (d0 + 82)>
#map91 = affine_map<(d0) -> (d0 + 83)>
#map92 = affine_map<(d0) -> (d0 + 84)>
#map93 = affine_map<(d0) -> (d0 + 85)>
#map94 = affine_map<(d0) -> (d0 + 86)>
#map95 = affine_map<(d0) -> (d0 + 87)>
#map96 = affine_map<(d0) -> (d0 + 88)>
#map97 = affine_map<(d0) -> (d0 + 89)>
#map98 = affine_map<(d0) -> (d0 + 90)>
#map99 = affine_map<(d0) -> (d0 + 91)>
#map100 = affine_map<(d0) -> (d0 + 92)>
#map101 = affine_map<(d0) -> (d0 + 93)>
#map102 = affine_map<(d0) -> (d0 + 94)>
#map103 = affine_map<(d0) -> (d0 + 95)>
#map104 = affine_map<(d0) -> (d0 + 96)>
#map105 = affine_map<(d0) -> (d0 + 97)>
#map106 = affine_map<(d0) -> (d0 + 98)>
#map107 = affine_map<(d0) -> (d0 + 99)>
#map108 = affine_map<(d0) -> (d0 + 100)>
#map109 = affine_map<(d0) -> (d0 + 101)>
#map110 = affine_map<(d0) -> (d0 + 102)>
#map111 = affine_map<(d0) -> (d0 + 103)>
#map112 = affine_map<(d0) -> (d0 + 104)>
#map113 = affine_map<(d0) -> (d0 + 105)>
#map114 = affine_map<(d0) -> (d0 + 106)>
#map115 = affine_map<(d0) -> (d0 + 107)>
#map116 = affine_map<(d0) -> (d0 + 108)>
#map117 = affine_map<(d0) -> (d0 + 109)>
#map118 = affine_map<(d0) -> (d0 + 110)>
#map119 = affine_map<(d0) -> (d0 + 111)>
#map120 = affine_map<(d0) -> (d0 + 112)>
#map121 = affine_map<(d0) -> (d0 + 113)>
#map122 = affine_map<(d0) -> (d0 + 114)>
#map123 = affine_map<(d0) -> (d0 + 115)>
#map124 = affine_map<(d0) -> (d0 + 116)>
#map125 = affine_map<(d0) -> (d0 + 117)>
#map126 = affine_map<(d0) -> (d0 + 118)>
#map127 = affine_map<(d0) -> (d0 + 119)>
#map128 = affine_map<(d0) -> (d0 + 120)>
#map129 = affine_map<(d0) -> (d0 + 121)>
#map130 = affine_map<(d0) -> (d0 + 122)>
#map131 = affine_map<(d0) -> (d0 + 123)>
#map132 = affine_map<(d0) -> (d0 + 124)>
#map133 = affine_map<(d0) -> (d0 + 125)>
#map134 = affine_map<(d0) -> (d0 + 126)>
#map135 = affine_map<(d0) -> (d0 + 127)>
#map136 = affine_map<(d0) -> (d0 + 128)>
#map137 = affine_map<(d0) -> (d0 + 129)>
#map138 = affine_map<(d0) -> (d0 + 130)>
#map139 = affine_map<(d0) -> (d0 + 131)>
#map140 = affine_map<(d0) -> (d0 + 132)>
#map141 = affine_map<(d0) -> (d0 + 133)>
#map142 = affine_map<(d0) -> (d0 + 134)>
#map143 = affine_map<(d0) -> (d0 + 135)>
#map144 = affine_map<(d0) -> (d0 + 136)>
#map145 = affine_map<(d0) -> (d0 + 137)>
#map146 = affine_map<(d0) -> (d0 + 138)>
#map147 = affine_map<(d0) -> (d0 + 139)>
#map148 = affine_map<(d0) -> (d0 + 140)>
#map149 = affine_map<(d0) -> (d0 + 141)>
#map150 = affine_map<(d0) -> (d0 + 142)>
#map151 = affine_map<(d0) -> (d0 + 143)>
#map152 = affine_map<(d0) -> (d0 + 144)>
#map153 = affine_map<(d0) -> (d0 + 145)>
#map154 = affine_map<(d0) -> (d0 + 146)>
#map155 = affine_map<(d0) -> (d0 + 147)>
#map156 = affine_map<(d0) -> (d0 + 148)>
#map157 = affine_map<(d0) -> (d0 + 149)>
#map158 = affine_map<(d0) -> (d0 + 150)>
#map159 = affine_map<(d0) -> (d0 + 151)>
#map160 = affine_map<(d0) -> (d0 + 152)>
#map161 = affine_map<(d0) -> (d0 + 153)>
#map162 = affine_map<(d0) -> (d0 + 154)>
#map163 = affine_map<(d0) -> (d0 + 155)>
#map164 = affine_map<(d0) -> (d0 + 156)>
#map165 = affine_map<(d0) -> (d0 + 157)>
#map166 = affine_map<(d0) -> (d0 + 158)>
#map167 = affine_map<(d0) -> (d0 + 159)>
#map168 = affine_map<(d0) -> (d0 + 160)>
#map169 = affine_map<(d0) -> (d0 + 161)>
#map170 = affine_map<(d0) -> (d0 + 162)>
#map171 = affine_map<(d0) -> (d0 + 163)>
#map172 = affine_map<(d0) -> (d0 + 164)>
#map173 = affine_map<(d0) -> (d0 + 165)>
#map174 = affine_map<(d0) -> (d0 + 166)>
#map175 = affine_map<(d0) -> (d0 + 167)>
#map176 = affine_map<(d0) -> (d0 + 168)>
#map177 = affine_map<(d0) -> (d0 + 169)>
#map178 = affine_map<(d0) -> (d0 + 170)>
#map179 = affine_map<(d0) -> (d0 + 171)>
#map180 = affine_map<(d0) -> (d0 + 172)>
#map181 = affine_map<(d0) -> (d0 + 173)>
#map182 = affine_map<(d0) -> (d0 + 174)>
#map183 = affine_map<(d0) -> (d0 + 175)>
#map184 = affine_map<(d0) -> (d0 + 176)>
#map185 = affine_map<(d0) -> (d0 + 177)>
#map186 = affine_map<(d0) -> (d0 + 178)>
#map187 = affine_map<(d0) -> (d0 + 179)>
#map188 = affine_map<(d0) -> (d0 + 180)>
#map189 = affine_map<(d0) -> (d0 + 181)>
#map190 = affine_map<(d0) -> (d0 + 182)>
#map191 = affine_map<(d0) -> (d0 + 183)>
#map192 = affine_map<(d0) -> (d0 + 184)>
#map193 = affine_map<(d0) -> (d0 + 185)>
#map194 = affine_map<(d0) -> (d0 + 186)>
#map195 = affine_map<(d0) -> (d0 + 187)>
#map196 = affine_map<(d0) -> (d0 + 188)>
#map197 = affine_map<(d0) -> (d0 + 189)>
#map198 = affine_map<(d0) -> (d0 + 190)>
#map199 = affine_map<(d0) -> (d0 + 191)>
#map200 = affine_map<(d0) -> (d0 + 192)>
#map201 = affine_map<(d0) -> (d0 + 193)>
#map202 = affine_map<(d0) -> (d0 + 194)>
#map203 = affine_map<(d0) -> (d0 + 195)>
#map204 = affine_map<(d0) -> (d0 + 196)>
#map205 = affine_map<(d0) -> (d0 + 197)>
#map206 = affine_map<(d0) -> (d0 + 198)>
#map207 = affine_map<(d0) -> (d0 + 199)>
#map208 = affine_map<(d0) -> (d0 + 200)>
#map209 = affine_map<(d0) -> (d0 + 201)>
#map210 = affine_map<(d0) -> (d0 + 202)>
#map211 = affine_map<(d0) -> (d0 + 203)>
#map212 = affine_map<(d0) -> (d0 + 204)>
#map213 = affine_map<(d0) -> (d0 + 205)>
#map214 = affine_map<(d0) -> (d0 + 206)>
#map215 = affine_map<(d0) -> (d0 + 207)>
#map216 = affine_map<(d0) -> (d0 + 208)>
#map217 = affine_map<(d0) -> (d0 + 209)>
#map218 = affine_map<(d0) -> (d0 + 210)>
#map219 = affine_map<(d0) -> (d0 + 211)>
#map220 = affine_map<(d0) -> (d0 + 212)>
#map221 = affine_map<(d0) -> (d0 + 213)>
#map222 = affine_map<(d0) -> (d0 + 214)>
#map223 = affine_map<(d0) -> (d0 + 215)>
#map224 = affine_map<(d0) -> (d0 + 216)>
#map225 = affine_map<(d0) -> (d0 + 217)>
#map226 = affine_map<(d0) -> (d0 + 218)>
#map227 = affine_map<(d0) -> (d0 + 219)>
#map228 = affine_map<(d0) -> (d0 + 220)>
#map229 = affine_map<(d0) -> (d0 + 221)>
#map230 = affine_map<(d0) -> (d0 + 222)>
#map231 = affine_map<(d0) -> (d0 + 223)>
#map232 = affine_map<(d0) -> (d0 + 224)>
#map233 = affine_map<(d0) -> (d0 + 225)>
#map234 = affine_map<(d0) -> (d0 + 226)>
#map235 = affine_map<(d0) -> (d0 + 227)>
#map236 = affine_map<(d0) -> (d0 + 228)>
#map237 = affine_map<(d0) -> (d0 + 229)>
#map238 = affine_map<(d0) -> (d0 + 230)>
#map239 = affine_map<(d0) -> (d0 + 231)>
#map240 = affine_map<(d0) -> (d0 + 232)>
#map241 = affine_map<(d0) -> (d0 + 233)>
#map242 = affine_map<(d0) -> (d0 + 234)>
#map243 = affine_map<(d0) -> (d0 + 235)>
#map244 = affine_map<(d0) -> (d0 + 236)>
#map245 = affine_map<(d0) -> (d0 + 237)>
#map246 = affine_map<(d0) -> (d0 + 238)>
#map247 = affine_map<(d0) -> (d0 + 239)>
#map248 = affine_map<(d0) -> (d0 + 240)>
#map249 = affine_map<(d0) -> (d0 + 241)>
#map250 = affine_map<(d0) -> (d0 + 242)>
#map251 = affine_map<(d0) -> (d0 + 243)>
#map252 = affine_map<(d0) -> (d0 + 244)>
#map253 = affine_map<(d0) -> (d0 + 245)>
#map254 = affine_map<(d0) -> (d0 + 246)>
#map255 = affine_map<(d0) -> (d0 + 247)>
#map256 = affine_map<(d0) -> (d0 + 248)>
#map257 = affine_map<(d0) -> (d0 + 249)>
#map258 = affine_map<(d0) -> (d0 + 250)>
#map259 = affine_map<(d0) -> (d0 + 251)>
#map260 = affine_map<(d0) -> (d0 + 252)>
#map261 = affine_map<(d0) -> (d0 + 253)>
#map262 = affine_map<(d0) -> (d0 + 254)>
#map263 = affine_map<(d0) -> (d0 + 255)>
#map264 = affine_map<(d0) -> (d0 + 256)>
#map265 = affine_map<(d0) -> (d0 + 257)>
#map266 = affine_map<(d0) -> (d0 + 258)>
#map267 = affine_map<(d0) -> (d0 + 259)>
#map268 = affine_map<(d0) -> (d0 + 260)>
#map269 = affine_map<(d0) -> (d0 + 261)>
#map270 = affine_map<(d0) -> (d0 + 262)>
#map271 = affine_map<(d0) -> (d0 + 263)>
#map272 = affine_map<(d0) -> (d0 + 264)>
#map273 = affine_map<(d0) -> (d0 + 265)>
#map274 = affine_map<(d0) -> (d0 + 266)>
#map275 = affine_map<(d0) -> (d0 + 267)>
#map276 = affine_map<(d0) -> (d0 + 268)>
#map277 = affine_map<(d0) -> (d0 + 269)>
#map278 = affine_map<(d0) -> (d0 + 270)>
#map279 = affine_map<(d0) -> (d0 + 271)>
#map280 = affine_map<(d0) -> (d0 + 272)>
#map281 = affine_map<(d0) -> (d0 + 273)>
#map282 = affine_map<(d0) -> (d0 + 274)>
#map283 = affine_map<(d0) -> (d0 + 275)>
#map284 = affine_map<(d0) -> (d0 + 276)>
#map285 = affine_map<(d0) -> (d0 + 277)>
#map286 = affine_map<(d0) -> (d0 + 278)>
#map287 = affine_map<(d0) -> (d0 + 279)>
#map288 = affine_map<(d0) -> (d0 + 280)>
#map289 = affine_map<(d0) -> (d0 + 281)>
#map290 = affine_map<(d0) -> (d0 + 282)>
#map291 = affine_map<(d0) -> (d0 + 283)>
#map292 = affine_map<(d0) -> (d0 + 284)>
#map293 = affine_map<(d0) -> (d0 + 285)>
#map294 = affine_map<(d0) -> (d0 + 286)>
#map295 = affine_map<(d0) -> (d0 + 287)>
#map296 = affine_map<(d0) -> (d0 + 288)>
#map297 = affine_map<(d0) -> (d0 + 289)>
#map298 = affine_map<(d0) -> (d0 + 290)>
#map299 = affine_map<(d0) -> (d0 + 291)>
#map300 = affine_map<(d0) -> (d0 + 292)>
#map301 = affine_map<(d0) -> (d0 + 293)>
#map302 = affine_map<(d0) -> (d0 + 294)>
#map303 = affine_map<(d0) -> (d0 + 295)>
#map304 = affine_map<(d0) -> (d0 + 296)>
#map305 = affine_map<(d0) -> (d0 + 297)>
#map306 = affine_map<(d0) -> (d0 + 298)>
#map307 = affine_map<(d0) -> (d0 + 299)>
#map308 = affine_map<(d0) -> (d0 + 300)>
#map309 = affine_map<(d0) -> (d0 + 301)>
#map310 = affine_map<(d0) -> (d0 + 302)>
#map311 = affine_map<(d0) -> (d0 + 303)>
#map312 = affine_map<(d0) -> (d0 + 304)>
#map313 = affine_map<(d0) -> (d0 + 305)>
#map314 = affine_map<(d0) -> (d0 + 306)>
#map315 = affine_map<(d0) -> (d0 + 307)>
#map316 = affine_map<(d0) -> (d0 + 308)>
#map317 = affine_map<(d0) -> (d0 + 309)>
#map318 = affine_map<(d0) -> (d0 + 310)>
#map319 = affine_map<(d0) -> (d0 + 311)>
#map320 = affine_map<(d0) -> (d0 + 312)>
#map321 = affine_map<(d0) -> (d0 + 313)>
#map322 = affine_map<(d0) -> (d0 + 314)>
#map323 = affine_map<(d0) -> (d0 + 315)>
#map324 = affine_map<(d0) -> (d0 + 316)>
#map325 = affine_map<(d0) -> (d0 + 317)>
#map326 = affine_map<(d0) -> (d0 + 318)>
#map327 = affine_map<(d0) -> (d0 + 319)>
#map328 = affine_map<(d0) -> (d0 + 320)>
#map329 = affine_map<(d0) -> (d0 + 321)>
#map330 = affine_map<(d0) -> (d0 + 322)>
#map331 = affine_map<(d0) -> (d0 + 323)>
#map332 = affine_map<(d0) -> (d0 + 324)>
#map333 = affine_map<(d0) -> (d0 + 325)>
#map334 = affine_map<(d0) -> (d0 + 326)>
#map335 = affine_map<(d0) -> (d0 + 327)>
#map336 = affine_map<(d0) -> (d0 + 328)>
#map337 = affine_map<(d0) -> (d0 + 329)>
#map338 = affine_map<(d0) -> (d0 + 330)>
#map339 = affine_map<(d0) -> (d0 + 331)>
#map340 = affine_map<(d0) -> (d0 + 332)>
#map341 = affine_map<(d0) -> (d0 + 333)>
#map342 = affine_map<(d0) -> (d0 + 334)>
#map343 = affine_map<(d0) -> (d0 + 335)>
#map344 = affine_map<(d0) -> (d0 + 336)>
#map345 = affine_map<(d0) -> (d0 + 337)>
#map346 = affine_map<(d0) -> (d0 + 338)>
#map347 = affine_map<(d0) -> (d0 + 339)>
#map348 = affine_map<(d0) -> (d0 + 340)>
#map349 = affine_map<(d0) -> (d0 + 341)>
#map350 = affine_map<(d0) -> (d0 + 342)>
#map351 = affine_map<(d0) -> (d0 + 343)>
#map352 = affine_map<(d0) -> (d0 + 344)>
#map353 = affine_map<(d0) -> (d0 + 345)>
#map354 = affine_map<(d0) -> (d0 + 346)>
#map355 = affine_map<(d0) -> (d0 + 347)>
#map356 = affine_map<(d0) -> (d0 + 348)>
#map357 = affine_map<(d0) -> (d0 + 349)>
#map358 = affine_map<(d0) -> (d0 + 350)>
#map359 = affine_map<(d0) -> (d0 + 351)>
#map360 = affine_map<(d0) -> (d0 + 352)>
#map361 = affine_map<(d0) -> (d0 + 353)>
#map362 = affine_map<(d0) -> (d0 + 354)>
#map363 = affine_map<(d0) -> (d0 + 355)>
#map364 = affine_map<(d0) -> (d0 + 356)>
#map365 = affine_map<(d0) -> (d0 + 357)>
#map366 = affine_map<(d0) -> (d0 + 358)>
#map367 = affine_map<(d0) -> (d0 + 359)>
#map368 = affine_map<(d0) -> (d0 + 360)>
#map369 = affine_map<(d0) -> (d0 + 361)>
#map370 = affine_map<(d0) -> (d0 + 362)>
#map371 = affine_map<(d0) -> (d0 + 363)>
#map372 = affine_map<(d0) -> (d0 + 364)>
#map373 = affine_map<(d0) -> (d0 + 365)>
#map374 = affine_map<(d0) -> (d0 + 366)>
#map375 = affine_map<(d0) -> (d0 + 367)>
#map376 = affine_map<(d0) -> (d0 + 368)>
#map377 = affine_map<(d0) -> (d0 + 369)>
#map378 = affine_map<(d0) -> (d0 + 370)>
#map379 = affine_map<(d0) -> (d0 + 371)>
#map380 = affine_map<(d0) -> (d0 + 372)>
#map381 = affine_map<(d0) -> (d0 + 373)>
#map382 = affine_map<(d0) -> (d0 + 374)>
#map383 = affine_map<(d0) -> (d0 + 375)>
#map384 = affine_map<(d0) -> (d0 + 376)>
#map385 = affine_map<(d0) -> (d0 + 377)>
#map386 = affine_map<(d0) -> (d0 + 378)>
#map387 = affine_map<(d0) -> (d0 + 379)>
#map388 = affine_map<(d0) -> (d0 + 380)>
#map389 = affine_map<(d0) -> (d0 + 381)>
#map390 = affine_map<(d0) -> (d0 + 382)>
#map391 = affine_map<(d0) -> (d0 + 383)>
#map392 = affine_map<(d0) -> (d0 + 384)>
#map393 = affine_map<(d0) -> (d0 + 385)>
#map394 = affine_map<(d0) -> (d0 + 386)>
#map395 = affine_map<(d0) -> (d0 + 387)>
#map396 = affine_map<(d0) -> (d0 + 388)>
#map397 = affine_map<(d0) -> (d0 + 389)>
#map398 = affine_map<(d0) -> (d0 + 390)>
#map399 = affine_map<(d0) -> (d0 + 391)>
#map400 = affine_map<(d0) -> (d0 + 392)>
#map401 = affine_map<(d0) -> (d0 + 393)>
#map402 = affine_map<(d0) -> (d0 + 394)>
#map403 = affine_map<(d0) -> (d0 + 395)>
#map404 = affine_map<(d0) -> (d0 + 396)>
#map405 = affine_map<(d0) -> (d0 + 397)>
#map406 = affine_map<(d0) -> (d0 + 398)>
#map407 = affine_map<(d0) -> (d0 + 399)>
#map408 = affine_map<(d0) -> (d0 + 400)>
#map409 = affine_map<(d0) -> (d0 + 401)>
#map410 = affine_map<(d0) -> (d0 + 402)>
#map411 = affine_map<(d0) -> (d0 + 403)>
#map412 = affine_map<(d0) -> (d0 + 404)>
#map413 = affine_map<(d0) -> (d0 + 405)>
#map414 = affine_map<(d0) -> (d0 + 406)>
#map415 = affine_map<(d0) -> (d0 + 407)>
#map416 = affine_map<(d0) -> (d0 + 408)>
#map417 = affine_map<(d0) -> (d0 + 409)>
#map418 = affine_map<(d0) -> (d0 + 410)>
#map419 = affine_map<(d0) -> (d0 + 411)>
#map420 = affine_map<(d0) -> (d0 + 412)>
#map421 = affine_map<(d0) -> (d0 + 413)>
#map422 = affine_map<(d0) -> (d0 + 414)>
#map423 = affine_map<(d0) -> (d0 + 415)>
#map424 = affine_map<(d0) -> (d0 + 416)>
#map425 = affine_map<(d0) -> (d0 + 417)>
#map426 = affine_map<(d0) -> (d0 + 418)>
#map427 = affine_map<(d0) -> (d0 + 419)>
#map428 = affine_map<(d0) -> (d0 + 420)>
#map429 = affine_map<(d0) -> (d0 + 421)>
#map430 = affine_map<(d0) -> (d0 + 422)>
#map431 = affine_map<(d0) -> (d0 + 423)>
#map432 = affine_map<(d0) -> (d0 + 424)>
#map433 = affine_map<(d0) -> (d0 + 425)>
#map434 = affine_map<(d0) -> (d0 + 426)>
#map435 = affine_map<(d0) -> (d0 + 427)>
#map436 = affine_map<(d0) -> (d0 + 428)>
#map437 = affine_map<(d0) -> (d0 + 429)>
#map438 = affine_map<(d0) -> (d0 + 430)>
#map439 = affine_map<(d0) -> (d0 + 431)>
#map440 = affine_map<(d0) -> (d0 + 432)>
#map441 = affine_map<(d0) -> (d0 + 433)>
#map442 = affine_map<(d0) -> (d0 + 434)>
#map443 = affine_map<(d0) -> (d0 + 435)>
#map444 = affine_map<(d0) -> (d0 + 436)>
#map445 = affine_map<(d0) -> (d0 + 437)>
#map446 = affine_map<(d0) -> (d0 + 438)>
#map447 = affine_map<(d0) -> (d0 + 439)>
#map448 = affine_map<(d0) -> (d0 + 440)>
#map449 = affine_map<(d0) -> (d0 + 441)>
#map450 = affine_map<(d0) -> (d0 + 442)>
#map451 = affine_map<(d0) -> (d0 + 443)>
#map452 = affine_map<(d0) -> (d0 + 444)>
#map453 = affine_map<(d0) -> (d0 + 445)>
#map454 = affine_map<(d0) -> (d0 + 446)>
#map455 = affine_map<(d0) -> (d0 + 447)>
#map456 = affine_map<(d0) -> (d0 + 448)>
#map457 = affine_map<(d0) -> (d0 + 449)>
#map458 = affine_map<(d0) -> (d0 + 450)>
#map459 = affine_map<(d0) -> (d0 + 451)>
#map460 = affine_map<(d0) -> (d0 + 452)>
#map461 = affine_map<(d0) -> (d0 + 453)>
#map462 = affine_map<(d0) -> (d0 + 454)>
#map463 = affine_map<(d0) -> (d0 + 455)>
#map464 = affine_map<(d0) -> (d0 + 456)>
#map465 = affine_map<(d0) -> (d0 + 457)>
#map466 = affine_map<(d0) -> (d0 + 458)>
#map467 = affine_map<(d0) -> (d0 + 459)>
#map468 = affine_map<(d0) -> (d0 + 460)>
#map469 = affine_map<(d0) -> (d0 + 461)>
#map470 = affine_map<(d0) -> (d0 + 462)>
#map471 = affine_map<(d0) -> (d0 + 463)>
#map472 = affine_map<(d0) -> (d0 + 464)>
#map473 = affine_map<(d0) -> (d0 + 465)>
#map474 = affine_map<(d0) -> (d0 + 466)>
#map475 = affine_map<(d0) -> (d0 + 467)>
#map476 = affine_map<(d0) -> (d0 + 468)>
#map477 = affine_map<(d0) -> (d0 + 469)>
#map478 = affine_map<(d0) -> (d0 + 470)>
#map479 = affine_map<(d0) -> (d0 + 471)>
#map480 = affine_map<(d0) -> (d0 + 472)>
#map481 = affine_map<(d0) -> (d0 + 473)>
#map482 = affine_map<(d0) -> (d0 + 474)>
#map483 = affine_map<(d0) -> (d0 + 475)>
#map484 = affine_map<(d0) -> (d0 + 476)>
#map485 = affine_map<(d0) -> (d0 + 477)>
#map486 = affine_map<(d0) -> (d0 + 478)>
#map487 = affine_map<(d0) -> (d0 + 479)>
#map488 = affine_map<(d0) -> (d0 + 480)>
#map489 = affine_map<(d0) -> (d0 + 481)>
#map490 = affine_map<(d0) -> (d0 + 482)>
#map491 = affine_map<(d0) -> (d0 + 483)>
#map492 = affine_map<(d0) -> (d0 + 484)>
#map493 = affine_map<(d0) -> (d0 + 485)>
#map494 = affine_map<(d0) -> (d0 + 486)>
#map495 = affine_map<(d0) -> (d0 + 487)>
#map496 = affine_map<(d0) -> (d0 + 488)>
#map497 = affine_map<(d0) -> (d0 + 489)>
#map498 = affine_map<(d0) -> (d0 + 490)>
#map499 = affine_map<(d0) -> (d0 + 491)>
#map500 = affine_map<(d0) -> (d0 + 492)>
#map501 = affine_map<(d0) -> (d0 + 493)>
#map502 = affine_map<(d0) -> (d0 + 494)>
#map503 = affine_map<(d0) -> (d0 + 495)>
#map504 = affine_map<(d0) -> (d0 + 496)>
#map505 = affine_map<(d0) -> (d0 + 497)>
#map506 = affine_map<(d0) -> (d0 + 498)>
#map507 = affine_map<(d0) -> (d0 + 499)>
#map508 = affine_map<(d0) -> (d0 + 500)>
#map509 = affine_map<(d0) -> (d0 + 501)>
#map510 = affine_map<(d0) -> (d0 + 502)>
#map511 = affine_map<(d0) -> (d0 + 503)>
#map512 = affine_map<(d0) -> (d0 + 504)>
#map513 = affine_map<(d0) -> (d0 + 505)>
#map514 = affine_map<(d0) -> (d0 + 506)>
#map515 = affine_map<(d0) -> (d0 + 507)>
#map516 = affine_map<(d0) -> (d0 + 508)>
#map517 = affine_map<(d0) -> (d0 + 509)>
#map518 = affine_map<(d0) -> (d0 + 510)>
#map519 = affine_map<(d0) -> (d0 + 511)>
module attributes {torch.debug_module_name = "ResNet"} {
  memref.global "private" constant @__constant_64x3x3x3xi8 : memref<64x3x3x3xi8> = dense<1>
  memref.global "private" constant @__constant_64x64x3x3xi8 : memref<64x64x3x3xi8> = dense<1>
  memref.global "private" constant @__constant_128x64x3x3xi8 : memref<128x64x3x3xi8> = dense<1>
  memref.global "private" constant @__constant_128x64x1x1xi8 : memref<128x64x1x1xi8> = dense<1>
  memref.global "private" constant @__constant_128x128x3x3xi8 : memref<128x128x3x3xi8> = dense<1>
  memref.global "private" constant @__constant_256x128x3x3xi8 : memref<256x128x3x3xi8> = dense<1>
  memref.global "private" constant @__constant_256x128x1x1xi8 : memref<256x128x1x1xi8> = dense<1>
  memref.global "private" constant @__constant_256x256x3x3xi8 : memref<256x256x3x3xi8> = dense<1>
  memref.global "private" constant @__constant_512x256x3x3xi8 : memref<512x256x3x3xi8> = dense<1>
  memref.global "private" constant @__constant_512x256x1x1xi8 : memref<512x256x1x1xi8> = dense<1>
  memref.global "private" constant @__constant_512x512x3x3xi8 : memref<512x512x3x3xi8> = dense<1>
  memref.global "private" constant @__constant_10x512xi8 : memref<10x512xi8> = dense<1>
  memref.global "private" constant @__constant_10xi8 : memref<10xi8> = dense<1>
  func @forward(%arg0: memref<1x3x32x32xi8>, %arg1: memref<1x10xi8>) {
    %c0 = arith.constant 0 : index
    %c0_0 = arith.constant 0 : index
    %c0_1 = arith.constant 0 : index
    %c0_2 = arith.constant 0 : index
    %c0_3 = arith.constant 0 : index
    %c0_4 = arith.constant 0 : index
    %c0_5 = arith.constant 0 : index
    %c0_6 = arith.constant 0 : index
    %c0_7 = arith.constant 0 : index
    %c0_8 = arith.constant 0 : index
    %c0_9 = arith.constant 0 : index
    %c0_10 = arith.constant 0 : index
    %c0_11 = arith.constant 0 : index
    %c0_12 = arith.constant 0 : index
    %c0_13 = arith.constant 0 : index
    %c0_14 = arith.constant 0 : index
    %c0_15 = arith.constant 0 : index
    %c0_16 = arith.constant 0 : index
    %c0_17 = arith.constant 0 : index
    %c0_18 = arith.constant 0 : index
    %c0_19 = arith.constant 0 : index
    %c0_20 = arith.constant 0 : index
    %c0_21 = arith.constant 0 : index
    %c0_22 = arith.constant 0 : index
    %c0_23 = arith.constant 0 : index
    %c0_24 = arith.constant 0 : index
    %c0_25 = arith.constant 0 : index
    %c0_26 = arith.constant 0 : index
    %c0_27 = arith.constant 0 : index
    %c0_28 = arith.constant 0 : index
    %c0_29 = arith.constant 0 : index
    %c0_30 = arith.constant 0 : index
    %c0_31 = arith.constant 0 : index
    %c0_32 = arith.constant 0 : index
    %c0_33 = arith.constant 0 : index
    %c0_34 = arith.constant 0 : index
    %c0_35 = arith.constant 0 : index
    %c0_36 = arith.constant 0 : index
    %c0_37 = arith.constant 0 : index
    %c0_38 = arith.constant 0 : index
    %c0_39 = arith.constant 0 : index
    %c0_40 = arith.constant 0 : index
    %c0_41 = arith.constant 0 : index
    %0 = memref.alloc() : memref<1x1x1x1xi8>
    %1 = memref.alloc() : memref<1x1x1x1xi8>
    %2 = memref.alloc() : memref<1x1x1x1xi8>
    %3 = memref.alloc() : memref<1x1x1x1xi8>
    %4 = memref.alloc() : memref<1x1x1x1xi8>
    %5 = memref.alloc() : memref<1x1x1x1xi8>
    %6 = memref.alloc() : memref<1x1x1x1xi8>
    %7 = memref.alloc() : memref<1x1x1x1xi8>
    %8 = memref.alloc() : memref<1x1x1x1xi8>
    %9 = memref.alloc() : memref<1x1x1x1xi8>
    %10 = memref.alloc() : memref<1x1x1x1xi8>
    %11 = memref.alloc() : memref<1x1x1x1xi8>
    %12 = memref.alloc() : memref<1x1x1x1xi8>
    %13 = memref.alloc() : memref<1x1x1x1xi8>
    %14 = memref.alloc() : memref<1x1xi8>
    %15 = memref.alloc() : memref<1x1x1x1xi8>
    %16 = memref.alloc() : memref<1x1x1x1xi8>
    %17 = memref.alloc() : memref<1x1x1x1xi8>
    %18 = memref.alloc() : memref<1x1x1x1xi8>
    %19 = memref.alloc() : memref<1x1x1x1xi8>
    %20 = memref.alloc() : memref<1x1x1x1xi8>
    %21 = memref.alloc() : memref<1x1x1x1xi8>
    %22 = memref.alloc() : memref<1x1x1x1xi8>
    %23 = memref.alloc() : memref<1x1x1x1xi8>
    %24 = memref.alloc() : memref<1x1x1x1xi8>
    %25 = memref.alloc() : memref<1x1x1x1xi8>
    %26 = memref.alloc() : memref<1x1x1x1xi8>
    %27 = memref.alloc() : memref<1x1x1x1xi8>
    %28 = memref.alloc() : memref<1x1x1x1xi8>
    %29 = memref.alloc() : memref<1x1x1x1xi8>
    %30 = memref.alloc() : memref<1x1x1x1xi8>
    %31 = memref.alloc() : memref<1x1x1x1xi8>
    %32 = memref.alloc() : memref<1x1x1x1xi8>
    %33 = memref.alloc() : memref<1x1x1x1xi8>
    %34 = memref.alloc() : memref<1x1x1x1xi8>
    %35 = memref.alloc() : memref<1x1x1x1xi8>
    %36 = memref.alloc() : memref<1x1xi8>
    %37 = memref.alloc() : memref<1x1x1x1xi8>
    %38 = memref.alloc() : memref<1x1x1x1xi8>
    %39 = memref.alloc() : memref<1x1x1x1xi8>
    %c0_42 = arith.constant 0 : index
    %c0_43 = arith.constant 0 : index
    %c0_44 = arith.constant 0 : index
    %c0_45 = arith.constant 0 : index
    %c0_46 = arith.constant 0 : index
    %c0_47 = arith.constant 0 : index
    %c0_48 = arith.constant 0 : index
    %c0_49 = arith.constant 0 : index
    %c0_50 = arith.constant 0 : index
    %c0_51 = arith.constant 0 : index
    %c0_52 = arith.constant 0 : index
    %c0_53 = arith.constant 0 : index
    %c0_54 = arith.constant 0 : index
    %c0_55 = arith.constant 0 : index
    %c0_56 = arith.constant 0 : index
    %c0_57 = arith.constant 0 : index
    %c0_58 = arith.constant 0 : index
    %c0_59 = arith.constant 0 : index
    %c0_60 = arith.constant 0 : index
    %c0_61 = arith.constant 0 : index
    %c0_62 = arith.constant 0 : index
    %c0_63 = arith.constant 0 : index
    %c0_64 = arith.constant 0 : index
    %c0_65 = arith.constant 0 : index
    %c0_66 = arith.constant 0 : index
    %c0_67 = arith.constant 0 : index
    %c0_68 = arith.constant 0 : index
    %c0_69 = arith.constant 0 : index
    %c0_70 = arith.constant 0 : index
    %c0_71 = arith.constant 0 : index
    %c0_72 = arith.constant 0 : index
    %c0_73 = arith.constant 0 : index
    %c0_74 = arith.constant 0 : index
    %c0_75 = arith.constant 0 : index
    %c0_76 = arith.constant 0 : index
    %c0_77 = arith.constant 0 : index
    %c0_78 = arith.constant 0 : index
    %c0_79 = arith.constant 0 : index
    %c0_80 = arith.constant 0 : index
    %c0_81 = arith.constant 0 : index
    %c0_82 = arith.constant 0 : index
    %c0_83 = arith.constant 0 : index
    %c0_84 = arith.constant 0 : index
    %c0_85 = arith.constant 0 : index
    %c0_86 = arith.constant 0 : index
    %c0_87 = arith.constant 0 : index
    %c0_88 = arith.constant 0 : index
    %c0_89 = arith.constant 0 : index
    %c0_90 = arith.constant 0 : index
    %c0_91 = arith.constant 0 : index
    %c0_92 = arith.constant 0 : index
    %c0_93 = arith.constant 0 : index
    %c0_94 = arith.constant 0 : index
    %c0_95 = arith.constant 0 : index
    %c0_96 = arith.constant 0 : index
    %c0_97 = arith.constant 0 : index
    %c0_98 = arith.constant 0 : index
    %c0_99 = arith.constant 0 : index
    %c0_100 = arith.constant 0 : index
    %c0_101 = arith.constant 0 : index
    %c0_102 = arith.constant 0 : index
    %c0_103 = arith.constant 0 : index
    %c0_104 = arith.constant 0 : index
    %c0_105 = arith.constant 0 : index
    %c0_106 = arith.constant 0 : index
    %c0_107 = arith.constant 0 : index
    %c0_108 = arith.constant 0 : index
    %c0_109 = arith.constant 0 : index
    %c0_110 = arith.constant 0 : index
    %c0_111 = arith.constant 0 : index
    %c0_112 = arith.constant 0 : index
    %c0_113 = arith.constant 0 : index
    %c0_114 = arith.constant 0 : index
    %c0_115 = arith.constant 0 : index
    %c0_116 = arith.constant 0 : index
    %c0_117 = arith.constant 0 : index
    %c0_118 = arith.constant 0 : index
    %c0_119 = arith.constant 0 : index
    %c0_120 = arith.constant 0 : index
    %c0_121 = arith.constant 0 : index
    %c0_122 = arith.constant 0 : index
    %c0_123 = arith.constant 0 : index
    %c0_124 = arith.constant 0 : index
    %c0_125 = arith.constant 0 : index
    %c0_126 = arith.constant 0 : index
    %c0_127 = arith.constant 0 : index
    %c0_128 = arith.constant 0 : index
    %c0_129 = arith.constant 0 : index
    %c0_130 = arith.constant 0 : index
    %c0_131 = arith.constant 0 : index
    %c0_132 = arith.constant 0 : index
    %c0_133 = arith.constant 0 : index
    %c0_134 = arith.constant 0 : index
    %c0_135 = arith.constant 0 : index
    %c0_136 = arith.constant 0 : index
    %c0_137 = arith.constant 0 : index
    %c0_138 = arith.constant 0 : index
    %c0_139 = arith.constant 0 : index
    %c0_140 = arith.constant 0 : index
    %c0_141 = arith.constant 0 : index
    %c0_142 = arith.constant 0 : index
    %c0_143 = arith.constant 0 : index
    %c0_144 = arith.constant 0 : index
    %c0_145 = arith.constant 0 : index
    %c0_146 = arith.constant 0 : index
    %c0_147 = arith.constant 0 : index
    %c0_148 = arith.constant 0 : index
    %c0_149 = arith.constant 0 : index
    %c0_150 = arith.constant 0 : index
    %c0_151 = arith.constant 0 : index
    %c0_152 = arith.constant 0 : index
    %c0_153 = arith.constant 0 : index
    %c0_154 = arith.constant 0 : index
    %c0_155 = arith.constant 0 : index
    %c0_156 = arith.constant 0 : index
    %c0_157 = arith.constant 0 : index
    %c0_158 = arith.constant 0 : index
    %c0_159 = arith.constant 0 : index
    %c0_160 = arith.constant 0 : index
    %c0_161 = arith.constant 0 : index
    %c0_162 = arith.constant 0 : index
    %c0_163 = arith.constant 0 : index
    %c0_164 = arith.constant 0 : index
    %c0_165 = arith.constant 0 : index
    %c0_166 = arith.constant 0 : index
    %c0_167 = arith.constant 0 : index
    %c0_168 = arith.constant 0 : index
    %c0_169 = arith.constant 0 : index
    %c0_170 = arith.constant 0 : index
    %c16_i8 = arith.constant 16 : i8
    %c0_i8 = arith.constant 0 : i8
    %c0_171 = arith.constant 0 : index
    %40 = memref.get_global @__constant_64x3x3x3xi8 : memref<64x3x3x3xi8>
    %41 = memref.get_global @__constant_64x64x3x3xi8 : memref<64x64x3x3xi8>
    %42 = memref.get_global @__constant_128x64x3x3xi8 : memref<128x64x3x3xi8>
    %43 = memref.get_global @__constant_128x64x1x1xi8 : memref<128x64x1x1xi8>
    %44 = memref.get_global @__constant_128x128x3x3xi8 : memref<128x128x3x3xi8>
    %45 = memref.get_global @__constant_256x128x3x3xi8 : memref<256x128x3x3xi8>
    %46 = memref.get_global @__constant_256x128x1x1xi8 : memref<256x128x1x1xi8>
    %47 = memref.get_global @__constant_256x256x3x3xi8 : memref<256x256x3x3xi8>
    %48 = memref.get_global @__constant_512x256x3x3xi8 : memref<512x256x3x3xi8>
    %49 = memref.get_global @__constant_512x256x1x1xi8 : memref<512x256x1x1xi8>
    %50 = memref.get_global @__constant_512x512x3x3xi8 : memref<512x512x3x3xi8>
    %51 = memref.get_global @__constant_10x512xi8 : memref<10x512xi8>
    %52 = memref.get_global @__constant_10xi8 : memref<10xi8>
    %53 = memref.alloca() : memref<1x3x34x34xi8>
    %54 = memref.alloca() : memref<1x3x34x34xi8>
    affine.for %arg2 = 0 to 3 {
      affine.for %arg3 = 0 to 34 {
        affine.store %c0_i8, %27[0, 0, 0, 0] : memref<1x1x1x1xi8>
        %137 = affine.load %27[0, 0, 0, 0] : memref<1x1x1x1xi8>
        affine.store %137, %54[%c0_169, %arg2, %arg3, %c0_41] : memref<1x3x34x34xi8>
        %138 = affine.apply #map0(%c0_41)
        affine.store %c0_i8, %27[0, 0, 0, 0] : memref<1x1x1x1xi8>
        %139 = affine.load %27[0, 0, 0, 0] : memref<1x1x1x1xi8>
        affine.store %139, %54[%c0_169, %arg2, %arg3, %138] : memref<1x3x34x34xi8>
        %140 = affine.apply #map1(%c0_41)
        affine.store %c0_i8, %27[0, 0, 0, 0] : memref<1x1x1x1xi8>
        %141 = affine.load %27[0, 0, 0, 0] : memref<1x1x1x1xi8>
        affine.store %141, %54[%c0_169, %arg2, %arg3, %140] : memref<1x3x34x34xi8>
        %142 = affine.apply #map2(%c0_41)
        affine.store %c0_i8, %27[0, 0, 0, 0] : memref<1x1x1x1xi8>
        %143 = affine.load %27[0, 0, 0, 0] : memref<1x1x1x1xi8>
        affine.store %143, %54[%c0_169, %arg2, %arg3, %142] : memref<1x3x34x34xi8>
        %144 = affine.apply #map3(%c0_41)
        affine.store %c0_i8, %27[0, 0, 0, 0] : memref<1x1x1x1xi8>
        %145 = affine.load %27[0, 0, 0, 0] : memref<1x1x1x1xi8>
        affine.store %145, %54[%c0_169, %arg2, %arg3, %144] : memref<1x3x34x34xi8>
        %146 = affine.apply #map4(%c0_41)
        affine.store %c0_i8, %27[0, 0, 0, 0] : memref<1x1x1x1xi8>
        %147 = affine.load %27[0, 0, 0, 0] : memref<1x1x1x1xi8>
        affine.store %147, %54[%c0_169, %arg2, %arg3, %146] : memref<1x3x34x34xi8>
        %148 = affine.apply #map5(%c0_41)
        affine.store %c0_i8, %27[0, 0, 0, 0] : memref<1x1x1x1xi8>
        %149 = affine.load %27[0, 0, 0, 0] : memref<1x1x1x1xi8>
        affine.store %149, %54[%c0_169, %arg2, %arg3, %148] : memref<1x3x34x34xi8>
        %150 = affine.apply #map6(%c0_41)
        affine.store %c0_i8, %27[0, 0, 0, 0] : memref<1x1x1x1xi8>
        %151 = affine.load %27[0, 0, 0, 0] : memref<1x1x1x1xi8>
        affine.store %151, %54[%c0_169, %arg2, %arg3, %150] : memref<1x3x34x34xi8>
        %152 = affine.apply #map7(%c0_41)
        affine.store %c0_i8, %27[0, 0, 0, 0] : memref<1x1x1x1xi8>
        %153 = affine.load %27[0, 0, 0, 0] : memref<1x1x1x1xi8>
        affine.store %153, %54[%c0_169, %arg2, %arg3, %152] : memref<1x3x34x34xi8>
        %154 = affine.apply #map8(%c0_41)
        affine.store %c0_i8, %27[0, 0, 0, 0] : memref<1x1x1x1xi8>
        %155 = affine.load %27[0, 0, 0, 0] : memref<1x1x1x1xi8>
        affine.store %155, %54[%c0_169, %arg2, %arg3, %154] : memref<1x3x34x34xi8>
        %156 = affine.apply #map9(%c0_41)
        affine.store %c0_i8, %27[0, 0, 0, 0] : memref<1x1x1x1xi8>
        %157 = affine.load %27[0, 0, 0, 0] : memref<1x1x1x1xi8>
        affine.store %157, %54[%c0_169, %arg2, %arg3, %156] : memref<1x3x34x34xi8>
        %158 = affine.apply #map10(%c0_41)
        affine.store %c0_i8, %27[0, 0, 0, 0] : memref<1x1x1x1xi8>
        %159 = affine.load %27[0, 0, 0, 0] : memref<1x1x1x1xi8>
        affine.store %159, %54[%c0_169, %arg2, %arg3, %158] : memref<1x3x34x34xi8>
        %160 = affine.apply #map11(%c0_41)
        affine.store %c0_i8, %27[0, 0, 0, 0] : memref<1x1x1x1xi8>
        %161 = affine.load %27[0, 0, 0, 0] : memref<1x1x1x1xi8>
        affine.store %161, %54[%c0_169, %arg2, %arg3, %160] : memref<1x3x34x34xi8>
        %162 = affine.apply #map12(%c0_41)
        affine.store %c0_i8, %27[0, 0, 0, 0] : memref<1x1x1x1xi8>
        %163 = affine.load %27[0, 0, 0, 0] : memref<1x1x1x1xi8>
        affine.store %163, %54[%c0_169, %arg2, %arg3, %162] : memref<1x3x34x34xi8>
        %164 = affine.apply #map13(%c0_41)
        affine.store %c0_i8, %27[0, 0, 0, 0] : memref<1x1x1x1xi8>
        %165 = affine.load %27[0, 0, 0, 0] : memref<1x1x1x1xi8>
        affine.store %165, %54[%c0_169, %arg2, %arg3, %164] : memref<1x3x34x34xi8>
        %166 = affine.apply #map14(%c0_41)
        affine.store %c0_i8, %27[0, 0, 0, 0] : memref<1x1x1x1xi8>
        %167 = affine.load %27[0, 0, 0, 0] : memref<1x1x1x1xi8>
        affine.store %167, %54[%c0_169, %arg2, %arg3, %166] : memref<1x3x34x34xi8>
        %168 = affine.apply #map15(%c0_41)
        affine.store %c0_i8, %27[0, 0, 0, 0] : memref<1x1x1x1xi8>
        %169 = affine.load %27[0, 0, 0, 0] : memref<1x1x1x1xi8>
        affine.store %169, %54[%c0_169, %arg2, %arg3, %168] : memref<1x3x34x34xi8>
        %170 = affine.apply #map16(%c0_41)
        affine.store %c0_i8, %27[0, 0, 0, 0] : memref<1x1x1x1xi8>
        %171 = affine.load %27[0, 0, 0, 0] : memref<1x1x1x1xi8>
        affine.store %171, %54[%c0_169, %arg2, %arg3, %170] : memref<1x3x34x34xi8>
        %172 = affine.apply #map17(%c0_41)
        affine.store %c0_i8, %27[0, 0, 0, 0] : memref<1x1x1x1xi8>
        %173 = affine.load %27[0, 0, 0, 0] : memref<1x1x1x1xi8>
        affine.store %173, %54[%c0_169, %arg2, %arg3, %172] : memref<1x3x34x34xi8>
        %174 = affine.apply #map18(%c0_41)
        affine.store %c0_i8, %27[0, 0, 0, 0] : memref<1x1x1x1xi8>
        %175 = affine.load %27[0, 0, 0, 0] : memref<1x1x1x1xi8>
        affine.store %175, %54[%c0_169, %arg2, %arg3, %174] : memref<1x3x34x34xi8>
        %176 = affine.apply #map19(%c0_41)
        affine.store %c0_i8, %27[0, 0, 0, 0] : memref<1x1x1x1xi8>
        %177 = affine.load %27[0, 0, 0, 0] : memref<1x1x1x1xi8>
        affine.store %177, %54[%c0_169, %arg2, %arg3, %176] : memref<1x3x34x34xi8>
        %178 = affine.apply #map20(%c0_41)
        affine.store %c0_i8, %27[0, 0, 0, 0] : memref<1x1x1x1xi8>
        %179 = affine.load %27[0, 0, 0, 0] : memref<1x1x1x1xi8>
        affine.store %179, %54[%c0_169, %arg2, %arg3, %178] : memref<1x3x34x34xi8>
        %180 = affine.apply #map21(%c0_41)
        affine.store %c0_i8, %27[0, 0, 0, 0] : memref<1x1x1x1xi8>
        %181 = affine.load %27[0, 0, 0, 0] : memref<1x1x1x1xi8>
        affine.store %181, %54[%c0_169, %arg2, %arg3, %180] : memref<1x3x34x34xi8>
        %182 = affine.apply #map22(%c0_41)
        affine.store %c0_i8, %27[0, 0, 0, 0] : memref<1x1x1x1xi8>
        %183 = affine.load %27[0, 0, 0, 0] : memref<1x1x1x1xi8>
        affine.store %183, %54[%c0_169, %arg2, %arg3, %182] : memref<1x3x34x34xi8>
        %184 = affine.apply #map23(%c0_41)
        affine.store %c0_i8, %27[0, 0, 0, 0] : memref<1x1x1x1xi8>
        %185 = affine.load %27[0, 0, 0, 0] : memref<1x1x1x1xi8>
        affine.store %185, %54[%c0_169, %arg2, %arg3, %184] : memref<1x3x34x34xi8>
        %186 = affine.apply #map24(%c0_41)
        affine.store %c0_i8, %27[0, 0, 0, 0] : memref<1x1x1x1xi8>
        %187 = affine.load %27[0, 0, 0, 0] : memref<1x1x1x1xi8>
        affine.store %187, %54[%c0_169, %arg2, %arg3, %186] : memref<1x3x34x34xi8>
        %188 = affine.apply #map25(%c0_41)
        affine.store %c0_i8, %27[0, 0, 0, 0] : memref<1x1x1x1xi8>
        %189 = affine.load %27[0, 0, 0, 0] : memref<1x1x1x1xi8>
        affine.store %189, %54[%c0_169, %arg2, %arg3, %188] : memref<1x3x34x34xi8>
        %190 = affine.apply #map26(%c0_41)
        affine.store %c0_i8, %27[0, 0, 0, 0] : memref<1x1x1x1xi8>
        %191 = affine.load %27[0, 0, 0, 0] : memref<1x1x1x1xi8>
        affine.store %191, %54[%c0_169, %arg2, %arg3, %190] : memref<1x3x34x34xi8>
        %192 = affine.apply #map27(%c0_41)
        affine.store %c0_i8, %27[0, 0, 0, 0] : memref<1x1x1x1xi8>
        %193 = affine.load %27[0, 0, 0, 0] : memref<1x1x1x1xi8>
        affine.store %193, %54[%c0_169, %arg2, %arg3, %192] : memref<1x3x34x34xi8>
        %194 = affine.apply #map28(%c0_41)
        affine.store %c0_i8, %27[0, 0, 0, 0] : memref<1x1x1x1xi8>
        %195 = affine.load %27[0, 0, 0, 0] : memref<1x1x1x1xi8>
        affine.store %195, %54[%c0_169, %arg2, %arg3, %194] : memref<1x3x34x34xi8>
        %196 = affine.apply #map29(%c0_41)
        affine.store %c0_i8, %27[0, 0, 0, 0] : memref<1x1x1x1xi8>
        %197 = affine.load %27[0, 0, 0, 0] : memref<1x1x1x1xi8>
        affine.store %197, %54[%c0_169, %arg2, %arg3, %196] : memref<1x3x34x34xi8>
        %198 = affine.apply #map30(%c0_41)
        affine.store %c0_i8, %27[0, 0, 0, 0] : memref<1x1x1x1xi8>
        %199 = affine.load %27[0, 0, 0, 0] : memref<1x1x1x1xi8>
        affine.store %199, %54[%c0_169, %arg2, %arg3, %198] : memref<1x3x34x34xi8>
        %200 = affine.apply #map31(%c0_41)
        affine.store %c0_i8, %27[0, 0, 0, 0] : memref<1x1x1x1xi8>
        %201 = affine.load %27[0, 0, 0, 0] : memref<1x1x1x1xi8>
        affine.store %201, %54[%c0_169, %arg2, %arg3, %200] : memref<1x3x34x34xi8>
        %202 = affine.apply #map32(%c0_41)
        affine.store %c0_i8, %27[0, 0, 0, 0] : memref<1x1x1x1xi8>
        %203 = affine.load %27[0, 0, 0, 0] : memref<1x1x1x1xi8>
        affine.store %203, %54[%c0_169, %arg2, %arg3, %202] : memref<1x3x34x34xi8>
      }
    }
    %55 = memref.subview %54[0, 0, 1, 1] [1, 3, 32, 32] [1, 1, 1, 1] : memref<1x3x34x34xi8> to memref<1x3x32x32xi8, #map33>
    affine.for %arg2 = 0 to 3 {
      affine.for %arg3 = 0 to 32 {
        %137 = affine.load %arg0[%c0_168, %arg2, %arg3, %c0_40] : memref<1x3x32x32xi8>
        affine.store %137, %55[%c0_168, %arg2, %arg3, %c0_40] : memref<1x3x32x32xi8, #map33>
        %138 = affine.apply #map0(%c0_40)
        %139 = affine.load %arg0[%c0_168, %arg2, %arg3, %138] : memref<1x3x32x32xi8>
        affine.store %139, %55[%c0_168, %arg2, %arg3, %138] : memref<1x3x32x32xi8, #map33>
        %140 = affine.apply #map1(%c0_40)
        %141 = affine.load %arg0[%c0_168, %arg2, %arg3, %140] : memref<1x3x32x32xi8>
        affine.store %141, %55[%c0_168, %arg2, %arg3, %140] : memref<1x3x32x32xi8, #map33>
        %142 = affine.apply #map2(%c0_40)
        %143 = affine.load %arg0[%c0_168, %arg2, %arg3, %142] : memref<1x3x32x32xi8>
        affine.store %143, %55[%c0_168, %arg2, %arg3, %142] : memref<1x3x32x32xi8, #map33>
        %144 = affine.apply #map3(%c0_40)
        %145 = affine.load %arg0[%c0_168, %arg2, %arg3, %144] : memref<1x3x32x32xi8>
        affine.store %145, %55[%c0_168, %arg2, %arg3, %144] : memref<1x3x32x32xi8, #map33>
        %146 = affine.apply #map4(%c0_40)
        %147 = affine.load %arg0[%c0_168, %arg2, %arg3, %146] : memref<1x3x32x32xi8>
        affine.store %147, %55[%c0_168, %arg2, %arg3, %146] : memref<1x3x32x32xi8, #map33>
        %148 = affine.apply #map5(%c0_40)
        %149 = affine.load %arg0[%c0_168, %arg2, %arg3, %148] : memref<1x3x32x32xi8>
        affine.store %149, %55[%c0_168, %arg2, %arg3, %148] : memref<1x3x32x32xi8, #map33>
        %150 = affine.apply #map6(%c0_40)
        %151 = affine.load %arg0[%c0_168, %arg2, %arg3, %150] : memref<1x3x32x32xi8>
        affine.store %151, %55[%c0_168, %arg2, %arg3, %150] : memref<1x3x32x32xi8, #map33>
        %152 = affine.apply #map7(%c0_40)
        %153 = affine.load %arg0[%c0_168, %arg2, %arg3, %152] : memref<1x3x32x32xi8>
        affine.store %153, %55[%c0_168, %arg2, %arg3, %152] : memref<1x3x32x32xi8, #map33>
        %154 = affine.apply #map8(%c0_40)
        %155 = affine.load %arg0[%c0_168, %arg2, %arg3, %154] : memref<1x3x32x32xi8>
        affine.store %155, %55[%c0_168, %arg2, %arg3, %154] : memref<1x3x32x32xi8, #map33>
        %156 = affine.apply #map9(%c0_40)
        %157 = affine.load %arg0[%c0_168, %arg2, %arg3, %156] : memref<1x3x32x32xi8>
        affine.store %157, %55[%c0_168, %arg2, %arg3, %156] : memref<1x3x32x32xi8, #map33>
        %158 = affine.apply #map10(%c0_40)
        %159 = affine.load %arg0[%c0_168, %arg2, %arg3, %158] : memref<1x3x32x32xi8>
        affine.store %159, %55[%c0_168, %arg2, %arg3, %158] : memref<1x3x32x32xi8, #map33>
        %160 = affine.apply #map11(%c0_40)
        %161 = affine.load %arg0[%c0_168, %arg2, %arg3, %160] : memref<1x3x32x32xi8>
        affine.store %161, %55[%c0_168, %arg2, %arg3, %160] : memref<1x3x32x32xi8, #map33>
        %162 = affine.apply #map12(%c0_40)
        %163 = affine.load %arg0[%c0_168, %arg2, %arg3, %162] : memref<1x3x32x32xi8>
        affine.store %163, %55[%c0_168, %arg2, %arg3, %162] : memref<1x3x32x32xi8, #map33>
        %164 = affine.apply #map13(%c0_40)
        %165 = affine.load %arg0[%c0_168, %arg2, %arg3, %164] : memref<1x3x32x32xi8>
        affine.store %165, %55[%c0_168, %arg2, %arg3, %164] : memref<1x3x32x32xi8, #map33>
        %166 = affine.apply #map14(%c0_40)
        %167 = affine.load %arg0[%c0_168, %arg2, %arg3, %166] : memref<1x3x32x32xi8>
        affine.store %167, %55[%c0_168, %arg2, %arg3, %166] : memref<1x3x32x32xi8, #map33>
        %168 = affine.apply #map15(%c0_40)
        %169 = affine.load %arg0[%c0_168, %arg2, %arg3, %168] : memref<1x3x32x32xi8>
        affine.store %169, %55[%c0_168, %arg2, %arg3, %168] : memref<1x3x32x32xi8, #map33>
        %170 = affine.apply #map16(%c0_40)
        %171 = affine.load %arg0[%c0_168, %arg2, %arg3, %170] : memref<1x3x32x32xi8>
        affine.store %171, %55[%c0_168, %arg2, %arg3, %170] : memref<1x3x32x32xi8, #map33>
        %172 = affine.apply #map17(%c0_40)
        %173 = affine.load %arg0[%c0_168, %arg2, %arg3, %172] : memref<1x3x32x32xi8>
        affine.store %173, %55[%c0_168, %arg2, %arg3, %172] : memref<1x3x32x32xi8, #map33>
        %174 = affine.apply #map18(%c0_40)
        %175 = affine.load %arg0[%c0_168, %arg2, %arg3, %174] : memref<1x3x32x32xi8>
        affine.store %175, %55[%c0_168, %arg2, %arg3, %174] : memref<1x3x32x32xi8, #map33>
        %176 = affine.apply #map19(%c0_40)
        %177 = affine.load %arg0[%c0_168, %arg2, %arg3, %176] : memref<1x3x32x32xi8>
        affine.store %177, %55[%c0_168, %arg2, %arg3, %176] : memref<1x3x32x32xi8, #map33>
        %178 = affine.apply #map20(%c0_40)
        %179 = affine.load %arg0[%c0_168, %arg2, %arg3, %178] : memref<1x3x32x32xi8>
        affine.store %179, %55[%c0_168, %arg2, %arg3, %178] : memref<1x3x32x32xi8, #map33>
        %180 = affine.apply #map21(%c0_40)
        %181 = affine.load %arg0[%c0_168, %arg2, %arg3, %180] : memref<1x3x32x32xi8>
        affine.store %181, %55[%c0_168, %arg2, %arg3, %180] : memref<1x3x32x32xi8, #map33>
        %182 = affine.apply #map22(%c0_40)
        %183 = affine.load %arg0[%c0_168, %arg2, %arg3, %182] : memref<1x3x32x32xi8>
        affine.store %183, %55[%c0_168, %arg2, %arg3, %182] : memref<1x3x32x32xi8, #map33>
        %184 = affine.apply #map23(%c0_40)
        %185 = affine.load %arg0[%c0_168, %arg2, %arg3, %184] : memref<1x3x32x32xi8>
        affine.store %185, %55[%c0_168, %arg2, %arg3, %184] : memref<1x3x32x32xi8, #map33>
        %186 = affine.apply #map24(%c0_40)
        %187 = affine.load %arg0[%c0_168, %arg2, %arg3, %186] : memref<1x3x32x32xi8>
        affine.store %187, %55[%c0_168, %arg2, %arg3, %186] : memref<1x3x32x32xi8, #map33>
        %188 = affine.apply #map25(%c0_40)
        %189 = affine.load %arg0[%c0_168, %arg2, %arg3, %188] : memref<1x3x32x32xi8>
        affine.store %189, %55[%c0_168, %arg2, %arg3, %188] : memref<1x3x32x32xi8, #map33>
        %190 = affine.apply #map26(%c0_40)
        %191 = affine.load %arg0[%c0_168, %arg2, %arg3, %190] : memref<1x3x32x32xi8>
        affine.store %191, %55[%c0_168, %arg2, %arg3, %190] : memref<1x3x32x32xi8, #map33>
        %192 = affine.apply #map27(%c0_40)
        %193 = affine.load %arg0[%c0_168, %arg2, %arg3, %192] : memref<1x3x32x32xi8>
        affine.store %193, %55[%c0_168, %arg2, %arg3, %192] : memref<1x3x32x32xi8, #map33>
        %194 = affine.apply #map28(%c0_40)
        %195 = affine.load %arg0[%c0_168, %arg2, %arg3, %194] : memref<1x3x32x32xi8>
        affine.store %195, %55[%c0_168, %arg2, %arg3, %194] : memref<1x3x32x32xi8, #map33>
        %196 = affine.apply #map29(%c0_40)
        %197 = affine.load %arg0[%c0_168, %arg2, %arg3, %196] : memref<1x3x32x32xi8>
        affine.store %197, %55[%c0_168, %arg2, %arg3, %196] : memref<1x3x32x32xi8, #map33>
        %198 = affine.apply #map30(%c0_40)
        %199 = affine.load %arg0[%c0_168, %arg2, %arg3, %198] : memref<1x3x32x32xi8>
        affine.store %199, %55[%c0_168, %arg2, %arg3, %198] : memref<1x3x32x32xi8, #map33>
      }
    }
    %56 = memref.alloca() : memref<1x64x32x32xi8>
    %57 = memref.alloca() : memref<1x64x32x32xi8>
    affine.for %arg2 = 0 to 64 {
      affine.for %arg3 = 0 to 32 {
        affine.for %arg4 = 0 to 32 {
          affine.store %c0_i8, %56[%c0_167, %arg2, %arg3, %arg4] : memref<1x64x32x32xi8>
          affine.for %arg5 = 0 to 3 {
            affine.for %arg6 = 0 to 3 {
              %140 = affine.apply #map34(%arg3, %arg6)
              %141 = affine.apply #map34(%arg4, %c0_39)
              %142 = affine.load %54[%c0_166, %arg5, %140, %141] : memref<1x3x34x34xi8>
              %143 = affine.load %40[%arg2, %arg5, %arg6, %c0_39] : memref<64x3x3x3xi8>
              %144 = affine.load %56[%c0_166, %arg2, %arg3, %arg4] : memref<1x64x32x32xi8>
              %145 = arith.muli %142, %143 : i8
              %146 = arith.addi %144, %145 : i8
              affine.store %146, %56[%c0_166, %arg2, %arg3, %arg4] : memref<1x64x32x32xi8>
              %147 = affine.apply #map0(%c0_39)
              %148 = affine.apply #map34(%arg4, %147)
              %149 = affine.load %54[%c0_166, %arg5, %140, %148] : memref<1x3x34x34xi8>
              %150 = affine.load %40[%arg2, %arg5, %arg6, %147] : memref<64x3x3x3xi8>
              %151 = affine.load %56[%c0_166, %arg2, %arg3, %arg4] : memref<1x64x32x32xi8>
              %152 = arith.muli %149, %150 : i8
              %153 = arith.addi %151, %152 : i8
              affine.store %153, %56[%c0_166, %arg2, %arg3, %arg4] : memref<1x64x32x32xi8>
              %154 = affine.apply #map1(%c0_39)
              %155 = affine.apply #map34(%arg4, %154)
              %156 = affine.load %54[%c0_166, %arg5, %140, %155] : memref<1x3x34x34xi8>
              %157 = affine.load %40[%arg2, %arg5, %arg6, %154] : memref<64x3x3x3xi8>
              %158 = affine.load %56[%c0_166, %arg2, %arg3, %arg4] : memref<1x64x32x32xi8>
              %159 = arith.muli %156, %157 : i8
              %160 = arith.addi %158, %159 : i8
              affine.store %160, %56[%c0_166, %arg2, %arg3, %arg4] : memref<1x64x32x32xi8>
            }
          }
          %137 = affine.load %56[%c0_171, %arg2, %arg3, %arg4] : memref<1x64x32x32xi8>
          %138 = arith.cmpi ugt, %137, %c0_i8 : i8
          %139 = arith.select %138, %137, %c0_i8 : i8
          affine.store %139, %57[%c0_165, %arg2, %arg3, %arg4] : memref<1x64x32x32xi8>
        }
      }
    }
    %58 = memref.alloca() : memref<1x64x34x34xi8>
    %59 = memref.alloca() : memref<1x64x34x34xi8>
    affine.for %arg2 = 0 to 64 {
      affine.for %arg3 = 0 to 34 {
        affine.store %c0_i8, %22[0, 0, 0, 0] : memref<1x1x1x1xi8>
        %137 = affine.load %22[0, 0, 0, 0] : memref<1x1x1x1xi8>
        affine.store %137, %59[%c0_163, %arg2, %arg3, %c0_38] : memref<1x64x34x34xi8>
        %138 = affine.apply #map0(%c0_38)
        affine.store %c0_i8, %22[0, 0, 0, 0] : memref<1x1x1x1xi8>
        %139 = affine.load %22[0, 0, 0, 0] : memref<1x1x1x1xi8>
        affine.store %139, %59[%c0_163, %arg2, %arg3, %138] : memref<1x64x34x34xi8>
        %140 = affine.apply #map1(%c0_38)
        affine.store %c0_i8, %22[0, 0, 0, 0] : memref<1x1x1x1xi8>
        %141 = affine.load %22[0, 0, 0, 0] : memref<1x1x1x1xi8>
        affine.store %141, %59[%c0_163, %arg2, %arg3, %140] : memref<1x64x34x34xi8>
        %142 = affine.apply #map2(%c0_38)
        affine.store %c0_i8, %22[0, 0, 0, 0] : memref<1x1x1x1xi8>
        %143 = affine.load %22[0, 0, 0, 0] : memref<1x1x1x1xi8>
        affine.store %143, %59[%c0_163, %arg2, %arg3, %142] : memref<1x64x34x34xi8>
        %144 = affine.apply #map3(%c0_38)
        affine.store %c0_i8, %22[0, 0, 0, 0] : memref<1x1x1x1xi8>
        %145 = affine.load %22[0, 0, 0, 0] : memref<1x1x1x1xi8>
        affine.store %145, %59[%c0_163, %arg2, %arg3, %144] : memref<1x64x34x34xi8>
        %146 = affine.apply #map4(%c0_38)
        affine.store %c0_i8, %22[0, 0, 0, 0] : memref<1x1x1x1xi8>
        %147 = affine.load %22[0, 0, 0, 0] : memref<1x1x1x1xi8>
        affine.store %147, %59[%c0_163, %arg2, %arg3, %146] : memref<1x64x34x34xi8>
        %148 = affine.apply #map5(%c0_38)
        affine.store %c0_i8, %22[0, 0, 0, 0] : memref<1x1x1x1xi8>
        %149 = affine.load %22[0, 0, 0, 0] : memref<1x1x1x1xi8>
        affine.store %149, %59[%c0_163, %arg2, %arg3, %148] : memref<1x64x34x34xi8>
        %150 = affine.apply #map6(%c0_38)
        affine.store %c0_i8, %22[0, 0, 0, 0] : memref<1x1x1x1xi8>
        %151 = affine.load %22[0, 0, 0, 0] : memref<1x1x1x1xi8>
        affine.store %151, %59[%c0_163, %arg2, %arg3, %150] : memref<1x64x34x34xi8>
        %152 = affine.apply #map7(%c0_38)
        affine.store %c0_i8, %22[0, 0, 0, 0] : memref<1x1x1x1xi8>
        %153 = affine.load %22[0, 0, 0, 0] : memref<1x1x1x1xi8>
        affine.store %153, %59[%c0_163, %arg2, %arg3, %152] : memref<1x64x34x34xi8>
        %154 = affine.apply #map8(%c0_38)
        affine.store %c0_i8, %22[0, 0, 0, 0] : memref<1x1x1x1xi8>
        %155 = affine.load %22[0, 0, 0, 0] : memref<1x1x1x1xi8>
        affine.store %155, %59[%c0_163, %arg2, %arg3, %154] : memref<1x64x34x34xi8>
        %156 = affine.apply #map9(%c0_38)
        affine.store %c0_i8, %22[0, 0, 0, 0] : memref<1x1x1x1xi8>
        %157 = affine.load %22[0, 0, 0, 0] : memref<1x1x1x1xi8>
        affine.store %157, %59[%c0_163, %arg2, %arg3, %156] : memref<1x64x34x34xi8>
        %158 = affine.apply #map10(%c0_38)
        affine.store %c0_i8, %22[0, 0, 0, 0] : memref<1x1x1x1xi8>
        %159 = affine.load %22[0, 0, 0, 0] : memref<1x1x1x1xi8>
        affine.store %159, %59[%c0_163, %arg2, %arg3, %158] : memref<1x64x34x34xi8>
        %160 = affine.apply #map11(%c0_38)
        affine.store %c0_i8, %22[0, 0, 0, 0] : memref<1x1x1x1xi8>
        %161 = affine.load %22[0, 0, 0, 0] : memref<1x1x1x1xi8>
        affine.store %161, %59[%c0_163, %arg2, %arg3, %160] : memref<1x64x34x34xi8>
        %162 = affine.apply #map12(%c0_38)
        affine.store %c0_i8, %22[0, 0, 0, 0] : memref<1x1x1x1xi8>
        %163 = affine.load %22[0, 0, 0, 0] : memref<1x1x1x1xi8>
        affine.store %163, %59[%c0_163, %arg2, %arg3, %162] : memref<1x64x34x34xi8>
        %164 = affine.apply #map13(%c0_38)
        affine.store %c0_i8, %22[0, 0, 0, 0] : memref<1x1x1x1xi8>
        %165 = affine.load %22[0, 0, 0, 0] : memref<1x1x1x1xi8>
        affine.store %165, %59[%c0_163, %arg2, %arg3, %164] : memref<1x64x34x34xi8>
        %166 = affine.apply #map14(%c0_38)
        affine.store %c0_i8, %22[0, 0, 0, 0] : memref<1x1x1x1xi8>
        %167 = affine.load %22[0, 0, 0, 0] : memref<1x1x1x1xi8>
        affine.store %167, %59[%c0_163, %arg2, %arg3, %166] : memref<1x64x34x34xi8>
        %168 = affine.apply #map15(%c0_38)
        affine.store %c0_i8, %22[0, 0, 0, 0] : memref<1x1x1x1xi8>
        %169 = affine.load %22[0, 0, 0, 0] : memref<1x1x1x1xi8>
        affine.store %169, %59[%c0_163, %arg2, %arg3, %168] : memref<1x64x34x34xi8>
        %170 = affine.apply #map16(%c0_38)
        affine.store %c0_i8, %22[0, 0, 0, 0] : memref<1x1x1x1xi8>
        %171 = affine.load %22[0, 0, 0, 0] : memref<1x1x1x1xi8>
        affine.store %171, %59[%c0_163, %arg2, %arg3, %170] : memref<1x64x34x34xi8>
        %172 = affine.apply #map17(%c0_38)
        affine.store %c0_i8, %22[0, 0, 0, 0] : memref<1x1x1x1xi8>
        %173 = affine.load %22[0, 0, 0, 0] : memref<1x1x1x1xi8>
        affine.store %173, %59[%c0_163, %arg2, %arg3, %172] : memref<1x64x34x34xi8>
        %174 = affine.apply #map18(%c0_38)
        affine.store %c0_i8, %22[0, 0, 0, 0] : memref<1x1x1x1xi8>
        %175 = affine.load %22[0, 0, 0, 0] : memref<1x1x1x1xi8>
        affine.store %175, %59[%c0_163, %arg2, %arg3, %174] : memref<1x64x34x34xi8>
        %176 = affine.apply #map19(%c0_38)
        affine.store %c0_i8, %22[0, 0, 0, 0] : memref<1x1x1x1xi8>
        %177 = affine.load %22[0, 0, 0, 0] : memref<1x1x1x1xi8>
        affine.store %177, %59[%c0_163, %arg2, %arg3, %176] : memref<1x64x34x34xi8>
        %178 = affine.apply #map20(%c0_38)
        affine.store %c0_i8, %22[0, 0, 0, 0] : memref<1x1x1x1xi8>
        %179 = affine.load %22[0, 0, 0, 0] : memref<1x1x1x1xi8>
        affine.store %179, %59[%c0_163, %arg2, %arg3, %178] : memref<1x64x34x34xi8>
        %180 = affine.apply #map21(%c0_38)
        affine.store %c0_i8, %22[0, 0, 0, 0] : memref<1x1x1x1xi8>
        %181 = affine.load %22[0, 0, 0, 0] : memref<1x1x1x1xi8>
        affine.store %181, %59[%c0_163, %arg2, %arg3, %180] : memref<1x64x34x34xi8>
        %182 = affine.apply #map22(%c0_38)
        affine.store %c0_i8, %22[0, 0, 0, 0] : memref<1x1x1x1xi8>
        %183 = affine.load %22[0, 0, 0, 0] : memref<1x1x1x1xi8>
        affine.store %183, %59[%c0_163, %arg2, %arg3, %182] : memref<1x64x34x34xi8>
        %184 = affine.apply #map23(%c0_38)
        affine.store %c0_i8, %22[0, 0, 0, 0] : memref<1x1x1x1xi8>
        %185 = affine.load %22[0, 0, 0, 0] : memref<1x1x1x1xi8>
        affine.store %185, %59[%c0_163, %arg2, %arg3, %184] : memref<1x64x34x34xi8>
        %186 = affine.apply #map24(%c0_38)
        affine.store %c0_i8, %22[0, 0, 0, 0] : memref<1x1x1x1xi8>
        %187 = affine.load %22[0, 0, 0, 0] : memref<1x1x1x1xi8>
        affine.store %187, %59[%c0_163, %arg2, %arg3, %186] : memref<1x64x34x34xi8>
        %188 = affine.apply #map25(%c0_38)
        affine.store %c0_i8, %22[0, 0, 0, 0] : memref<1x1x1x1xi8>
        %189 = affine.load %22[0, 0, 0, 0] : memref<1x1x1x1xi8>
        affine.store %189, %59[%c0_163, %arg2, %arg3, %188] : memref<1x64x34x34xi8>
        %190 = affine.apply #map26(%c0_38)
        affine.store %c0_i8, %22[0, 0, 0, 0] : memref<1x1x1x1xi8>
        %191 = affine.load %22[0, 0, 0, 0] : memref<1x1x1x1xi8>
        affine.store %191, %59[%c0_163, %arg2, %arg3, %190] : memref<1x64x34x34xi8>
        %192 = affine.apply #map27(%c0_38)
        affine.store %c0_i8, %22[0, 0, 0, 0] : memref<1x1x1x1xi8>
        %193 = affine.load %22[0, 0, 0, 0] : memref<1x1x1x1xi8>
        affine.store %193, %59[%c0_163, %arg2, %arg3, %192] : memref<1x64x34x34xi8>
        %194 = affine.apply #map28(%c0_38)
        affine.store %c0_i8, %22[0, 0, 0, 0] : memref<1x1x1x1xi8>
        %195 = affine.load %22[0, 0, 0, 0] : memref<1x1x1x1xi8>
        affine.store %195, %59[%c0_163, %arg2, %arg3, %194] : memref<1x64x34x34xi8>
        %196 = affine.apply #map29(%c0_38)
        affine.store %c0_i8, %22[0, 0, 0, 0] : memref<1x1x1x1xi8>
        %197 = affine.load %22[0, 0, 0, 0] : memref<1x1x1x1xi8>
        affine.store %197, %59[%c0_163, %arg2, %arg3, %196] : memref<1x64x34x34xi8>
        %198 = affine.apply #map30(%c0_38)
        affine.store %c0_i8, %22[0, 0, 0, 0] : memref<1x1x1x1xi8>
        %199 = affine.load %22[0, 0, 0, 0] : memref<1x1x1x1xi8>
        affine.store %199, %59[%c0_163, %arg2, %arg3, %198] : memref<1x64x34x34xi8>
        %200 = affine.apply #map31(%c0_38)
        affine.store %c0_i8, %22[0, 0, 0, 0] : memref<1x1x1x1xi8>
        %201 = affine.load %22[0, 0, 0, 0] : memref<1x1x1x1xi8>
        affine.store %201, %59[%c0_163, %arg2, %arg3, %200] : memref<1x64x34x34xi8>
        %202 = affine.apply #map32(%c0_38)
        affine.store %c0_i8, %22[0, 0, 0, 0] : memref<1x1x1x1xi8>
        %203 = affine.load %22[0, 0, 0, 0] : memref<1x1x1x1xi8>
        affine.store %203, %59[%c0_163, %arg2, %arg3, %202] : memref<1x64x34x34xi8>
      }
    }
    %60 = memref.subview %59[0, 0, 1, 1] [1, 64, 32, 32] [1, 1, 1, 1] : memref<1x64x34x34xi8> to memref<1x64x32x32xi8, #map35>
    %61 = memref.alloca() : memref<1x64x32x32xi8>
    %62 = memref.alloca() : memref<1x64x34x34xi8>
    %63 = memref.alloca() : memref<1x64x34x34xi8>
    affine.for %arg2 = 0 to 64 {
      affine.for %arg3 = 0 to 34 {
        affine.store %c0_i8, %11[0, 0, 0, 0] : memref<1x1x1x1xi8>
        %137 = affine.load %11[0, 0, 0, 0] : memref<1x1x1x1xi8>
        affine.store %137, %63[%c0_157, %arg2, %arg3, %c0_37] : memref<1x64x34x34xi8>
        %138 = affine.apply #map0(%c0_37)
        affine.store %c0_i8, %11[0, 0, 0, 0] : memref<1x1x1x1xi8>
        %139 = affine.load %11[0, 0, 0, 0] : memref<1x1x1x1xi8>
        affine.store %139, %63[%c0_157, %arg2, %arg3, %138] : memref<1x64x34x34xi8>
        %140 = affine.apply #map1(%c0_37)
        affine.store %c0_i8, %11[0, 0, 0, 0] : memref<1x1x1x1xi8>
        %141 = affine.load %11[0, 0, 0, 0] : memref<1x1x1x1xi8>
        affine.store %141, %63[%c0_157, %arg2, %arg3, %140] : memref<1x64x34x34xi8>
        %142 = affine.apply #map2(%c0_37)
        affine.store %c0_i8, %11[0, 0, 0, 0] : memref<1x1x1x1xi8>
        %143 = affine.load %11[0, 0, 0, 0] : memref<1x1x1x1xi8>
        affine.store %143, %63[%c0_157, %arg2, %arg3, %142] : memref<1x64x34x34xi8>
        %144 = affine.apply #map3(%c0_37)
        affine.store %c0_i8, %11[0, 0, 0, 0] : memref<1x1x1x1xi8>
        %145 = affine.load %11[0, 0, 0, 0] : memref<1x1x1x1xi8>
        affine.store %145, %63[%c0_157, %arg2, %arg3, %144] : memref<1x64x34x34xi8>
        %146 = affine.apply #map4(%c0_37)
        affine.store %c0_i8, %11[0, 0, 0, 0] : memref<1x1x1x1xi8>
        %147 = affine.load %11[0, 0, 0, 0] : memref<1x1x1x1xi8>
        affine.store %147, %63[%c0_157, %arg2, %arg3, %146] : memref<1x64x34x34xi8>
        %148 = affine.apply #map5(%c0_37)
        affine.store %c0_i8, %11[0, 0, 0, 0] : memref<1x1x1x1xi8>
        %149 = affine.load %11[0, 0, 0, 0] : memref<1x1x1x1xi8>
        affine.store %149, %63[%c0_157, %arg2, %arg3, %148] : memref<1x64x34x34xi8>
        %150 = affine.apply #map6(%c0_37)
        affine.store %c0_i8, %11[0, 0, 0, 0] : memref<1x1x1x1xi8>
        %151 = affine.load %11[0, 0, 0, 0] : memref<1x1x1x1xi8>
        affine.store %151, %63[%c0_157, %arg2, %arg3, %150] : memref<1x64x34x34xi8>
        %152 = affine.apply #map7(%c0_37)
        affine.store %c0_i8, %11[0, 0, 0, 0] : memref<1x1x1x1xi8>
        %153 = affine.load %11[0, 0, 0, 0] : memref<1x1x1x1xi8>
        affine.store %153, %63[%c0_157, %arg2, %arg3, %152] : memref<1x64x34x34xi8>
        %154 = affine.apply #map8(%c0_37)
        affine.store %c0_i8, %11[0, 0, 0, 0] : memref<1x1x1x1xi8>
        %155 = affine.load %11[0, 0, 0, 0] : memref<1x1x1x1xi8>
        affine.store %155, %63[%c0_157, %arg2, %arg3, %154] : memref<1x64x34x34xi8>
        %156 = affine.apply #map9(%c0_37)
        affine.store %c0_i8, %11[0, 0, 0, 0] : memref<1x1x1x1xi8>
        %157 = affine.load %11[0, 0, 0, 0] : memref<1x1x1x1xi8>
        affine.store %157, %63[%c0_157, %arg2, %arg3, %156] : memref<1x64x34x34xi8>
        %158 = affine.apply #map10(%c0_37)
        affine.store %c0_i8, %11[0, 0, 0, 0] : memref<1x1x1x1xi8>
        %159 = affine.load %11[0, 0, 0, 0] : memref<1x1x1x1xi8>
        affine.store %159, %63[%c0_157, %arg2, %arg3, %158] : memref<1x64x34x34xi8>
        %160 = affine.apply #map11(%c0_37)
        affine.store %c0_i8, %11[0, 0, 0, 0] : memref<1x1x1x1xi8>
        %161 = affine.load %11[0, 0, 0, 0] : memref<1x1x1x1xi8>
        affine.store %161, %63[%c0_157, %arg2, %arg3, %160] : memref<1x64x34x34xi8>
        %162 = affine.apply #map12(%c0_37)
        affine.store %c0_i8, %11[0, 0, 0, 0] : memref<1x1x1x1xi8>
        %163 = affine.load %11[0, 0, 0, 0] : memref<1x1x1x1xi8>
        affine.store %163, %63[%c0_157, %arg2, %arg3, %162] : memref<1x64x34x34xi8>
        %164 = affine.apply #map13(%c0_37)
        affine.store %c0_i8, %11[0, 0, 0, 0] : memref<1x1x1x1xi8>
        %165 = affine.load %11[0, 0, 0, 0] : memref<1x1x1x1xi8>
        affine.store %165, %63[%c0_157, %arg2, %arg3, %164] : memref<1x64x34x34xi8>
        %166 = affine.apply #map14(%c0_37)
        affine.store %c0_i8, %11[0, 0, 0, 0] : memref<1x1x1x1xi8>
        %167 = affine.load %11[0, 0, 0, 0] : memref<1x1x1x1xi8>
        affine.store %167, %63[%c0_157, %arg2, %arg3, %166] : memref<1x64x34x34xi8>
        %168 = affine.apply #map15(%c0_37)
        affine.store %c0_i8, %11[0, 0, 0, 0] : memref<1x1x1x1xi8>
        %169 = affine.load %11[0, 0, 0, 0] : memref<1x1x1x1xi8>
        affine.store %169, %63[%c0_157, %arg2, %arg3, %168] : memref<1x64x34x34xi8>
        %170 = affine.apply #map16(%c0_37)
        affine.store %c0_i8, %11[0, 0, 0, 0] : memref<1x1x1x1xi8>
        %171 = affine.load %11[0, 0, 0, 0] : memref<1x1x1x1xi8>
        affine.store %171, %63[%c0_157, %arg2, %arg3, %170] : memref<1x64x34x34xi8>
        %172 = affine.apply #map17(%c0_37)
        affine.store %c0_i8, %11[0, 0, 0, 0] : memref<1x1x1x1xi8>
        %173 = affine.load %11[0, 0, 0, 0] : memref<1x1x1x1xi8>
        affine.store %173, %63[%c0_157, %arg2, %arg3, %172] : memref<1x64x34x34xi8>
        %174 = affine.apply #map18(%c0_37)
        affine.store %c0_i8, %11[0, 0, 0, 0] : memref<1x1x1x1xi8>
        %175 = affine.load %11[0, 0, 0, 0] : memref<1x1x1x1xi8>
        affine.store %175, %63[%c0_157, %arg2, %arg3, %174] : memref<1x64x34x34xi8>
        %176 = affine.apply #map19(%c0_37)
        affine.store %c0_i8, %11[0, 0, 0, 0] : memref<1x1x1x1xi8>
        %177 = affine.load %11[0, 0, 0, 0] : memref<1x1x1x1xi8>
        affine.store %177, %63[%c0_157, %arg2, %arg3, %176] : memref<1x64x34x34xi8>
        %178 = affine.apply #map20(%c0_37)
        affine.store %c0_i8, %11[0, 0, 0, 0] : memref<1x1x1x1xi8>
        %179 = affine.load %11[0, 0, 0, 0] : memref<1x1x1x1xi8>
        affine.store %179, %63[%c0_157, %arg2, %arg3, %178] : memref<1x64x34x34xi8>
        %180 = affine.apply #map21(%c0_37)
        affine.store %c0_i8, %11[0, 0, 0, 0] : memref<1x1x1x1xi8>
        %181 = affine.load %11[0, 0, 0, 0] : memref<1x1x1x1xi8>
        affine.store %181, %63[%c0_157, %arg2, %arg3, %180] : memref<1x64x34x34xi8>
        %182 = affine.apply #map22(%c0_37)
        affine.store %c0_i8, %11[0, 0, 0, 0] : memref<1x1x1x1xi8>
        %183 = affine.load %11[0, 0, 0, 0] : memref<1x1x1x1xi8>
        affine.store %183, %63[%c0_157, %arg2, %arg3, %182] : memref<1x64x34x34xi8>
        %184 = affine.apply #map23(%c0_37)
        affine.store %c0_i8, %11[0, 0, 0, 0] : memref<1x1x1x1xi8>
        %185 = affine.load %11[0, 0, 0, 0] : memref<1x1x1x1xi8>
        affine.store %185, %63[%c0_157, %arg2, %arg3, %184] : memref<1x64x34x34xi8>
        %186 = affine.apply #map24(%c0_37)
        affine.store %c0_i8, %11[0, 0, 0, 0] : memref<1x1x1x1xi8>
        %187 = affine.load %11[0, 0, 0, 0] : memref<1x1x1x1xi8>
        affine.store %187, %63[%c0_157, %arg2, %arg3, %186] : memref<1x64x34x34xi8>
        %188 = affine.apply #map25(%c0_37)
        affine.store %c0_i8, %11[0, 0, 0, 0] : memref<1x1x1x1xi8>
        %189 = affine.load %11[0, 0, 0, 0] : memref<1x1x1x1xi8>
        affine.store %189, %63[%c0_157, %arg2, %arg3, %188] : memref<1x64x34x34xi8>
        %190 = affine.apply #map26(%c0_37)
        affine.store %c0_i8, %11[0, 0, 0, 0] : memref<1x1x1x1xi8>
        %191 = affine.load %11[0, 0, 0, 0] : memref<1x1x1x1xi8>
        affine.store %191, %63[%c0_157, %arg2, %arg3, %190] : memref<1x64x34x34xi8>
        %192 = affine.apply #map27(%c0_37)
        affine.store %c0_i8, %11[0, 0, 0, 0] : memref<1x1x1x1xi8>
        %193 = affine.load %11[0, 0, 0, 0] : memref<1x1x1x1xi8>
        affine.store %193, %63[%c0_157, %arg2, %arg3, %192] : memref<1x64x34x34xi8>
        %194 = affine.apply #map28(%c0_37)
        affine.store %c0_i8, %11[0, 0, 0, 0] : memref<1x1x1x1xi8>
        %195 = affine.load %11[0, 0, 0, 0] : memref<1x1x1x1xi8>
        affine.store %195, %63[%c0_157, %arg2, %arg3, %194] : memref<1x64x34x34xi8>
        %196 = affine.apply #map29(%c0_37)
        affine.store %c0_i8, %11[0, 0, 0, 0] : memref<1x1x1x1xi8>
        %197 = affine.load %11[0, 0, 0, 0] : memref<1x1x1x1xi8>
        affine.store %197, %63[%c0_157, %arg2, %arg3, %196] : memref<1x64x34x34xi8>
        %198 = affine.apply #map30(%c0_37)
        affine.store %c0_i8, %11[0, 0, 0, 0] : memref<1x1x1x1xi8>
        %199 = affine.load %11[0, 0, 0, 0] : memref<1x1x1x1xi8>
        affine.store %199, %63[%c0_157, %arg2, %arg3, %198] : memref<1x64x34x34xi8>
        %200 = affine.apply #map31(%c0_37)
        affine.store %c0_i8, %11[0, 0, 0, 0] : memref<1x1x1x1xi8>
        %201 = affine.load %11[0, 0, 0, 0] : memref<1x1x1x1xi8>
        affine.store %201, %63[%c0_157, %arg2, %arg3, %200] : memref<1x64x34x34xi8>
        %202 = affine.apply #map32(%c0_37)
        affine.store %c0_i8, %11[0, 0, 0, 0] : memref<1x1x1x1xi8>
        %203 = affine.load %11[0, 0, 0, 0] : memref<1x1x1x1xi8>
        affine.store %203, %63[%c0_157, %arg2, %arg3, %202] : memref<1x64x34x34xi8>
      }
    }
    %64 = memref.subview %63[0, 0, 1, 1] [1, 64, 32, 32] [1, 1, 1, 1] : memref<1x64x34x34xi8> to memref<1x64x32x32xi8, #map35>
    affine.for %arg2 = 0 to 64 {
      affine.for %arg3 = 0 to 32 {
        affine.for %arg4 = 0 to 32 {
          affine.store %c0_i8, %56[%c0_161, %arg2, %arg3, %arg4] : memref<1x64x32x32xi8>
          affine.for %arg5 = 0 to 64 {
            affine.for %arg6 = 0 to 3 {
              %141 = affine.apply #map34(%arg3, %arg6)
              %142 = affine.apply #map34(%arg4, %c0_36)
              %143 = affine.load %59[%c0_160, %arg5, %141, %142] : memref<1x64x34x34xi8>
              %144 = affine.load %41[%arg2, %arg5, %arg6, %c0_36] : memref<64x64x3x3xi8>
              %145 = affine.load %56[%c0_160, %arg2, %arg3, %arg4] : memref<1x64x32x32xi8>
              %146 = arith.muli %143, %144 : i8
              %147 = arith.addi %145, %146 : i8
              affine.store %147, %56[%c0_160, %arg2, %arg3, %arg4] : memref<1x64x32x32xi8>
              %148 = affine.apply #map0(%c0_36)
              %149 = affine.apply #map34(%arg4, %148)
              %150 = affine.load %59[%c0_160, %arg5, %141, %149] : memref<1x64x34x34xi8>
              %151 = affine.load %41[%arg2, %arg5, %arg6, %148] : memref<64x64x3x3xi8>
              %152 = affine.load %56[%c0_160, %arg2, %arg3, %arg4] : memref<1x64x32x32xi8>
              %153 = arith.muli %150, %151 : i8
              %154 = arith.addi %152, %153 : i8
              affine.store %154, %56[%c0_160, %arg2, %arg3, %arg4] : memref<1x64x32x32xi8>
              %155 = affine.apply #map1(%c0_36)
              %156 = affine.apply #map34(%arg4, %155)
              %157 = affine.load %59[%c0_160, %arg5, %141, %156] : memref<1x64x34x34xi8>
              %158 = affine.load %41[%arg2, %arg5, %arg6, %155] : memref<64x64x3x3xi8>
              %159 = affine.load %56[%c0_160, %arg2, %arg3, %arg4] : memref<1x64x32x32xi8>
              %160 = arith.muli %157, %158 : i8
              %161 = arith.addi %159, %160 : i8
              affine.store %161, %56[%c0_160, %arg2, %arg3, %arg4] : memref<1x64x32x32xi8>
            }
          }
          %137 = affine.load %56[%c0_171, %arg2, %arg3, %arg4] : memref<1x64x32x32xi8>
          %138 = arith.cmpi ugt, %137, %c0_i8 : i8
          %139 = arith.select %138, %137, %c0_i8 : i8
          affine.store %139, %16[0, 0, 0, 0] : memref<1x1x1x1xi8>
          %140 = affine.load %16[0, 0, 0, 0] : memref<1x1x1x1xi8>
          affine.store %140, %64[%c0_156, %arg2, %arg3, %arg4] : memref<1x64x32x32xi8, #map35>
        }
      }
    }
    %65 = memref.alloca() : memref<1x64x32x32xi8>
    %66 = memref.alloca() : memref<1x64x32x32xi8>
    %67 = memref.alloca() : memref<1x64x34x34xi8>
    %68 = memref.alloca() : memref<1x64x34x34xi8>
    affine.for %arg2 = 0 to 64 {
      affine.for %arg3 = 0 to 34 {
        affine.store %c0_i8, %6[0, 0, 0, 0] : memref<1x1x1x1xi8>
        %137 = affine.load %6[0, 0, 0, 0] : memref<1x1x1x1xi8>
        affine.store %137, %68[%c0_150, %arg2, %arg3, %c0_35] : memref<1x64x34x34xi8>
        %138 = affine.apply #map0(%c0_35)
        affine.store %c0_i8, %6[0, 0, 0, 0] : memref<1x1x1x1xi8>
        %139 = affine.load %6[0, 0, 0, 0] : memref<1x1x1x1xi8>
        affine.store %139, %68[%c0_150, %arg2, %arg3, %138] : memref<1x64x34x34xi8>
        %140 = affine.apply #map1(%c0_35)
        affine.store %c0_i8, %6[0, 0, 0, 0] : memref<1x1x1x1xi8>
        %141 = affine.load %6[0, 0, 0, 0] : memref<1x1x1x1xi8>
        affine.store %141, %68[%c0_150, %arg2, %arg3, %140] : memref<1x64x34x34xi8>
        %142 = affine.apply #map2(%c0_35)
        affine.store %c0_i8, %6[0, 0, 0, 0] : memref<1x1x1x1xi8>
        %143 = affine.load %6[0, 0, 0, 0] : memref<1x1x1x1xi8>
        affine.store %143, %68[%c0_150, %arg2, %arg3, %142] : memref<1x64x34x34xi8>
        %144 = affine.apply #map3(%c0_35)
        affine.store %c0_i8, %6[0, 0, 0, 0] : memref<1x1x1x1xi8>
        %145 = affine.load %6[0, 0, 0, 0] : memref<1x1x1x1xi8>
        affine.store %145, %68[%c0_150, %arg2, %arg3, %144] : memref<1x64x34x34xi8>
        %146 = affine.apply #map4(%c0_35)
        affine.store %c0_i8, %6[0, 0, 0, 0] : memref<1x1x1x1xi8>
        %147 = affine.load %6[0, 0, 0, 0] : memref<1x1x1x1xi8>
        affine.store %147, %68[%c0_150, %arg2, %arg3, %146] : memref<1x64x34x34xi8>
        %148 = affine.apply #map5(%c0_35)
        affine.store %c0_i8, %6[0, 0, 0, 0] : memref<1x1x1x1xi8>
        %149 = affine.load %6[0, 0, 0, 0] : memref<1x1x1x1xi8>
        affine.store %149, %68[%c0_150, %arg2, %arg3, %148] : memref<1x64x34x34xi8>
        %150 = affine.apply #map6(%c0_35)
        affine.store %c0_i8, %6[0, 0, 0, 0] : memref<1x1x1x1xi8>
        %151 = affine.load %6[0, 0, 0, 0] : memref<1x1x1x1xi8>
        affine.store %151, %68[%c0_150, %arg2, %arg3, %150] : memref<1x64x34x34xi8>
        %152 = affine.apply #map7(%c0_35)
        affine.store %c0_i8, %6[0, 0, 0, 0] : memref<1x1x1x1xi8>
        %153 = affine.load %6[0, 0, 0, 0] : memref<1x1x1x1xi8>
        affine.store %153, %68[%c0_150, %arg2, %arg3, %152] : memref<1x64x34x34xi8>
        %154 = affine.apply #map8(%c0_35)
        affine.store %c0_i8, %6[0, 0, 0, 0] : memref<1x1x1x1xi8>
        %155 = affine.load %6[0, 0, 0, 0] : memref<1x1x1x1xi8>
        affine.store %155, %68[%c0_150, %arg2, %arg3, %154] : memref<1x64x34x34xi8>
        %156 = affine.apply #map9(%c0_35)
        affine.store %c0_i8, %6[0, 0, 0, 0] : memref<1x1x1x1xi8>
        %157 = affine.load %6[0, 0, 0, 0] : memref<1x1x1x1xi8>
        affine.store %157, %68[%c0_150, %arg2, %arg3, %156] : memref<1x64x34x34xi8>
        %158 = affine.apply #map10(%c0_35)
        affine.store %c0_i8, %6[0, 0, 0, 0] : memref<1x1x1x1xi8>
        %159 = affine.load %6[0, 0, 0, 0] : memref<1x1x1x1xi8>
        affine.store %159, %68[%c0_150, %arg2, %arg3, %158] : memref<1x64x34x34xi8>
        %160 = affine.apply #map11(%c0_35)
        affine.store %c0_i8, %6[0, 0, 0, 0] : memref<1x1x1x1xi8>
        %161 = affine.load %6[0, 0, 0, 0] : memref<1x1x1x1xi8>
        affine.store %161, %68[%c0_150, %arg2, %arg3, %160] : memref<1x64x34x34xi8>
        %162 = affine.apply #map12(%c0_35)
        affine.store %c0_i8, %6[0, 0, 0, 0] : memref<1x1x1x1xi8>
        %163 = affine.load %6[0, 0, 0, 0] : memref<1x1x1x1xi8>
        affine.store %163, %68[%c0_150, %arg2, %arg3, %162] : memref<1x64x34x34xi8>
        %164 = affine.apply #map13(%c0_35)
        affine.store %c0_i8, %6[0, 0, 0, 0] : memref<1x1x1x1xi8>
        %165 = affine.load %6[0, 0, 0, 0] : memref<1x1x1x1xi8>
        affine.store %165, %68[%c0_150, %arg2, %arg3, %164] : memref<1x64x34x34xi8>
        %166 = affine.apply #map14(%c0_35)
        affine.store %c0_i8, %6[0, 0, 0, 0] : memref<1x1x1x1xi8>
        %167 = affine.load %6[0, 0, 0, 0] : memref<1x1x1x1xi8>
        affine.store %167, %68[%c0_150, %arg2, %arg3, %166] : memref<1x64x34x34xi8>
        %168 = affine.apply #map15(%c0_35)
        affine.store %c0_i8, %6[0, 0, 0, 0] : memref<1x1x1x1xi8>
        %169 = affine.load %6[0, 0, 0, 0] : memref<1x1x1x1xi8>
        affine.store %169, %68[%c0_150, %arg2, %arg3, %168] : memref<1x64x34x34xi8>
        %170 = affine.apply #map16(%c0_35)
        affine.store %c0_i8, %6[0, 0, 0, 0] : memref<1x1x1x1xi8>
        %171 = affine.load %6[0, 0, 0, 0] : memref<1x1x1x1xi8>
        affine.store %171, %68[%c0_150, %arg2, %arg3, %170] : memref<1x64x34x34xi8>
        %172 = affine.apply #map17(%c0_35)
        affine.store %c0_i8, %6[0, 0, 0, 0] : memref<1x1x1x1xi8>
        %173 = affine.load %6[0, 0, 0, 0] : memref<1x1x1x1xi8>
        affine.store %173, %68[%c0_150, %arg2, %arg3, %172] : memref<1x64x34x34xi8>
        %174 = affine.apply #map18(%c0_35)
        affine.store %c0_i8, %6[0, 0, 0, 0] : memref<1x1x1x1xi8>
        %175 = affine.load %6[0, 0, 0, 0] : memref<1x1x1x1xi8>
        affine.store %175, %68[%c0_150, %arg2, %arg3, %174] : memref<1x64x34x34xi8>
        %176 = affine.apply #map19(%c0_35)
        affine.store %c0_i8, %6[0, 0, 0, 0] : memref<1x1x1x1xi8>
        %177 = affine.load %6[0, 0, 0, 0] : memref<1x1x1x1xi8>
        affine.store %177, %68[%c0_150, %arg2, %arg3, %176] : memref<1x64x34x34xi8>
        %178 = affine.apply #map20(%c0_35)
        affine.store %c0_i8, %6[0, 0, 0, 0] : memref<1x1x1x1xi8>
        %179 = affine.load %6[0, 0, 0, 0] : memref<1x1x1x1xi8>
        affine.store %179, %68[%c0_150, %arg2, %arg3, %178] : memref<1x64x34x34xi8>
        %180 = affine.apply #map21(%c0_35)
        affine.store %c0_i8, %6[0, 0, 0, 0] : memref<1x1x1x1xi8>
        %181 = affine.load %6[0, 0, 0, 0] : memref<1x1x1x1xi8>
        affine.store %181, %68[%c0_150, %arg2, %arg3, %180] : memref<1x64x34x34xi8>
        %182 = affine.apply #map22(%c0_35)
        affine.store %c0_i8, %6[0, 0, 0, 0] : memref<1x1x1x1xi8>
        %183 = affine.load %6[0, 0, 0, 0] : memref<1x1x1x1xi8>
        affine.store %183, %68[%c0_150, %arg2, %arg3, %182] : memref<1x64x34x34xi8>
        %184 = affine.apply #map23(%c0_35)
        affine.store %c0_i8, %6[0, 0, 0, 0] : memref<1x1x1x1xi8>
        %185 = affine.load %6[0, 0, 0, 0] : memref<1x1x1x1xi8>
        affine.store %185, %68[%c0_150, %arg2, %arg3, %184] : memref<1x64x34x34xi8>
        %186 = affine.apply #map24(%c0_35)
        affine.store %c0_i8, %6[0, 0, 0, 0] : memref<1x1x1x1xi8>
        %187 = affine.load %6[0, 0, 0, 0] : memref<1x1x1x1xi8>
        affine.store %187, %68[%c0_150, %arg2, %arg3, %186] : memref<1x64x34x34xi8>
        %188 = affine.apply #map25(%c0_35)
        affine.store %c0_i8, %6[0, 0, 0, 0] : memref<1x1x1x1xi8>
        %189 = affine.load %6[0, 0, 0, 0] : memref<1x1x1x1xi8>
        affine.store %189, %68[%c0_150, %arg2, %arg3, %188] : memref<1x64x34x34xi8>
        %190 = affine.apply #map26(%c0_35)
        affine.store %c0_i8, %6[0, 0, 0, 0] : memref<1x1x1x1xi8>
        %191 = affine.load %6[0, 0, 0, 0] : memref<1x1x1x1xi8>
        affine.store %191, %68[%c0_150, %arg2, %arg3, %190] : memref<1x64x34x34xi8>
        %192 = affine.apply #map27(%c0_35)
        affine.store %c0_i8, %6[0, 0, 0, 0] : memref<1x1x1x1xi8>
        %193 = affine.load %6[0, 0, 0, 0] : memref<1x1x1x1xi8>
        affine.store %193, %68[%c0_150, %arg2, %arg3, %192] : memref<1x64x34x34xi8>
        %194 = affine.apply #map28(%c0_35)
        affine.store %c0_i8, %6[0, 0, 0, 0] : memref<1x1x1x1xi8>
        %195 = affine.load %6[0, 0, 0, 0] : memref<1x1x1x1xi8>
        affine.store %195, %68[%c0_150, %arg2, %arg3, %194] : memref<1x64x34x34xi8>
        %196 = affine.apply #map29(%c0_35)
        affine.store %c0_i8, %6[0, 0, 0, 0] : memref<1x1x1x1xi8>
        %197 = affine.load %6[0, 0, 0, 0] : memref<1x1x1x1xi8>
        affine.store %197, %68[%c0_150, %arg2, %arg3, %196] : memref<1x64x34x34xi8>
        %198 = affine.apply #map30(%c0_35)
        affine.store %c0_i8, %6[0, 0, 0, 0] : memref<1x1x1x1xi8>
        %199 = affine.load %6[0, 0, 0, 0] : memref<1x1x1x1xi8>
        affine.store %199, %68[%c0_150, %arg2, %arg3, %198] : memref<1x64x34x34xi8>
        %200 = affine.apply #map31(%c0_35)
        affine.store %c0_i8, %6[0, 0, 0, 0] : memref<1x1x1x1xi8>
        %201 = affine.load %6[0, 0, 0, 0] : memref<1x1x1x1xi8>
        affine.store %201, %68[%c0_150, %arg2, %arg3, %200] : memref<1x64x34x34xi8>
        %202 = affine.apply #map32(%c0_35)
        affine.store %c0_i8, %6[0, 0, 0, 0] : memref<1x1x1x1xi8>
        %203 = affine.load %6[0, 0, 0, 0] : memref<1x1x1x1xi8>
        affine.store %203, %68[%c0_150, %arg2, %arg3, %202] : memref<1x64x34x34xi8>
      }
    }
    %69 = memref.subview %68[0, 0, 1, 1] [1, 64, 32, 32] [1, 1, 1, 1] : memref<1x64x34x34xi8> to memref<1x64x32x32xi8, #map35>
    %70 = memref.alloca() : memref<1x64x32x32xi8>
    %71 = memref.alloca() : memref<1x64x34x34xi8>
    %72 = memref.alloca() : memref<1x64x34x34xi8>
    affine.for %arg2 = 0 to 64 {
      affine.for %arg3 = 0 to 34 {
        affine.store %c0_i8, %31[0, 0, 0, 0] : memref<1x1x1x1xi8>
        %137 = affine.load %31[0, 0, 0, 0] : memref<1x1x1x1xi8>
        affine.store %137, %72[%c0_144, %arg2, %arg3, %c0_34] : memref<1x64x34x34xi8>
        %138 = affine.apply #map0(%c0_34)
        affine.store %c0_i8, %31[0, 0, 0, 0] : memref<1x1x1x1xi8>
        %139 = affine.load %31[0, 0, 0, 0] : memref<1x1x1x1xi8>
        affine.store %139, %72[%c0_144, %arg2, %arg3, %138] : memref<1x64x34x34xi8>
        %140 = affine.apply #map1(%c0_34)
        affine.store %c0_i8, %31[0, 0, 0, 0] : memref<1x1x1x1xi8>
        %141 = affine.load %31[0, 0, 0, 0] : memref<1x1x1x1xi8>
        affine.store %141, %72[%c0_144, %arg2, %arg3, %140] : memref<1x64x34x34xi8>
        %142 = affine.apply #map2(%c0_34)
        affine.store %c0_i8, %31[0, 0, 0, 0] : memref<1x1x1x1xi8>
        %143 = affine.load %31[0, 0, 0, 0] : memref<1x1x1x1xi8>
        affine.store %143, %72[%c0_144, %arg2, %arg3, %142] : memref<1x64x34x34xi8>
        %144 = affine.apply #map3(%c0_34)
        affine.store %c0_i8, %31[0, 0, 0, 0] : memref<1x1x1x1xi8>
        %145 = affine.load %31[0, 0, 0, 0] : memref<1x1x1x1xi8>
        affine.store %145, %72[%c0_144, %arg2, %arg3, %144] : memref<1x64x34x34xi8>
        %146 = affine.apply #map4(%c0_34)
        affine.store %c0_i8, %31[0, 0, 0, 0] : memref<1x1x1x1xi8>
        %147 = affine.load %31[0, 0, 0, 0] : memref<1x1x1x1xi8>
        affine.store %147, %72[%c0_144, %arg2, %arg3, %146] : memref<1x64x34x34xi8>
        %148 = affine.apply #map5(%c0_34)
        affine.store %c0_i8, %31[0, 0, 0, 0] : memref<1x1x1x1xi8>
        %149 = affine.load %31[0, 0, 0, 0] : memref<1x1x1x1xi8>
        affine.store %149, %72[%c0_144, %arg2, %arg3, %148] : memref<1x64x34x34xi8>
        %150 = affine.apply #map6(%c0_34)
        affine.store %c0_i8, %31[0, 0, 0, 0] : memref<1x1x1x1xi8>
        %151 = affine.load %31[0, 0, 0, 0] : memref<1x1x1x1xi8>
        affine.store %151, %72[%c0_144, %arg2, %arg3, %150] : memref<1x64x34x34xi8>
        %152 = affine.apply #map7(%c0_34)
        affine.store %c0_i8, %31[0, 0, 0, 0] : memref<1x1x1x1xi8>
        %153 = affine.load %31[0, 0, 0, 0] : memref<1x1x1x1xi8>
        affine.store %153, %72[%c0_144, %arg2, %arg3, %152] : memref<1x64x34x34xi8>
        %154 = affine.apply #map8(%c0_34)
        affine.store %c0_i8, %31[0, 0, 0, 0] : memref<1x1x1x1xi8>
        %155 = affine.load %31[0, 0, 0, 0] : memref<1x1x1x1xi8>
        affine.store %155, %72[%c0_144, %arg2, %arg3, %154] : memref<1x64x34x34xi8>
        %156 = affine.apply #map9(%c0_34)
        affine.store %c0_i8, %31[0, 0, 0, 0] : memref<1x1x1x1xi8>
        %157 = affine.load %31[0, 0, 0, 0] : memref<1x1x1x1xi8>
        affine.store %157, %72[%c0_144, %arg2, %arg3, %156] : memref<1x64x34x34xi8>
        %158 = affine.apply #map10(%c0_34)
        affine.store %c0_i8, %31[0, 0, 0, 0] : memref<1x1x1x1xi8>
        %159 = affine.load %31[0, 0, 0, 0] : memref<1x1x1x1xi8>
        affine.store %159, %72[%c0_144, %arg2, %arg3, %158] : memref<1x64x34x34xi8>
        %160 = affine.apply #map11(%c0_34)
        affine.store %c0_i8, %31[0, 0, 0, 0] : memref<1x1x1x1xi8>
        %161 = affine.load %31[0, 0, 0, 0] : memref<1x1x1x1xi8>
        affine.store %161, %72[%c0_144, %arg2, %arg3, %160] : memref<1x64x34x34xi8>
        %162 = affine.apply #map12(%c0_34)
        affine.store %c0_i8, %31[0, 0, 0, 0] : memref<1x1x1x1xi8>
        %163 = affine.load %31[0, 0, 0, 0] : memref<1x1x1x1xi8>
        affine.store %163, %72[%c0_144, %arg2, %arg3, %162] : memref<1x64x34x34xi8>
        %164 = affine.apply #map13(%c0_34)
        affine.store %c0_i8, %31[0, 0, 0, 0] : memref<1x1x1x1xi8>
        %165 = affine.load %31[0, 0, 0, 0] : memref<1x1x1x1xi8>
        affine.store %165, %72[%c0_144, %arg2, %arg3, %164] : memref<1x64x34x34xi8>
        %166 = affine.apply #map14(%c0_34)
        affine.store %c0_i8, %31[0, 0, 0, 0] : memref<1x1x1x1xi8>
        %167 = affine.load %31[0, 0, 0, 0] : memref<1x1x1x1xi8>
        affine.store %167, %72[%c0_144, %arg2, %arg3, %166] : memref<1x64x34x34xi8>
        %168 = affine.apply #map15(%c0_34)
        affine.store %c0_i8, %31[0, 0, 0, 0] : memref<1x1x1x1xi8>
        %169 = affine.load %31[0, 0, 0, 0] : memref<1x1x1x1xi8>
        affine.store %169, %72[%c0_144, %arg2, %arg3, %168] : memref<1x64x34x34xi8>
        %170 = affine.apply #map16(%c0_34)
        affine.store %c0_i8, %31[0, 0, 0, 0] : memref<1x1x1x1xi8>
        %171 = affine.load %31[0, 0, 0, 0] : memref<1x1x1x1xi8>
        affine.store %171, %72[%c0_144, %arg2, %arg3, %170] : memref<1x64x34x34xi8>
        %172 = affine.apply #map17(%c0_34)
        affine.store %c0_i8, %31[0, 0, 0, 0] : memref<1x1x1x1xi8>
        %173 = affine.load %31[0, 0, 0, 0] : memref<1x1x1x1xi8>
        affine.store %173, %72[%c0_144, %arg2, %arg3, %172] : memref<1x64x34x34xi8>
        %174 = affine.apply #map18(%c0_34)
        affine.store %c0_i8, %31[0, 0, 0, 0] : memref<1x1x1x1xi8>
        %175 = affine.load %31[0, 0, 0, 0] : memref<1x1x1x1xi8>
        affine.store %175, %72[%c0_144, %arg2, %arg3, %174] : memref<1x64x34x34xi8>
        %176 = affine.apply #map19(%c0_34)
        affine.store %c0_i8, %31[0, 0, 0, 0] : memref<1x1x1x1xi8>
        %177 = affine.load %31[0, 0, 0, 0] : memref<1x1x1x1xi8>
        affine.store %177, %72[%c0_144, %arg2, %arg3, %176] : memref<1x64x34x34xi8>
        %178 = affine.apply #map20(%c0_34)
        affine.store %c0_i8, %31[0, 0, 0, 0] : memref<1x1x1x1xi8>
        %179 = affine.load %31[0, 0, 0, 0] : memref<1x1x1x1xi8>
        affine.store %179, %72[%c0_144, %arg2, %arg3, %178] : memref<1x64x34x34xi8>
        %180 = affine.apply #map21(%c0_34)
        affine.store %c0_i8, %31[0, 0, 0, 0] : memref<1x1x1x1xi8>
        %181 = affine.load %31[0, 0, 0, 0] : memref<1x1x1x1xi8>
        affine.store %181, %72[%c0_144, %arg2, %arg3, %180] : memref<1x64x34x34xi8>
        %182 = affine.apply #map22(%c0_34)
        affine.store %c0_i8, %31[0, 0, 0, 0] : memref<1x1x1x1xi8>
        %183 = affine.load %31[0, 0, 0, 0] : memref<1x1x1x1xi8>
        affine.store %183, %72[%c0_144, %arg2, %arg3, %182] : memref<1x64x34x34xi8>
        %184 = affine.apply #map23(%c0_34)
        affine.store %c0_i8, %31[0, 0, 0, 0] : memref<1x1x1x1xi8>
        %185 = affine.load %31[0, 0, 0, 0] : memref<1x1x1x1xi8>
        affine.store %185, %72[%c0_144, %arg2, %arg3, %184] : memref<1x64x34x34xi8>
        %186 = affine.apply #map24(%c0_34)
        affine.store %c0_i8, %31[0, 0, 0, 0] : memref<1x1x1x1xi8>
        %187 = affine.load %31[0, 0, 0, 0] : memref<1x1x1x1xi8>
        affine.store %187, %72[%c0_144, %arg2, %arg3, %186] : memref<1x64x34x34xi8>
        %188 = affine.apply #map25(%c0_34)
        affine.store %c0_i8, %31[0, 0, 0, 0] : memref<1x1x1x1xi8>
        %189 = affine.load %31[0, 0, 0, 0] : memref<1x1x1x1xi8>
        affine.store %189, %72[%c0_144, %arg2, %arg3, %188] : memref<1x64x34x34xi8>
        %190 = affine.apply #map26(%c0_34)
        affine.store %c0_i8, %31[0, 0, 0, 0] : memref<1x1x1x1xi8>
        %191 = affine.load %31[0, 0, 0, 0] : memref<1x1x1x1xi8>
        affine.store %191, %72[%c0_144, %arg2, %arg3, %190] : memref<1x64x34x34xi8>
        %192 = affine.apply #map27(%c0_34)
        affine.store %c0_i8, %31[0, 0, 0, 0] : memref<1x1x1x1xi8>
        %193 = affine.load %31[0, 0, 0, 0] : memref<1x1x1x1xi8>
        affine.store %193, %72[%c0_144, %arg2, %arg3, %192] : memref<1x64x34x34xi8>
        %194 = affine.apply #map28(%c0_34)
        affine.store %c0_i8, %31[0, 0, 0, 0] : memref<1x1x1x1xi8>
        %195 = affine.load %31[0, 0, 0, 0] : memref<1x1x1x1xi8>
        affine.store %195, %72[%c0_144, %arg2, %arg3, %194] : memref<1x64x34x34xi8>
        %196 = affine.apply #map29(%c0_34)
        affine.store %c0_i8, %31[0, 0, 0, 0] : memref<1x1x1x1xi8>
        %197 = affine.load %31[0, 0, 0, 0] : memref<1x1x1x1xi8>
        affine.store %197, %72[%c0_144, %arg2, %arg3, %196] : memref<1x64x34x34xi8>
        %198 = affine.apply #map30(%c0_34)
        affine.store %c0_i8, %31[0, 0, 0, 0] : memref<1x1x1x1xi8>
        %199 = affine.load %31[0, 0, 0, 0] : memref<1x1x1x1xi8>
        affine.store %199, %72[%c0_144, %arg2, %arg3, %198] : memref<1x64x34x34xi8>
        %200 = affine.apply #map31(%c0_34)
        affine.store %c0_i8, %31[0, 0, 0, 0] : memref<1x1x1x1xi8>
        %201 = affine.load %31[0, 0, 0, 0] : memref<1x1x1x1xi8>
        affine.store %201, %72[%c0_144, %arg2, %arg3, %200] : memref<1x64x34x34xi8>
        %202 = affine.apply #map32(%c0_34)
        affine.store %c0_i8, %31[0, 0, 0, 0] : memref<1x1x1x1xi8>
        %203 = affine.load %31[0, 0, 0, 0] : memref<1x1x1x1xi8>
        affine.store %203, %72[%c0_144, %arg2, %arg3, %202] : memref<1x64x34x34xi8>
      }
    }
    %73 = memref.subview %72[0, 0, 1, 1] [1, 64, 32, 32] [1, 1, 1, 1] : memref<1x64x34x34xi8> to memref<1x64x32x32xi8, #map35>
    %74 = memref.alloca() : memref<1x64x32x32xi8>
    %75 = memref.alloca() : memref<1x64x32x32xi8>
    %76 = memref.alloca() : memref<1x64x34x34xi8>
    %77 = memref.alloca() : memref<1x64x34x34xi8>
    affine.for %arg2 = 0 to 64 {
      affine.for %arg3 = 0 to 34 {
        affine.store %c0_i8, %26[0, 0, 0, 0] : memref<1x1x1x1xi8>
        %137 = affine.load %26[0, 0, 0, 0] : memref<1x1x1x1xi8>
        affine.store %137, %77[%c0_137, %arg2, %arg3, %c0_33] : memref<1x64x34x34xi8>
        %138 = affine.apply #map0(%c0_33)
        affine.store %c0_i8, %26[0, 0, 0, 0] : memref<1x1x1x1xi8>
        %139 = affine.load %26[0, 0, 0, 0] : memref<1x1x1x1xi8>
        affine.store %139, %77[%c0_137, %arg2, %arg3, %138] : memref<1x64x34x34xi8>
        %140 = affine.apply #map1(%c0_33)
        affine.store %c0_i8, %26[0, 0, 0, 0] : memref<1x1x1x1xi8>
        %141 = affine.load %26[0, 0, 0, 0] : memref<1x1x1x1xi8>
        affine.store %141, %77[%c0_137, %arg2, %arg3, %140] : memref<1x64x34x34xi8>
        %142 = affine.apply #map2(%c0_33)
        affine.store %c0_i8, %26[0, 0, 0, 0] : memref<1x1x1x1xi8>
        %143 = affine.load %26[0, 0, 0, 0] : memref<1x1x1x1xi8>
        affine.store %143, %77[%c0_137, %arg2, %arg3, %142] : memref<1x64x34x34xi8>
        %144 = affine.apply #map3(%c0_33)
        affine.store %c0_i8, %26[0, 0, 0, 0] : memref<1x1x1x1xi8>
        %145 = affine.load %26[0, 0, 0, 0] : memref<1x1x1x1xi8>
        affine.store %145, %77[%c0_137, %arg2, %arg3, %144] : memref<1x64x34x34xi8>
        %146 = affine.apply #map4(%c0_33)
        affine.store %c0_i8, %26[0, 0, 0, 0] : memref<1x1x1x1xi8>
        %147 = affine.load %26[0, 0, 0, 0] : memref<1x1x1x1xi8>
        affine.store %147, %77[%c0_137, %arg2, %arg3, %146] : memref<1x64x34x34xi8>
        %148 = affine.apply #map5(%c0_33)
        affine.store %c0_i8, %26[0, 0, 0, 0] : memref<1x1x1x1xi8>
        %149 = affine.load %26[0, 0, 0, 0] : memref<1x1x1x1xi8>
        affine.store %149, %77[%c0_137, %arg2, %arg3, %148] : memref<1x64x34x34xi8>
        %150 = affine.apply #map6(%c0_33)
        affine.store %c0_i8, %26[0, 0, 0, 0] : memref<1x1x1x1xi8>
        %151 = affine.load %26[0, 0, 0, 0] : memref<1x1x1x1xi8>
        affine.store %151, %77[%c0_137, %arg2, %arg3, %150] : memref<1x64x34x34xi8>
        %152 = affine.apply #map7(%c0_33)
        affine.store %c0_i8, %26[0, 0, 0, 0] : memref<1x1x1x1xi8>
        %153 = affine.load %26[0, 0, 0, 0] : memref<1x1x1x1xi8>
        affine.store %153, %77[%c0_137, %arg2, %arg3, %152] : memref<1x64x34x34xi8>
        %154 = affine.apply #map8(%c0_33)
        affine.store %c0_i8, %26[0, 0, 0, 0] : memref<1x1x1x1xi8>
        %155 = affine.load %26[0, 0, 0, 0] : memref<1x1x1x1xi8>
        affine.store %155, %77[%c0_137, %arg2, %arg3, %154] : memref<1x64x34x34xi8>
        %156 = affine.apply #map9(%c0_33)
        affine.store %c0_i8, %26[0, 0, 0, 0] : memref<1x1x1x1xi8>
        %157 = affine.load %26[0, 0, 0, 0] : memref<1x1x1x1xi8>
        affine.store %157, %77[%c0_137, %arg2, %arg3, %156] : memref<1x64x34x34xi8>
        %158 = affine.apply #map10(%c0_33)
        affine.store %c0_i8, %26[0, 0, 0, 0] : memref<1x1x1x1xi8>
        %159 = affine.load %26[0, 0, 0, 0] : memref<1x1x1x1xi8>
        affine.store %159, %77[%c0_137, %arg2, %arg3, %158] : memref<1x64x34x34xi8>
        %160 = affine.apply #map11(%c0_33)
        affine.store %c0_i8, %26[0, 0, 0, 0] : memref<1x1x1x1xi8>
        %161 = affine.load %26[0, 0, 0, 0] : memref<1x1x1x1xi8>
        affine.store %161, %77[%c0_137, %arg2, %arg3, %160] : memref<1x64x34x34xi8>
        %162 = affine.apply #map12(%c0_33)
        affine.store %c0_i8, %26[0, 0, 0, 0] : memref<1x1x1x1xi8>
        %163 = affine.load %26[0, 0, 0, 0] : memref<1x1x1x1xi8>
        affine.store %163, %77[%c0_137, %arg2, %arg3, %162] : memref<1x64x34x34xi8>
        %164 = affine.apply #map13(%c0_33)
        affine.store %c0_i8, %26[0, 0, 0, 0] : memref<1x1x1x1xi8>
        %165 = affine.load %26[0, 0, 0, 0] : memref<1x1x1x1xi8>
        affine.store %165, %77[%c0_137, %arg2, %arg3, %164] : memref<1x64x34x34xi8>
        %166 = affine.apply #map14(%c0_33)
        affine.store %c0_i8, %26[0, 0, 0, 0] : memref<1x1x1x1xi8>
        %167 = affine.load %26[0, 0, 0, 0] : memref<1x1x1x1xi8>
        affine.store %167, %77[%c0_137, %arg2, %arg3, %166] : memref<1x64x34x34xi8>
        %168 = affine.apply #map15(%c0_33)
        affine.store %c0_i8, %26[0, 0, 0, 0] : memref<1x1x1x1xi8>
        %169 = affine.load %26[0, 0, 0, 0] : memref<1x1x1x1xi8>
        affine.store %169, %77[%c0_137, %arg2, %arg3, %168] : memref<1x64x34x34xi8>
        %170 = affine.apply #map16(%c0_33)
        affine.store %c0_i8, %26[0, 0, 0, 0] : memref<1x1x1x1xi8>
        %171 = affine.load %26[0, 0, 0, 0] : memref<1x1x1x1xi8>
        affine.store %171, %77[%c0_137, %arg2, %arg3, %170] : memref<1x64x34x34xi8>
        %172 = affine.apply #map17(%c0_33)
        affine.store %c0_i8, %26[0, 0, 0, 0] : memref<1x1x1x1xi8>
        %173 = affine.load %26[0, 0, 0, 0] : memref<1x1x1x1xi8>
        affine.store %173, %77[%c0_137, %arg2, %arg3, %172] : memref<1x64x34x34xi8>
        %174 = affine.apply #map18(%c0_33)
        affine.store %c0_i8, %26[0, 0, 0, 0] : memref<1x1x1x1xi8>
        %175 = affine.load %26[0, 0, 0, 0] : memref<1x1x1x1xi8>
        affine.store %175, %77[%c0_137, %arg2, %arg3, %174] : memref<1x64x34x34xi8>
        %176 = affine.apply #map19(%c0_33)
        affine.store %c0_i8, %26[0, 0, 0, 0] : memref<1x1x1x1xi8>
        %177 = affine.load %26[0, 0, 0, 0] : memref<1x1x1x1xi8>
        affine.store %177, %77[%c0_137, %arg2, %arg3, %176] : memref<1x64x34x34xi8>
        %178 = affine.apply #map20(%c0_33)
        affine.store %c0_i8, %26[0, 0, 0, 0] : memref<1x1x1x1xi8>
        %179 = affine.load %26[0, 0, 0, 0] : memref<1x1x1x1xi8>
        affine.store %179, %77[%c0_137, %arg2, %arg3, %178] : memref<1x64x34x34xi8>
        %180 = affine.apply #map21(%c0_33)
        affine.store %c0_i8, %26[0, 0, 0, 0] : memref<1x1x1x1xi8>
        %181 = affine.load %26[0, 0, 0, 0] : memref<1x1x1x1xi8>
        affine.store %181, %77[%c0_137, %arg2, %arg3, %180] : memref<1x64x34x34xi8>
        %182 = affine.apply #map22(%c0_33)
        affine.store %c0_i8, %26[0, 0, 0, 0] : memref<1x1x1x1xi8>
        %183 = affine.load %26[0, 0, 0, 0] : memref<1x1x1x1xi8>
        affine.store %183, %77[%c0_137, %arg2, %arg3, %182] : memref<1x64x34x34xi8>
        %184 = affine.apply #map23(%c0_33)
        affine.store %c0_i8, %26[0, 0, 0, 0] : memref<1x1x1x1xi8>
        %185 = affine.load %26[0, 0, 0, 0] : memref<1x1x1x1xi8>
        affine.store %185, %77[%c0_137, %arg2, %arg3, %184] : memref<1x64x34x34xi8>
        %186 = affine.apply #map24(%c0_33)
        affine.store %c0_i8, %26[0, 0, 0, 0] : memref<1x1x1x1xi8>
        %187 = affine.load %26[0, 0, 0, 0] : memref<1x1x1x1xi8>
        affine.store %187, %77[%c0_137, %arg2, %arg3, %186] : memref<1x64x34x34xi8>
        %188 = affine.apply #map25(%c0_33)
        affine.store %c0_i8, %26[0, 0, 0, 0] : memref<1x1x1x1xi8>
        %189 = affine.load %26[0, 0, 0, 0] : memref<1x1x1x1xi8>
        affine.store %189, %77[%c0_137, %arg2, %arg3, %188] : memref<1x64x34x34xi8>
        %190 = affine.apply #map26(%c0_33)
        affine.store %c0_i8, %26[0, 0, 0, 0] : memref<1x1x1x1xi8>
        %191 = affine.load %26[0, 0, 0, 0] : memref<1x1x1x1xi8>
        affine.store %191, %77[%c0_137, %arg2, %arg3, %190] : memref<1x64x34x34xi8>
        %192 = affine.apply #map27(%c0_33)
        affine.store %c0_i8, %26[0, 0, 0, 0] : memref<1x1x1x1xi8>
        %193 = affine.load %26[0, 0, 0, 0] : memref<1x1x1x1xi8>
        affine.store %193, %77[%c0_137, %arg2, %arg3, %192] : memref<1x64x34x34xi8>
        %194 = affine.apply #map28(%c0_33)
        affine.store %c0_i8, %26[0, 0, 0, 0] : memref<1x1x1x1xi8>
        %195 = affine.load %26[0, 0, 0, 0] : memref<1x1x1x1xi8>
        affine.store %195, %77[%c0_137, %arg2, %arg3, %194] : memref<1x64x34x34xi8>
        %196 = affine.apply #map29(%c0_33)
        affine.store %c0_i8, %26[0, 0, 0, 0] : memref<1x1x1x1xi8>
        %197 = affine.load %26[0, 0, 0, 0] : memref<1x1x1x1xi8>
        affine.store %197, %77[%c0_137, %arg2, %arg3, %196] : memref<1x64x34x34xi8>
        %198 = affine.apply #map30(%c0_33)
        affine.store %c0_i8, %26[0, 0, 0, 0] : memref<1x1x1x1xi8>
        %199 = affine.load %26[0, 0, 0, 0] : memref<1x1x1x1xi8>
        affine.store %199, %77[%c0_137, %arg2, %arg3, %198] : memref<1x64x34x34xi8>
        %200 = affine.apply #map31(%c0_33)
        affine.store %c0_i8, %26[0, 0, 0, 0] : memref<1x1x1x1xi8>
        %201 = affine.load %26[0, 0, 0, 0] : memref<1x1x1x1xi8>
        affine.store %201, %77[%c0_137, %arg2, %arg3, %200] : memref<1x64x34x34xi8>
        %202 = affine.apply #map32(%c0_33)
        affine.store %c0_i8, %26[0, 0, 0, 0] : memref<1x1x1x1xi8>
        %203 = affine.load %26[0, 0, 0, 0] : memref<1x1x1x1xi8>
        affine.store %203, %77[%c0_137, %arg2, %arg3, %202] : memref<1x64x34x34xi8>
      }
    }
    %78 = memref.subview %77[0, 0, 1, 1] [1, 64, 32, 32] [1, 1, 1, 1] : memref<1x64x34x34xi8> to memref<1x64x32x32xi8, #map35>
    %79 = memref.alloca() : memref<1x128x16x16xi8>
    %80 = memref.alloca() : memref<1x128x16x16xi8>
    %81 = memref.alloca() : memref<1x128x18x18xi8>
    %82 = memref.alloca() : memref<1x128x18x18xi8>
    affine.for %arg2 = 0 to 128 {
      affine.for %arg3 = 0 to 18 {
        affine.store %c0_i8, %20[0, 0, 0, 0] : memref<1x1x1x1xi8>
        %137 = affine.load %20[0, 0, 0, 0] : memref<1x1x1x1xi8>
        affine.store %137, %82[%c0_131, %arg2, %arg3, %c0_32] : memref<1x128x18x18xi8>
        %138 = affine.apply #map0(%c0_32)
        affine.store %c0_i8, %20[0, 0, 0, 0] : memref<1x1x1x1xi8>
        %139 = affine.load %20[0, 0, 0, 0] : memref<1x1x1x1xi8>
        affine.store %139, %82[%c0_131, %arg2, %arg3, %138] : memref<1x128x18x18xi8>
        %140 = affine.apply #map1(%c0_32)
        affine.store %c0_i8, %20[0, 0, 0, 0] : memref<1x1x1x1xi8>
        %141 = affine.load %20[0, 0, 0, 0] : memref<1x1x1x1xi8>
        affine.store %141, %82[%c0_131, %arg2, %arg3, %140] : memref<1x128x18x18xi8>
        %142 = affine.apply #map2(%c0_32)
        affine.store %c0_i8, %20[0, 0, 0, 0] : memref<1x1x1x1xi8>
        %143 = affine.load %20[0, 0, 0, 0] : memref<1x1x1x1xi8>
        affine.store %143, %82[%c0_131, %arg2, %arg3, %142] : memref<1x128x18x18xi8>
        %144 = affine.apply #map3(%c0_32)
        affine.store %c0_i8, %20[0, 0, 0, 0] : memref<1x1x1x1xi8>
        %145 = affine.load %20[0, 0, 0, 0] : memref<1x1x1x1xi8>
        affine.store %145, %82[%c0_131, %arg2, %arg3, %144] : memref<1x128x18x18xi8>
        %146 = affine.apply #map4(%c0_32)
        affine.store %c0_i8, %20[0, 0, 0, 0] : memref<1x1x1x1xi8>
        %147 = affine.load %20[0, 0, 0, 0] : memref<1x1x1x1xi8>
        affine.store %147, %82[%c0_131, %arg2, %arg3, %146] : memref<1x128x18x18xi8>
        %148 = affine.apply #map5(%c0_32)
        affine.store %c0_i8, %20[0, 0, 0, 0] : memref<1x1x1x1xi8>
        %149 = affine.load %20[0, 0, 0, 0] : memref<1x1x1x1xi8>
        affine.store %149, %82[%c0_131, %arg2, %arg3, %148] : memref<1x128x18x18xi8>
        %150 = affine.apply #map6(%c0_32)
        affine.store %c0_i8, %20[0, 0, 0, 0] : memref<1x1x1x1xi8>
        %151 = affine.load %20[0, 0, 0, 0] : memref<1x1x1x1xi8>
        affine.store %151, %82[%c0_131, %arg2, %arg3, %150] : memref<1x128x18x18xi8>
        %152 = affine.apply #map7(%c0_32)
        affine.store %c0_i8, %20[0, 0, 0, 0] : memref<1x1x1x1xi8>
        %153 = affine.load %20[0, 0, 0, 0] : memref<1x1x1x1xi8>
        affine.store %153, %82[%c0_131, %arg2, %arg3, %152] : memref<1x128x18x18xi8>
        %154 = affine.apply #map8(%c0_32)
        affine.store %c0_i8, %20[0, 0, 0, 0] : memref<1x1x1x1xi8>
        %155 = affine.load %20[0, 0, 0, 0] : memref<1x1x1x1xi8>
        affine.store %155, %82[%c0_131, %arg2, %arg3, %154] : memref<1x128x18x18xi8>
        %156 = affine.apply #map9(%c0_32)
        affine.store %c0_i8, %20[0, 0, 0, 0] : memref<1x1x1x1xi8>
        %157 = affine.load %20[0, 0, 0, 0] : memref<1x1x1x1xi8>
        affine.store %157, %82[%c0_131, %arg2, %arg3, %156] : memref<1x128x18x18xi8>
        %158 = affine.apply #map10(%c0_32)
        affine.store %c0_i8, %20[0, 0, 0, 0] : memref<1x1x1x1xi8>
        %159 = affine.load %20[0, 0, 0, 0] : memref<1x1x1x1xi8>
        affine.store %159, %82[%c0_131, %arg2, %arg3, %158] : memref<1x128x18x18xi8>
        %160 = affine.apply #map11(%c0_32)
        affine.store %c0_i8, %20[0, 0, 0, 0] : memref<1x1x1x1xi8>
        %161 = affine.load %20[0, 0, 0, 0] : memref<1x1x1x1xi8>
        affine.store %161, %82[%c0_131, %arg2, %arg3, %160] : memref<1x128x18x18xi8>
        %162 = affine.apply #map12(%c0_32)
        affine.store %c0_i8, %20[0, 0, 0, 0] : memref<1x1x1x1xi8>
        %163 = affine.load %20[0, 0, 0, 0] : memref<1x1x1x1xi8>
        affine.store %163, %82[%c0_131, %arg2, %arg3, %162] : memref<1x128x18x18xi8>
        %164 = affine.apply #map13(%c0_32)
        affine.store %c0_i8, %20[0, 0, 0, 0] : memref<1x1x1x1xi8>
        %165 = affine.load %20[0, 0, 0, 0] : memref<1x1x1x1xi8>
        affine.store %165, %82[%c0_131, %arg2, %arg3, %164] : memref<1x128x18x18xi8>
        %166 = affine.apply #map14(%c0_32)
        affine.store %c0_i8, %20[0, 0, 0, 0] : memref<1x1x1x1xi8>
        %167 = affine.load %20[0, 0, 0, 0] : memref<1x1x1x1xi8>
        affine.store %167, %82[%c0_131, %arg2, %arg3, %166] : memref<1x128x18x18xi8>
        %168 = affine.apply #map15(%c0_32)
        affine.store %c0_i8, %20[0, 0, 0, 0] : memref<1x1x1x1xi8>
        %169 = affine.load %20[0, 0, 0, 0] : memref<1x1x1x1xi8>
        affine.store %169, %82[%c0_131, %arg2, %arg3, %168] : memref<1x128x18x18xi8>
        %170 = affine.apply #map16(%c0_32)
        affine.store %c0_i8, %20[0, 0, 0, 0] : memref<1x1x1x1xi8>
        %171 = affine.load %20[0, 0, 0, 0] : memref<1x1x1x1xi8>
        affine.store %171, %82[%c0_131, %arg2, %arg3, %170] : memref<1x128x18x18xi8>
      }
    }
    %83 = memref.subview %82[0, 0, 1, 1] [1, 128, 16, 16] [1, 1, 1, 1] : memref<1x128x18x18xi8> to memref<1x128x16x16xi8, #map36>
    affine.for %arg2 = 0 to 128 {
      affine.for %arg3 = 0 to 16 {
        affine.for %arg4 = 0 to 16 {
          affine.store %c0_i8, %79[%c0_135, %arg2, %arg3, %arg4] : memref<1x128x16x16xi8>
          affine.for %arg5 = 0 to 64 {
            affine.for %arg6 = 0 to 3 {
              %141 = affine.apply #map37(%arg3, %arg6)
              %142 = affine.apply #map37(%arg4, %c0_31)
              %143 = affine.load %77[%c0_134, %arg5, %141, %142] : memref<1x64x34x34xi8>
              %144 = affine.load %42[%arg2, %arg5, %arg6, %c0_31] : memref<128x64x3x3xi8>
              %145 = affine.load %79[%c0_134, %arg2, %arg3, %arg4] : memref<1x128x16x16xi8>
              %146 = arith.muli %143, %144 : i8
              %147 = arith.addi %145, %146 : i8
              affine.store %147, %79[%c0_134, %arg2, %arg3, %arg4] : memref<1x128x16x16xi8>
              %148 = affine.apply #map0(%c0_31)
              %149 = affine.apply #map37(%arg4, %148)
              %150 = affine.load %77[%c0_134, %arg5, %141, %149] : memref<1x64x34x34xi8>
              %151 = affine.load %42[%arg2, %arg5, %arg6, %148] : memref<128x64x3x3xi8>
              %152 = affine.load %79[%c0_134, %arg2, %arg3, %arg4] : memref<1x128x16x16xi8>
              %153 = arith.muli %150, %151 : i8
              %154 = arith.addi %152, %153 : i8
              affine.store %154, %79[%c0_134, %arg2, %arg3, %arg4] : memref<1x128x16x16xi8>
              %155 = affine.apply #map1(%c0_31)
              %156 = affine.apply #map37(%arg4, %155)
              %157 = affine.load %77[%c0_134, %arg5, %141, %156] : memref<1x64x34x34xi8>
              %158 = affine.load %42[%arg2, %arg5, %arg6, %155] : memref<128x64x3x3xi8>
              %159 = affine.load %79[%c0_134, %arg2, %arg3, %arg4] : memref<1x128x16x16xi8>
              %160 = arith.muli %157, %158 : i8
              %161 = arith.addi %159, %160 : i8
              affine.store %161, %79[%c0_134, %arg2, %arg3, %arg4] : memref<1x128x16x16xi8>
            }
          }
          %137 = affine.load %79[%c0_171, %arg2, %arg3, %arg4] : memref<1x128x16x16xi8>
          %138 = arith.cmpi ugt, %137, %c0_i8 : i8
          %139 = arith.select %138, %137, %c0_i8 : i8
          affine.store %139, %25[0, 0, 0, 0] : memref<1x1x1x1xi8>
          %140 = affine.load %25[0, 0, 0, 0] : memref<1x1x1x1xi8>
          affine.store %140, %83[%c0_130, %arg2, %arg3, %arg4] : memref<1x128x16x16xi8, #map36>
        }
      }
    }
    affine.for %arg2 = 0 to 128 {
      affine.for %arg3 = 0 to 16 {
        affine.for %arg4 = 0 to 16 {
          affine.store %c0_i8, %79[%c0_129, %arg2, %arg3, %arg4] : memref<1x128x16x16xi8>
          affine.for %arg5 = 0 to 128 {
            affine.for %arg6 = 0 to 3 {
              %137 = affine.apply #map34(%arg3, %arg6)
              %138 = affine.apply #map34(%arg4, %c0_30)
              %139 = affine.load %82[%c0_128, %arg5, %137, %138] : memref<1x128x18x18xi8>
              %140 = affine.load %44[%arg2, %arg5, %arg6, %c0_30] : memref<128x128x3x3xi8>
              %141 = affine.load %79[%c0_128, %arg2, %arg3, %arg4] : memref<1x128x16x16xi8>
              %142 = arith.muli %139, %140 : i8
              %143 = arith.addi %141, %142 : i8
              affine.store %143, %79[%c0_128, %arg2, %arg3, %arg4] : memref<1x128x16x16xi8>
              %144 = affine.apply #map0(%c0_30)
              %145 = affine.apply #map34(%arg4, %144)
              %146 = affine.load %82[%c0_128, %arg5, %137, %145] : memref<1x128x18x18xi8>
              %147 = affine.load %44[%arg2, %arg5, %arg6, %144] : memref<128x128x3x3xi8>
              %148 = affine.load %79[%c0_128, %arg2, %arg3, %arg4] : memref<1x128x16x16xi8>
              %149 = arith.muli %146, %147 : i8
              %150 = arith.addi %148, %149 : i8
              affine.store %150, %79[%c0_128, %arg2, %arg3, %arg4] : memref<1x128x16x16xi8>
              %151 = affine.apply #map1(%c0_30)
              %152 = affine.apply #map34(%arg4, %151)
              %153 = affine.load %82[%c0_128, %arg5, %137, %152] : memref<1x128x18x18xi8>
              %154 = affine.load %44[%arg2, %arg5, %arg6, %151] : memref<128x128x3x3xi8>
              %155 = affine.load %79[%c0_128, %arg2, %arg3, %arg4] : memref<1x128x16x16xi8>
              %156 = arith.muli %153, %154 : i8
              %157 = arith.addi %155, %156 : i8
              affine.store %157, %79[%c0_128, %arg2, %arg3, %arg4] : memref<1x128x16x16xi8>
            }
          }
        }
      }
    }
    affine.for %arg2 = 0 to 16 {
      %137 = affine.apply #map38(%arg2)
      affine.for %arg3 = 0 to 64 {
        affine.store %c0_i8, %56[%c0_155, %arg3, %137, %c0_29] : memref<1x64x32x32xi8>
        %143 = affine.apply #map0(%c0_29)
        affine.store %c0_i8, %56[%c0_155, %arg3, %137, %143] : memref<1x64x32x32xi8>
        %144 = affine.apply #map1(%c0_29)
        affine.store %c0_i8, %56[%c0_155, %arg3, %137, %144] : memref<1x64x32x32xi8>
        %145 = affine.apply #map2(%c0_29)
        affine.store %c0_i8, %56[%c0_155, %arg3, %137, %145] : memref<1x64x32x32xi8>
        %146 = affine.apply #map3(%c0_29)
        affine.store %c0_i8, %56[%c0_155, %arg3, %137, %146] : memref<1x64x32x32xi8>
        %147 = affine.apply #map4(%c0_29)
        affine.store %c0_i8, %56[%c0_155, %arg3, %137, %147] : memref<1x64x32x32xi8>
        %148 = affine.apply #map5(%c0_29)
        affine.store %c0_i8, %56[%c0_155, %arg3, %137, %148] : memref<1x64x32x32xi8>
        %149 = affine.apply #map6(%c0_29)
        affine.store %c0_i8, %56[%c0_155, %arg3, %137, %149] : memref<1x64x32x32xi8>
        %150 = affine.apply #map7(%c0_29)
        affine.store %c0_i8, %56[%c0_155, %arg3, %137, %150] : memref<1x64x32x32xi8>
        %151 = affine.apply #map8(%c0_29)
        affine.store %c0_i8, %56[%c0_155, %arg3, %137, %151] : memref<1x64x32x32xi8>
        %152 = affine.apply #map9(%c0_29)
        affine.store %c0_i8, %56[%c0_155, %arg3, %137, %152] : memref<1x64x32x32xi8>
        %153 = affine.apply #map10(%c0_29)
        affine.store %c0_i8, %56[%c0_155, %arg3, %137, %153] : memref<1x64x32x32xi8>
        %154 = affine.apply #map11(%c0_29)
        affine.store %c0_i8, %56[%c0_155, %arg3, %137, %154] : memref<1x64x32x32xi8>
        %155 = affine.apply #map12(%c0_29)
        affine.store %c0_i8, %56[%c0_155, %arg3, %137, %155] : memref<1x64x32x32xi8>
        %156 = affine.apply #map13(%c0_29)
        affine.store %c0_i8, %56[%c0_155, %arg3, %137, %156] : memref<1x64x32x32xi8>
        %157 = affine.apply #map14(%c0_29)
        affine.store %c0_i8, %56[%c0_155, %arg3, %137, %157] : memref<1x64x32x32xi8>
        %158 = affine.apply #map15(%c0_29)
        affine.store %c0_i8, %56[%c0_155, %arg3, %137, %158] : memref<1x64x32x32xi8>
        %159 = affine.apply #map16(%c0_29)
        affine.store %c0_i8, %56[%c0_155, %arg3, %137, %159] : memref<1x64x32x32xi8>
        %160 = affine.apply #map17(%c0_29)
        affine.store %c0_i8, %56[%c0_155, %arg3, %137, %160] : memref<1x64x32x32xi8>
        %161 = affine.apply #map18(%c0_29)
        affine.store %c0_i8, %56[%c0_155, %arg3, %137, %161] : memref<1x64x32x32xi8>
        %162 = affine.apply #map19(%c0_29)
        affine.store %c0_i8, %56[%c0_155, %arg3, %137, %162] : memref<1x64x32x32xi8>
        %163 = affine.apply #map20(%c0_29)
        affine.store %c0_i8, %56[%c0_155, %arg3, %137, %163] : memref<1x64x32x32xi8>
        %164 = affine.apply #map21(%c0_29)
        affine.store %c0_i8, %56[%c0_155, %arg3, %137, %164] : memref<1x64x32x32xi8>
        %165 = affine.apply #map22(%c0_29)
        affine.store %c0_i8, %56[%c0_155, %arg3, %137, %165] : memref<1x64x32x32xi8>
        %166 = affine.apply #map23(%c0_29)
        affine.store %c0_i8, %56[%c0_155, %arg3, %137, %166] : memref<1x64x32x32xi8>
        %167 = affine.apply #map24(%c0_29)
        affine.store %c0_i8, %56[%c0_155, %arg3, %137, %167] : memref<1x64x32x32xi8>
        %168 = affine.apply #map25(%c0_29)
        affine.store %c0_i8, %56[%c0_155, %arg3, %137, %168] : memref<1x64x32x32xi8>
        %169 = affine.apply #map26(%c0_29)
        affine.store %c0_i8, %56[%c0_155, %arg3, %137, %169] : memref<1x64x32x32xi8>
        %170 = affine.apply #map27(%c0_29)
        affine.store %c0_i8, %56[%c0_155, %arg3, %137, %170] : memref<1x64x32x32xi8>
        %171 = affine.apply #map28(%c0_29)
        affine.store %c0_i8, %56[%c0_155, %arg3, %137, %171] : memref<1x64x32x32xi8>
        %172 = affine.apply #map29(%c0_29)
        affine.store %c0_i8, %56[%c0_155, %arg3, %137, %172] : memref<1x64x32x32xi8>
      }
      %138 = affine.apply #map38(%arg2)
      affine.for %arg3 = 0 to 64 {
        affine.for %arg4 = 0 to 31 {
          affine.for %arg5 = 0 to 64 {
            affine.for %arg6 = 0 to 3 {
              %143 = affine.apply #map39(%arg6, %arg2)
              %144 = affine.apply #map34(%arg4, %c0_28)
              %145 = affine.load %63[%c0_154, %arg5, %143, %144] : memref<1x64x34x34xi8>
              %146 = affine.load %41[%arg3, %arg5, %arg6, %c0_28] : memref<64x64x3x3xi8>
              %147 = affine.load %56[%c0_154, %arg3, %138, %arg4] : memref<1x64x32x32xi8>
              %148 = arith.muli %145, %146 : i8
              %149 = arith.addi %147, %148 : i8
              affine.store %149, %56[%c0_154, %arg3, %138, %arg4] : memref<1x64x32x32xi8>
              %150 = affine.apply #map0(%c0_28)
              %151 = affine.apply #map34(%arg4, %150)
              %152 = affine.load %63[%c0_154, %arg5, %143, %151] : memref<1x64x34x34xi8>
              %153 = affine.load %41[%arg3, %arg5, %arg6, %150] : memref<64x64x3x3xi8>
              %154 = affine.load %56[%c0_154, %arg3, %138, %arg4] : memref<1x64x32x32xi8>
              %155 = arith.muli %152, %153 : i8
              %156 = arith.addi %154, %155 : i8
              affine.store %156, %56[%c0_154, %arg3, %138, %arg4] : memref<1x64x32x32xi8>
              %157 = affine.apply #map1(%c0_28)
              %158 = affine.apply #map34(%arg4, %157)
              %159 = affine.load %63[%c0_154, %arg5, %143, %158] : memref<1x64x34x34xi8>
              %160 = affine.load %41[%arg3, %arg5, %arg6, %157] : memref<64x64x3x3xi8>
              %161 = affine.load %56[%c0_154, %arg3, %138, %arg4] : memref<1x64x32x32xi8>
              %162 = arith.muli %159, %160 : i8
              %163 = arith.addi %161, %162 : i8
              affine.store %163, %56[%c0_154, %arg3, %138, %arg4] : memref<1x64x32x32xi8>
            }
          }
        }
      }
      %139 = affine.apply #map38(%arg2)
      affine.for %arg3 = 0 to 64 {
        affine.for %arg4 = 0 to 31 {
          affine.store %c0_i8, %56[%c0_148, %arg3, %139, %arg4] : memref<1x64x32x32xi8>
          affine.for %arg5 = 0 to 64 {
            affine.for %arg6 = 0 to 3 {
              %147 = affine.apply #map39(%arg6, %arg2)
              %148 = affine.apply #map34(%arg4, %c0_27)
              %149 = affine.load %68[%c0_147, %arg5, %147, %148] : memref<1x64x34x34xi8>
              %150 = affine.load %41[%arg3, %arg5, %arg6, %c0_27] : memref<64x64x3x3xi8>
              %151 = affine.load %56[%c0_147, %arg3, %139, %arg4] : memref<1x64x32x32xi8>
              %152 = arith.muli %149, %150 : i8
              %153 = arith.addi %151, %152 : i8
              affine.store %153, %56[%c0_147, %arg3, %139, %arg4] : memref<1x64x32x32xi8>
              %154 = affine.apply #map0(%c0_27)
              %155 = affine.apply #map34(%arg4, %154)
              %156 = affine.load %68[%c0_147, %arg5, %147, %155] : memref<1x64x34x34xi8>
              %157 = affine.load %41[%arg3, %arg5, %arg6, %154] : memref<64x64x3x3xi8>
              %158 = affine.load %56[%c0_147, %arg3, %139, %arg4] : memref<1x64x32x32xi8>
              %159 = arith.muli %156, %157 : i8
              %160 = arith.addi %158, %159 : i8
              affine.store %160, %56[%c0_147, %arg3, %139, %arg4] : memref<1x64x32x32xi8>
              %161 = affine.apply #map1(%c0_27)
              %162 = affine.apply #map34(%arg4, %161)
              %163 = affine.load %68[%c0_147, %arg5, %147, %162] : memref<1x64x34x34xi8>
              %164 = affine.load %41[%arg3, %arg5, %arg6, %161] : memref<64x64x3x3xi8>
              %165 = affine.load %56[%c0_147, %arg3, %139, %arg4] : memref<1x64x32x32xi8>
              %166 = arith.muli %163, %164 : i8
              %167 = arith.addi %165, %166 : i8
              affine.store %167, %56[%c0_147, %arg3, %139, %arg4] : memref<1x64x32x32xi8>
            }
          }
          %143 = affine.load %56[%c0_171, %arg3, %139, %arg4] : memref<1x64x32x32xi8>
          %144 = arith.cmpi ugt, %143, %c0_i8 : i8
          %145 = arith.select %144, %143, %c0_i8 : i8
          affine.store %145, %37[0, 0, 0, 0] : memref<1x1x1x1xi8>
          %146 = affine.load %37[0, 0, 0, 0] : memref<1x1x1x1xi8>
          affine.store %146, %73[%c0_143, %arg3, %139, %arg4] : memref<1x64x32x32xi8, #map35>
        }
      }
      %140 = affine.apply #map38(%arg2)
      %141 = affine.apply #map38(%arg2)
      %142 = affine.apply #map38(%arg2)
      affine.for %arg3 = 0 to 128 {
        affine.for %arg4 = 0 to 16 {
          affine.for %arg5 = 0 to 128 {
            affine.for %arg6 = 0 to 3 {
              %146 = affine.apply #map34(%arg2, %arg6)
              %147 = affine.apply #map34(%arg4, %c0_26)
              %148 = affine.load %82[%c0_128, %arg5, %146, %147] : memref<1x128x18x18xi8>
              %149 = affine.load %44[%arg3, %arg5, %arg6, %c0_26] : memref<128x128x3x3xi8>
              %150 = affine.load %79[%c0_128, %arg3, %arg2, %arg4] : memref<1x128x16x16xi8>
              %151 = arith.muli %148, %149 : i8
              %152 = arith.addi %150, %151 : i8
              affine.store %152, %79[%c0_128, %arg3, %arg2, %arg4] : memref<1x128x16x16xi8>
              %153 = affine.apply #map0(%c0_26)
              %154 = affine.apply #map34(%arg4, %153)
              %155 = affine.load %82[%c0_128, %arg5, %146, %154] : memref<1x128x18x18xi8>
              %156 = affine.load %44[%arg3, %arg5, %arg6, %153] : memref<128x128x3x3xi8>
              %157 = affine.load %79[%c0_128, %arg3, %arg2, %arg4] : memref<1x128x16x16xi8>
              %158 = arith.muli %155, %156 : i8
              %159 = arith.addi %157, %158 : i8
              affine.store %159, %79[%c0_128, %arg3, %arg2, %arg4] : memref<1x128x16x16xi8>
              %160 = affine.apply #map1(%c0_26)
              %161 = affine.apply #map34(%arg4, %160)
              %162 = affine.load %82[%c0_128, %arg5, %146, %161] : memref<1x128x18x18xi8>
              %163 = affine.load %44[%arg3, %arg5, %arg6, %160] : memref<128x128x3x3xi8>
              %164 = affine.load %79[%c0_128, %arg3, %arg2, %arg4] : memref<1x128x16x16xi8>
              %165 = arith.muli %162, %163 : i8
              %166 = arith.addi %164, %165 : i8
              affine.store %166, %79[%c0_128, %arg3, %arg2, %arg4] : memref<1x128x16x16xi8>
            }
          }
          affine.store %c0_i8, %79[%c0_127, %arg3, %arg2, %arg4] : memref<1x128x16x16xi8>
          %143 = affine.apply #map38(%arg4)
          %144 = affine.apply #map38(%arg4)
          %145 = affine.apply #map38(%arg4)
          affine.for %arg5 = 0 to 64 {
            %146 = affine.load %57[%c0_162, %arg5, %140, %143] : memref<1x64x32x32xi8>
            affine.store %146, %60[%c0_162, %arg5, %140, %143] : memref<1x64x32x32xi8, #map35>
            %147 = affine.load %56[%c0_171, %arg5, %140, %143] : memref<1x64x32x32xi8>
            %148 = affine.load %57[%c0_171, %arg5, %140, %143] : memref<1x64x32x32xi8>
            %149 = arith.addi %147, %148 : i8
            affine.store %149, %30[0, 0, 0, 0] : memref<1x1x1x1xi8>
            %150 = affine.load %30[0, 0, 0, 0] : memref<1x1x1x1xi8>
            %151 = arith.cmpi ugt, %150, %c0_i8 : i8
            %152 = arith.select %151, %150, %c0_i8 : i8
            affine.store %152, %1[0, 0, 0, 0] : memref<1x1x1x1xi8>
            %153 = affine.load %1[0, 0, 0, 0] : memref<1x1x1x1xi8>
            affine.store %153, %69[%c0_149, %arg5, %141, %144] : memref<1x64x32x32xi8, #map35>
            affine.store %c0_i8, %56[%c0_142, %arg5, %141, %144] : memref<1x64x32x32xi8>
            affine.for %arg6 = 0 to 64 {
              affine.for %arg7 = 0 to 3 {
                %166 = affine.apply #map39(%arg7, %arg2)
                %167 = affine.apply #map39(%c0_25, %arg4)
                %168 = affine.load %72[%c0_141, %arg6, %166, %167] : memref<1x64x34x34xi8>
                %169 = affine.load %41[%arg5, %arg6, %arg7, %c0_25] : memref<64x64x3x3xi8>
                %170 = affine.load %56[%c0_141, %arg5, %141, %144] : memref<1x64x32x32xi8>
                %171 = arith.muli %168, %169 : i8
                %172 = arith.addi %170, %171 : i8
                affine.store %172, %56[%c0_141, %arg5, %141, %144] : memref<1x64x32x32xi8>
                %173 = affine.apply #map0(%c0_25)
                %174 = affine.apply #map39(%173, %arg4)
                %175 = affine.load %72[%c0_141, %arg6, %166, %174] : memref<1x64x34x34xi8>
                %176 = affine.load %41[%arg5, %arg6, %arg7, %173] : memref<64x64x3x3xi8>
                %177 = affine.load %56[%c0_141, %arg5, %141, %144] : memref<1x64x32x32xi8>
                %178 = arith.muli %175, %176 : i8
                %179 = arith.addi %177, %178 : i8
                affine.store %179, %56[%c0_141, %arg5, %141, %144] : memref<1x64x32x32xi8>
                %180 = affine.apply #map1(%c0_25)
                %181 = affine.apply #map39(%180, %arg4)
                %182 = affine.load %72[%c0_141, %arg6, %166, %181] : memref<1x64x34x34xi8>
                %183 = affine.load %41[%arg5, %arg6, %arg7, %180] : memref<64x64x3x3xi8>
                %184 = affine.load %56[%c0_141, %arg5, %141, %144] : memref<1x64x32x32xi8>
                %185 = arith.muli %182, %183 : i8
                %186 = arith.addi %184, %185 : i8
                affine.store %186, %56[%c0_141, %arg5, %141, %144] : memref<1x64x32x32xi8>
              }
            }
            %154 = affine.load %56[%c0_171, %arg5, %141, %144] : memref<1x64x32x32xi8>
            %155 = affine.load %1[0, 0, 0, 0] : memref<1x1x1x1xi8>
            %156 = arith.addi %154, %155 : i8
            affine.store %156, %17[0, 0, 0, 0] : memref<1x1x1x1xi8>
            %157 = affine.load %17[0, 0, 0, 0] : memref<1x1x1x1xi8>
            %158 = arith.cmpi ugt, %157, %c0_i8 : i8
            %159 = arith.select %158, %157, %c0_i8 : i8
            affine.store %159, %2[0, 0, 0, 0] : memref<1x1x1x1xi8>
            %160 = affine.load %2[0, 0, 0, 0] : memref<1x1x1x1xi8>
            affine.store %160, %78[%c0_136, %arg5, %142, %145] : memref<1x64x32x32xi8, #map35>
            %161 = affine.load %2[0, 0, 0, 0] : memref<1x1x1x1xi8>
            %162 = affine.load %43[%arg3, %arg5, %c0_125, %c0_126] : memref<128x64x1x1xi8>
            %163 = affine.load %79[%c0_124, %arg3, %arg2, %arg4] : memref<1x128x16x16xi8>
            %164 = arith.muli %161, %162 : i8
            %165 = arith.addi %163, %164 : i8
            affine.store %165, %79[%c0_124, %arg3, %arg2, %arg4] : memref<1x128x16x16xi8>
          }
        }
      }
    }
    %84 = memref.alloca() : memref<1x128x16x16xi8>
    %85 = memref.alloca() : memref<1x128x16x16xi8>
    affine.for %arg2 = 0 to 128 {
      affine.for %arg3 = 0 to 16 {
        %137 = affine.apply #map38(%arg3)
        %138 = affine.apply #map38(%arg3)
        %139 = affine.apply #map38(%arg3)
        %140 = affine.apply #map38(%arg3)
        %141 = affine.apply #map38(%arg3)
        %142 = affine.apply #map38(%arg3)
        affine.for %arg4 = 0 to 16 {
          affine.for %arg5 = 0 to 64 {
            affine.store %c0_i8, %56[%c0_155, %arg5, %137, %c0_24] : memref<1x64x32x32xi8>
            %152 = affine.apply #map0(%c0_24)
            affine.store %c0_i8, %56[%c0_155, %arg5, %137, %152] : memref<1x64x32x32xi8>
            %153 = affine.apply #map1(%c0_24)
            affine.store %c0_i8, %56[%c0_155, %arg5, %137, %153] : memref<1x64x32x32xi8>
            %154 = affine.apply #map2(%c0_24)
            affine.store %c0_i8, %56[%c0_155, %arg5, %137, %154] : memref<1x64x32x32xi8>
            %155 = affine.apply #map3(%c0_24)
            affine.store %c0_i8, %56[%c0_155, %arg5, %137, %155] : memref<1x64x32x32xi8>
            %156 = affine.apply #map4(%c0_24)
            affine.store %c0_i8, %56[%c0_155, %arg5, %137, %156] : memref<1x64x32x32xi8>
            %157 = affine.apply #map5(%c0_24)
            affine.store %c0_i8, %56[%c0_155, %arg5, %137, %157] : memref<1x64x32x32xi8>
            %158 = affine.apply #map6(%c0_24)
            affine.store %c0_i8, %56[%c0_155, %arg5, %137, %158] : memref<1x64x32x32xi8>
            %159 = affine.apply #map7(%c0_24)
            affine.store %c0_i8, %56[%c0_155, %arg5, %137, %159] : memref<1x64x32x32xi8>
            %160 = affine.apply #map8(%c0_24)
            affine.store %c0_i8, %56[%c0_155, %arg5, %137, %160] : memref<1x64x32x32xi8>
            %161 = affine.apply #map9(%c0_24)
            affine.store %c0_i8, %56[%c0_155, %arg5, %137, %161] : memref<1x64x32x32xi8>
            %162 = affine.apply #map10(%c0_24)
            affine.store %c0_i8, %56[%c0_155, %arg5, %137, %162] : memref<1x64x32x32xi8>
            %163 = affine.apply #map11(%c0_24)
            affine.store %c0_i8, %56[%c0_155, %arg5, %137, %163] : memref<1x64x32x32xi8>
            %164 = affine.apply #map12(%c0_24)
            affine.store %c0_i8, %56[%c0_155, %arg5, %137, %164] : memref<1x64x32x32xi8>
            %165 = affine.apply #map13(%c0_24)
            affine.store %c0_i8, %56[%c0_155, %arg5, %137, %165] : memref<1x64x32x32xi8>
            %166 = affine.apply #map14(%c0_24)
            affine.store %c0_i8, %56[%c0_155, %arg5, %137, %166] : memref<1x64x32x32xi8>
            %167 = affine.apply #map15(%c0_24)
            affine.store %c0_i8, %56[%c0_155, %arg5, %137, %167] : memref<1x64x32x32xi8>
            %168 = affine.apply #map16(%c0_24)
            affine.store %c0_i8, %56[%c0_155, %arg5, %137, %168] : memref<1x64x32x32xi8>
            %169 = affine.apply #map17(%c0_24)
            affine.store %c0_i8, %56[%c0_155, %arg5, %137, %169] : memref<1x64x32x32xi8>
            %170 = affine.apply #map18(%c0_24)
            affine.store %c0_i8, %56[%c0_155, %arg5, %137, %170] : memref<1x64x32x32xi8>
            %171 = affine.apply #map19(%c0_24)
            affine.store %c0_i8, %56[%c0_155, %arg5, %137, %171] : memref<1x64x32x32xi8>
            %172 = affine.apply #map20(%c0_24)
            affine.store %c0_i8, %56[%c0_155, %arg5, %137, %172] : memref<1x64x32x32xi8>
            %173 = affine.apply #map21(%c0_24)
            affine.store %c0_i8, %56[%c0_155, %arg5, %137, %173] : memref<1x64x32x32xi8>
            %174 = affine.apply #map22(%c0_24)
            affine.store %c0_i8, %56[%c0_155, %arg5, %137, %174] : memref<1x64x32x32xi8>
            %175 = affine.apply #map23(%c0_24)
            affine.store %c0_i8, %56[%c0_155, %arg5, %137, %175] : memref<1x64x32x32xi8>
            %176 = affine.apply #map24(%c0_24)
            affine.store %c0_i8, %56[%c0_155, %arg5, %137, %176] : memref<1x64x32x32xi8>
            %177 = affine.apply #map25(%c0_24)
            affine.store %c0_i8, %56[%c0_155, %arg5, %137, %177] : memref<1x64x32x32xi8>
            %178 = affine.apply #map26(%c0_24)
            affine.store %c0_i8, %56[%c0_155, %arg5, %137, %178] : memref<1x64x32x32xi8>
            %179 = affine.apply #map27(%c0_24)
            affine.store %c0_i8, %56[%c0_155, %arg5, %137, %179] : memref<1x64x32x32xi8>
            %180 = affine.apply #map28(%c0_24)
            affine.store %c0_i8, %56[%c0_155, %arg5, %137, %180] : memref<1x64x32x32xi8>
            %181 = affine.apply #map29(%c0_24)
            affine.store %c0_i8, %56[%c0_155, %arg5, %137, %181] : memref<1x64x32x32xi8>
          }
          affine.for %arg5 = 0 to 64 {
            affine.for %arg6 = 0 to 31 {
              affine.for %arg7 = 0 to 64 {
                affine.for %arg8 = 0 to 3 {
                  %152 = affine.apply #map39(%arg8, %arg3)
                  %153 = affine.apply #map34(%arg6, %c0_23)
                  %154 = affine.load %63[%c0_154, %arg7, %152, %153] : memref<1x64x34x34xi8>
                  %155 = affine.load %41[%arg5, %arg7, %arg8, %c0_23] : memref<64x64x3x3xi8>
                  %156 = affine.load %56[%c0_154, %arg5, %138, %arg6] : memref<1x64x32x32xi8>
                  %157 = arith.muli %154, %155 : i8
                  %158 = arith.addi %156, %157 : i8
                  affine.store %158, %56[%c0_154, %arg5, %138, %arg6] : memref<1x64x32x32xi8>
                  %159 = affine.apply #map0(%c0_23)
                  %160 = affine.apply #map34(%arg6, %159)
                  %161 = affine.load %63[%c0_154, %arg7, %152, %160] : memref<1x64x34x34xi8>
                  %162 = affine.load %41[%arg5, %arg7, %arg8, %159] : memref<64x64x3x3xi8>
                  %163 = affine.load %56[%c0_154, %arg5, %138, %arg6] : memref<1x64x32x32xi8>
                  %164 = arith.muli %161, %162 : i8
                  %165 = arith.addi %163, %164 : i8
                  affine.store %165, %56[%c0_154, %arg5, %138, %arg6] : memref<1x64x32x32xi8>
                  %166 = affine.apply #map1(%c0_23)
                  %167 = affine.apply #map34(%arg6, %166)
                  %168 = affine.load %63[%c0_154, %arg7, %152, %167] : memref<1x64x34x34xi8>
                  %169 = affine.load %41[%arg5, %arg7, %arg8, %166] : memref<64x64x3x3xi8>
                  %170 = affine.load %56[%c0_154, %arg5, %138, %arg6] : memref<1x64x32x32xi8>
                  %171 = arith.muli %168, %169 : i8
                  %172 = arith.addi %170, %171 : i8
                  affine.store %172, %56[%c0_154, %arg5, %138, %arg6] : memref<1x64x32x32xi8>
                }
              }
            }
          }
          affine.for %arg5 = 0 to 64 {
            affine.for %arg6 = 0 to 31 {
              affine.store %c0_i8, %56[%c0_148, %arg5, %139, %arg6] : memref<1x64x32x32xi8>
              affine.for %arg7 = 0 to 64 {
                affine.for %arg8 = 0 to 3 {
                  %156 = affine.apply #map39(%arg8, %arg3)
                  %157 = affine.apply #map34(%arg6, %c0_22)
                  %158 = affine.load %68[%c0_147, %arg7, %156, %157] : memref<1x64x34x34xi8>
                  %159 = affine.load %41[%arg5, %arg7, %arg8, %c0_22] : memref<64x64x3x3xi8>
                  %160 = affine.load %56[%c0_147, %arg5, %139, %arg6] : memref<1x64x32x32xi8>
                  %161 = arith.muli %158, %159 : i8
                  %162 = arith.addi %160, %161 : i8
                  affine.store %162, %56[%c0_147, %arg5, %139, %arg6] : memref<1x64x32x32xi8>
                  %163 = affine.apply #map0(%c0_22)
                  %164 = affine.apply #map34(%arg6, %163)
                  %165 = affine.load %68[%c0_147, %arg7, %156, %164] : memref<1x64x34x34xi8>
                  %166 = affine.load %41[%arg5, %arg7, %arg8, %163] : memref<64x64x3x3xi8>
                  %167 = affine.load %56[%c0_147, %arg5, %139, %arg6] : memref<1x64x32x32xi8>
                  %168 = arith.muli %165, %166 : i8
                  %169 = arith.addi %167, %168 : i8
                  affine.store %169, %56[%c0_147, %arg5, %139, %arg6] : memref<1x64x32x32xi8>
                  %170 = affine.apply #map1(%c0_22)
                  %171 = affine.apply #map34(%arg6, %170)
                  %172 = affine.load %68[%c0_147, %arg7, %156, %171] : memref<1x64x34x34xi8>
                  %173 = affine.load %41[%arg5, %arg7, %arg8, %170] : memref<64x64x3x3xi8>
                  %174 = affine.load %56[%c0_147, %arg5, %139, %arg6] : memref<1x64x32x32xi8>
                  %175 = arith.muli %172, %173 : i8
                  %176 = arith.addi %174, %175 : i8
                  affine.store %176, %56[%c0_147, %arg5, %139, %arg6] : memref<1x64x32x32xi8>
                }
              }
              %152 = affine.load %56[%c0_171, %arg5, %139, %arg6] : memref<1x64x32x32xi8>
              %153 = arith.cmpi ugt, %152, %c0_i8 : i8
              %154 = arith.select %153, %152, %c0_i8 : i8
              affine.store %154, %37[0, 0, 0, 0] : memref<1x1x1x1xi8>
              %155 = affine.load %37[0, 0, 0, 0] : memref<1x1x1x1xi8>
              affine.store %155, %73[%c0_143, %arg5, %139, %arg6] : memref<1x64x32x32xi8, #map35>
            }
          }
          affine.for %arg5 = 0 to 128 {
            affine.for %arg6 = 0 to 3 {
              %152 = affine.apply #map34(%arg3, %arg6)
              %153 = affine.apply #map34(%arg4, %c0_21)
              %154 = affine.load %82[%c0_128, %arg5, %152, %153] : memref<1x128x18x18xi8>
              %155 = affine.load %44[%arg2, %arg5, %arg6, %c0_21] : memref<128x128x3x3xi8>
              %156 = affine.load %79[%c0_128, %arg2, %arg3, %arg4] : memref<1x128x16x16xi8>
              %157 = arith.muli %154, %155 : i8
              %158 = arith.addi %156, %157 : i8
              affine.store %158, %79[%c0_128, %arg2, %arg3, %arg4] : memref<1x128x16x16xi8>
              %159 = affine.apply #map0(%c0_21)
              %160 = affine.apply #map34(%arg4, %159)
              %161 = affine.load %82[%c0_128, %arg5, %152, %160] : memref<1x128x18x18xi8>
              %162 = affine.load %44[%arg2, %arg5, %arg6, %159] : memref<128x128x3x3xi8>
              %163 = affine.load %79[%c0_128, %arg2, %arg3, %arg4] : memref<1x128x16x16xi8>
              %164 = arith.muli %161, %162 : i8
              %165 = arith.addi %163, %164 : i8
              affine.store %165, %79[%c0_128, %arg2, %arg3, %arg4] : memref<1x128x16x16xi8>
              %166 = affine.apply #map1(%c0_21)
              %167 = affine.apply #map34(%arg4, %166)
              %168 = affine.load %82[%c0_128, %arg5, %152, %167] : memref<1x128x18x18xi8>
              %169 = affine.load %44[%arg2, %arg5, %arg6, %166] : memref<128x128x3x3xi8>
              %170 = affine.load %79[%c0_128, %arg2, %arg3, %arg4] : memref<1x128x16x16xi8>
              %171 = arith.muli %168, %169 : i8
              %172 = arith.addi %170, %171 : i8
              affine.store %172, %79[%c0_128, %arg2, %arg3, %arg4] : memref<1x128x16x16xi8>
            }
          }
          affine.store %c0_i8, %79[%c0_127, %arg2, %arg3, %arg4] : memref<1x128x16x16xi8>
          %143 = affine.apply #map38(%arg4)
          %144 = affine.apply #map38(%arg4)
          %145 = affine.apply #map38(%arg4)
          affine.for %arg5 = 0 to 64 {
            %152 = affine.load %57[%c0_162, %arg5, %140, %143] : memref<1x64x32x32xi8>
            affine.store %152, %60[%c0_162, %arg5, %140, %143] : memref<1x64x32x32xi8, #map35>
            %153 = affine.load %56[%c0_171, %arg5, %140, %143] : memref<1x64x32x32xi8>
            %154 = affine.load %57[%c0_171, %arg5, %140, %143] : memref<1x64x32x32xi8>
            %155 = arith.addi %153, %154 : i8
            affine.store %155, %30[0, 0, 0, 0] : memref<1x1x1x1xi8>
            %156 = affine.load %30[0, 0, 0, 0] : memref<1x1x1x1xi8>
            %157 = arith.cmpi ugt, %156, %c0_i8 : i8
            %158 = arith.select %157, %156, %c0_i8 : i8
            affine.store %158, %1[0, 0, 0, 0] : memref<1x1x1x1xi8>
            %159 = affine.load %1[0, 0, 0, 0] : memref<1x1x1x1xi8>
            affine.store %159, %69[%c0_149, %arg5, %141, %144] : memref<1x64x32x32xi8, #map35>
            affine.store %c0_i8, %56[%c0_142, %arg5, %141, %144] : memref<1x64x32x32xi8>
            affine.for %arg6 = 0 to 64 {
              affine.for %arg7 = 0 to 3 {
                %172 = affine.apply #map39(%arg7, %arg3)
                %173 = affine.apply #map39(%c0_20, %arg4)
                %174 = affine.load %72[%c0_141, %arg6, %172, %173] : memref<1x64x34x34xi8>
                %175 = affine.load %41[%arg5, %arg6, %arg7, %c0_20] : memref<64x64x3x3xi8>
                %176 = affine.load %56[%c0_141, %arg5, %141, %144] : memref<1x64x32x32xi8>
                %177 = arith.muli %174, %175 : i8
                %178 = arith.addi %176, %177 : i8
                affine.store %178, %56[%c0_141, %arg5, %141, %144] : memref<1x64x32x32xi8>
                %179 = affine.apply #map0(%c0_20)
                %180 = affine.apply #map39(%179, %arg4)
                %181 = affine.load %72[%c0_141, %arg6, %172, %180] : memref<1x64x34x34xi8>
                %182 = affine.load %41[%arg5, %arg6, %arg7, %179] : memref<64x64x3x3xi8>
                %183 = affine.load %56[%c0_141, %arg5, %141, %144] : memref<1x64x32x32xi8>
                %184 = arith.muli %181, %182 : i8
                %185 = arith.addi %183, %184 : i8
                affine.store %185, %56[%c0_141, %arg5, %141, %144] : memref<1x64x32x32xi8>
                %186 = affine.apply #map1(%c0_20)
                %187 = affine.apply #map39(%186, %arg4)
                %188 = affine.load %72[%c0_141, %arg6, %172, %187] : memref<1x64x34x34xi8>
                %189 = affine.load %41[%arg5, %arg6, %arg7, %186] : memref<64x64x3x3xi8>
                %190 = affine.load %56[%c0_141, %arg5, %141, %144] : memref<1x64x32x32xi8>
                %191 = arith.muli %188, %189 : i8
                %192 = arith.addi %190, %191 : i8
                affine.store %192, %56[%c0_141, %arg5, %141, %144] : memref<1x64x32x32xi8>
              }
            }
            %160 = affine.load %56[%c0_171, %arg5, %141, %144] : memref<1x64x32x32xi8>
            %161 = affine.load %1[0, 0, 0, 0] : memref<1x1x1x1xi8>
            %162 = arith.addi %160, %161 : i8
            affine.store %162, %17[0, 0, 0, 0] : memref<1x1x1x1xi8>
            %163 = affine.load %17[0, 0, 0, 0] : memref<1x1x1x1xi8>
            %164 = arith.cmpi ugt, %163, %c0_i8 : i8
            %165 = arith.select %164, %163, %c0_i8 : i8
            affine.store %165, %2[0, 0, 0, 0] : memref<1x1x1x1xi8>
            %166 = affine.load %2[0, 0, 0, 0] : memref<1x1x1x1xi8>
            affine.store %166, %78[%c0_136, %arg5, %142, %145] : memref<1x64x32x32xi8, #map35>
            %167 = affine.load %2[0, 0, 0, 0] : memref<1x1x1x1xi8>
            %168 = affine.load %43[%arg2, %arg5, %c0_125, %c0_126] : memref<128x64x1x1xi8>
            %169 = affine.load %79[%c0_124, %arg2, %arg3, %arg4] : memref<1x128x16x16xi8>
            %170 = arith.muli %167, %168 : i8
            %171 = arith.addi %169, %170 : i8
            affine.store %171, %79[%c0_124, %arg2, %arg3, %arg4] : memref<1x128x16x16xi8>
          }
          %146 = affine.load %79[%c0_171, %arg2, %arg3, %arg4] : memref<1x128x16x16xi8>
          %147 = affine.load %79[%c0_171, %arg2, %arg3, %arg4] : memref<1x128x16x16xi8>
          %148 = arith.addi %146, %147 : i8
          affine.store %148, %9[0, 0, 0, 0] : memref<1x1x1x1xi8>
          %149 = affine.load %9[0, 0, 0, 0] : memref<1x1x1x1xi8>
          %150 = arith.cmpi ugt, %149, %c0_i8 : i8
          %151 = arith.select %150, %149, %c0_i8 : i8
          affine.store %151, %85[%c0_122, %arg2, %arg3, %arg4] : memref<1x128x16x16xi8>
        }
      }
    }
    %86 = memref.alloca() : memref<1x128x18x18xi8>
    %87 = memref.alloca() : memref<1x128x18x18xi8>
    affine.for %arg2 = 0 to 128 {
      affine.for %arg3 = 0 to 18 {
        affine.store %c0_i8, %21[0, 0, 0, 0] : memref<1x1x1x1xi8>
        %137 = affine.load %21[0, 0, 0, 0] : memref<1x1x1x1xi8>
        affine.store %137, %87[%c0_120, %arg2, %arg3, %c0_19] : memref<1x128x18x18xi8>
        %138 = affine.apply #map0(%c0_19)
        affine.store %c0_i8, %21[0, 0, 0, 0] : memref<1x1x1x1xi8>
        %139 = affine.load %21[0, 0, 0, 0] : memref<1x1x1x1xi8>
        affine.store %139, %87[%c0_120, %arg2, %arg3, %138] : memref<1x128x18x18xi8>
        %140 = affine.apply #map1(%c0_19)
        affine.store %c0_i8, %21[0, 0, 0, 0] : memref<1x1x1x1xi8>
        %141 = affine.load %21[0, 0, 0, 0] : memref<1x1x1x1xi8>
        affine.store %141, %87[%c0_120, %arg2, %arg3, %140] : memref<1x128x18x18xi8>
        %142 = affine.apply #map2(%c0_19)
        affine.store %c0_i8, %21[0, 0, 0, 0] : memref<1x1x1x1xi8>
        %143 = affine.load %21[0, 0, 0, 0] : memref<1x1x1x1xi8>
        affine.store %143, %87[%c0_120, %arg2, %arg3, %142] : memref<1x128x18x18xi8>
        %144 = affine.apply #map3(%c0_19)
        affine.store %c0_i8, %21[0, 0, 0, 0] : memref<1x1x1x1xi8>
        %145 = affine.load %21[0, 0, 0, 0] : memref<1x1x1x1xi8>
        affine.store %145, %87[%c0_120, %arg2, %arg3, %144] : memref<1x128x18x18xi8>
        %146 = affine.apply #map4(%c0_19)
        affine.store %c0_i8, %21[0, 0, 0, 0] : memref<1x1x1x1xi8>
        %147 = affine.load %21[0, 0, 0, 0] : memref<1x1x1x1xi8>
        affine.store %147, %87[%c0_120, %arg2, %arg3, %146] : memref<1x128x18x18xi8>
        %148 = affine.apply #map5(%c0_19)
        affine.store %c0_i8, %21[0, 0, 0, 0] : memref<1x1x1x1xi8>
        %149 = affine.load %21[0, 0, 0, 0] : memref<1x1x1x1xi8>
        affine.store %149, %87[%c0_120, %arg2, %arg3, %148] : memref<1x128x18x18xi8>
        %150 = affine.apply #map6(%c0_19)
        affine.store %c0_i8, %21[0, 0, 0, 0] : memref<1x1x1x1xi8>
        %151 = affine.load %21[0, 0, 0, 0] : memref<1x1x1x1xi8>
        affine.store %151, %87[%c0_120, %arg2, %arg3, %150] : memref<1x128x18x18xi8>
        %152 = affine.apply #map7(%c0_19)
        affine.store %c0_i8, %21[0, 0, 0, 0] : memref<1x1x1x1xi8>
        %153 = affine.load %21[0, 0, 0, 0] : memref<1x1x1x1xi8>
        affine.store %153, %87[%c0_120, %arg2, %arg3, %152] : memref<1x128x18x18xi8>
        %154 = affine.apply #map8(%c0_19)
        affine.store %c0_i8, %21[0, 0, 0, 0] : memref<1x1x1x1xi8>
        %155 = affine.load %21[0, 0, 0, 0] : memref<1x1x1x1xi8>
        affine.store %155, %87[%c0_120, %arg2, %arg3, %154] : memref<1x128x18x18xi8>
        %156 = affine.apply #map9(%c0_19)
        affine.store %c0_i8, %21[0, 0, 0, 0] : memref<1x1x1x1xi8>
        %157 = affine.load %21[0, 0, 0, 0] : memref<1x1x1x1xi8>
        affine.store %157, %87[%c0_120, %arg2, %arg3, %156] : memref<1x128x18x18xi8>
        %158 = affine.apply #map10(%c0_19)
        affine.store %c0_i8, %21[0, 0, 0, 0] : memref<1x1x1x1xi8>
        %159 = affine.load %21[0, 0, 0, 0] : memref<1x1x1x1xi8>
        affine.store %159, %87[%c0_120, %arg2, %arg3, %158] : memref<1x128x18x18xi8>
        %160 = affine.apply #map11(%c0_19)
        affine.store %c0_i8, %21[0, 0, 0, 0] : memref<1x1x1x1xi8>
        %161 = affine.load %21[0, 0, 0, 0] : memref<1x1x1x1xi8>
        affine.store %161, %87[%c0_120, %arg2, %arg3, %160] : memref<1x128x18x18xi8>
        %162 = affine.apply #map12(%c0_19)
        affine.store %c0_i8, %21[0, 0, 0, 0] : memref<1x1x1x1xi8>
        %163 = affine.load %21[0, 0, 0, 0] : memref<1x1x1x1xi8>
        affine.store %163, %87[%c0_120, %arg2, %arg3, %162] : memref<1x128x18x18xi8>
        %164 = affine.apply #map13(%c0_19)
        affine.store %c0_i8, %21[0, 0, 0, 0] : memref<1x1x1x1xi8>
        %165 = affine.load %21[0, 0, 0, 0] : memref<1x1x1x1xi8>
        affine.store %165, %87[%c0_120, %arg2, %arg3, %164] : memref<1x128x18x18xi8>
        %166 = affine.apply #map14(%c0_19)
        affine.store %c0_i8, %21[0, 0, 0, 0] : memref<1x1x1x1xi8>
        %167 = affine.load %21[0, 0, 0, 0] : memref<1x1x1x1xi8>
        affine.store %167, %87[%c0_120, %arg2, %arg3, %166] : memref<1x128x18x18xi8>
        %168 = affine.apply #map15(%c0_19)
        affine.store %c0_i8, %21[0, 0, 0, 0] : memref<1x1x1x1xi8>
        %169 = affine.load %21[0, 0, 0, 0] : memref<1x1x1x1xi8>
        affine.store %169, %87[%c0_120, %arg2, %arg3, %168] : memref<1x128x18x18xi8>
        %170 = affine.apply #map16(%c0_19)
        affine.store %c0_i8, %21[0, 0, 0, 0] : memref<1x1x1x1xi8>
        %171 = affine.load %21[0, 0, 0, 0] : memref<1x1x1x1xi8>
        affine.store %171, %87[%c0_120, %arg2, %arg3, %170] : memref<1x128x18x18xi8>
      }
    }
    %88 = memref.subview %87[0, 0, 1, 1] [1, 128, 16, 16] [1, 1, 1, 1] : memref<1x128x18x18xi8> to memref<1x128x16x16xi8, #map36>
    %89 = memref.alloca() : memref<1x128x16x16xi8>
    %90 = memref.alloca() : memref<1x128x18x18xi8>
    %91 = memref.alloca() : memref<1x128x18x18xi8>
    affine.for %arg2 = 0 to 128 {
      affine.for %arg3 = 0 to 18 {
        affine.store %c0_i8, %10[0, 0, 0, 0] : memref<1x1x1x1xi8>
        %137 = affine.load %10[0, 0, 0, 0] : memref<1x1x1x1xi8>
        affine.store %137, %91[%c0_114, %arg2, %arg3, %c0_18] : memref<1x128x18x18xi8>
        %138 = affine.apply #map0(%c0_18)
        affine.store %c0_i8, %10[0, 0, 0, 0] : memref<1x1x1x1xi8>
        %139 = affine.load %10[0, 0, 0, 0] : memref<1x1x1x1xi8>
        affine.store %139, %91[%c0_114, %arg2, %arg3, %138] : memref<1x128x18x18xi8>
        %140 = affine.apply #map1(%c0_18)
        affine.store %c0_i8, %10[0, 0, 0, 0] : memref<1x1x1x1xi8>
        %141 = affine.load %10[0, 0, 0, 0] : memref<1x1x1x1xi8>
        affine.store %141, %91[%c0_114, %arg2, %arg3, %140] : memref<1x128x18x18xi8>
        %142 = affine.apply #map2(%c0_18)
        affine.store %c0_i8, %10[0, 0, 0, 0] : memref<1x1x1x1xi8>
        %143 = affine.load %10[0, 0, 0, 0] : memref<1x1x1x1xi8>
        affine.store %143, %91[%c0_114, %arg2, %arg3, %142] : memref<1x128x18x18xi8>
        %144 = affine.apply #map3(%c0_18)
        affine.store %c0_i8, %10[0, 0, 0, 0] : memref<1x1x1x1xi8>
        %145 = affine.load %10[0, 0, 0, 0] : memref<1x1x1x1xi8>
        affine.store %145, %91[%c0_114, %arg2, %arg3, %144] : memref<1x128x18x18xi8>
        %146 = affine.apply #map4(%c0_18)
        affine.store %c0_i8, %10[0, 0, 0, 0] : memref<1x1x1x1xi8>
        %147 = affine.load %10[0, 0, 0, 0] : memref<1x1x1x1xi8>
        affine.store %147, %91[%c0_114, %arg2, %arg3, %146] : memref<1x128x18x18xi8>
        %148 = affine.apply #map5(%c0_18)
        affine.store %c0_i8, %10[0, 0, 0, 0] : memref<1x1x1x1xi8>
        %149 = affine.load %10[0, 0, 0, 0] : memref<1x1x1x1xi8>
        affine.store %149, %91[%c0_114, %arg2, %arg3, %148] : memref<1x128x18x18xi8>
        %150 = affine.apply #map6(%c0_18)
        affine.store %c0_i8, %10[0, 0, 0, 0] : memref<1x1x1x1xi8>
        %151 = affine.load %10[0, 0, 0, 0] : memref<1x1x1x1xi8>
        affine.store %151, %91[%c0_114, %arg2, %arg3, %150] : memref<1x128x18x18xi8>
        %152 = affine.apply #map7(%c0_18)
        affine.store %c0_i8, %10[0, 0, 0, 0] : memref<1x1x1x1xi8>
        %153 = affine.load %10[0, 0, 0, 0] : memref<1x1x1x1xi8>
        affine.store %153, %91[%c0_114, %arg2, %arg3, %152] : memref<1x128x18x18xi8>
        %154 = affine.apply #map8(%c0_18)
        affine.store %c0_i8, %10[0, 0, 0, 0] : memref<1x1x1x1xi8>
        %155 = affine.load %10[0, 0, 0, 0] : memref<1x1x1x1xi8>
        affine.store %155, %91[%c0_114, %arg2, %arg3, %154] : memref<1x128x18x18xi8>
        %156 = affine.apply #map9(%c0_18)
        affine.store %c0_i8, %10[0, 0, 0, 0] : memref<1x1x1x1xi8>
        %157 = affine.load %10[0, 0, 0, 0] : memref<1x1x1x1xi8>
        affine.store %157, %91[%c0_114, %arg2, %arg3, %156] : memref<1x128x18x18xi8>
        %158 = affine.apply #map10(%c0_18)
        affine.store %c0_i8, %10[0, 0, 0, 0] : memref<1x1x1x1xi8>
        %159 = affine.load %10[0, 0, 0, 0] : memref<1x1x1x1xi8>
        affine.store %159, %91[%c0_114, %arg2, %arg3, %158] : memref<1x128x18x18xi8>
        %160 = affine.apply #map11(%c0_18)
        affine.store %c0_i8, %10[0, 0, 0, 0] : memref<1x1x1x1xi8>
        %161 = affine.load %10[0, 0, 0, 0] : memref<1x1x1x1xi8>
        affine.store %161, %91[%c0_114, %arg2, %arg3, %160] : memref<1x128x18x18xi8>
        %162 = affine.apply #map12(%c0_18)
        affine.store %c0_i8, %10[0, 0, 0, 0] : memref<1x1x1x1xi8>
        %163 = affine.load %10[0, 0, 0, 0] : memref<1x1x1x1xi8>
        affine.store %163, %91[%c0_114, %arg2, %arg3, %162] : memref<1x128x18x18xi8>
        %164 = affine.apply #map13(%c0_18)
        affine.store %c0_i8, %10[0, 0, 0, 0] : memref<1x1x1x1xi8>
        %165 = affine.load %10[0, 0, 0, 0] : memref<1x1x1x1xi8>
        affine.store %165, %91[%c0_114, %arg2, %arg3, %164] : memref<1x128x18x18xi8>
        %166 = affine.apply #map14(%c0_18)
        affine.store %c0_i8, %10[0, 0, 0, 0] : memref<1x1x1x1xi8>
        %167 = affine.load %10[0, 0, 0, 0] : memref<1x1x1x1xi8>
        affine.store %167, %91[%c0_114, %arg2, %arg3, %166] : memref<1x128x18x18xi8>
        %168 = affine.apply #map15(%c0_18)
        affine.store %c0_i8, %10[0, 0, 0, 0] : memref<1x1x1x1xi8>
        %169 = affine.load %10[0, 0, 0, 0] : memref<1x1x1x1xi8>
        affine.store %169, %91[%c0_114, %arg2, %arg3, %168] : memref<1x128x18x18xi8>
        %170 = affine.apply #map16(%c0_18)
        affine.store %c0_i8, %10[0, 0, 0, 0] : memref<1x1x1x1xi8>
        %171 = affine.load %10[0, 0, 0, 0] : memref<1x1x1x1xi8>
        affine.store %171, %91[%c0_114, %arg2, %arg3, %170] : memref<1x128x18x18xi8>
      }
    }
    %92 = memref.subview %91[0, 0, 1, 1] [1, 128, 16, 16] [1, 1, 1, 1] : memref<1x128x18x18xi8> to memref<1x128x16x16xi8, #map36>
    affine.for %arg2 = 0 to 128 {
      affine.for %arg3 = 0 to 16 {
        affine.for %arg4 = 0 to 16 {
          affine.store %c0_i8, %79[%c0_118, %arg2, %arg3, %arg4] : memref<1x128x16x16xi8>
          affine.for %arg5 = 0 to 128 {
            affine.for %arg6 = 0 to 3 {
              %141 = affine.apply #map34(%arg3, %arg6)
              %142 = affine.apply #map34(%arg4, %c0_17)
              %143 = affine.load %87[%c0_117, %arg5, %141, %142] : memref<1x128x18x18xi8>
              %144 = affine.load %44[%arg2, %arg5, %arg6, %c0_17] : memref<128x128x3x3xi8>
              %145 = affine.load %79[%c0_117, %arg2, %arg3, %arg4] : memref<1x128x16x16xi8>
              %146 = arith.muli %143, %144 : i8
              %147 = arith.addi %145, %146 : i8
              affine.store %147, %79[%c0_117, %arg2, %arg3, %arg4] : memref<1x128x16x16xi8>
              %148 = affine.apply #map0(%c0_17)
              %149 = affine.apply #map34(%arg4, %148)
              %150 = affine.load %87[%c0_117, %arg5, %141, %149] : memref<1x128x18x18xi8>
              %151 = affine.load %44[%arg2, %arg5, %arg6, %148] : memref<128x128x3x3xi8>
              %152 = affine.load %79[%c0_117, %arg2, %arg3, %arg4] : memref<1x128x16x16xi8>
              %153 = arith.muli %150, %151 : i8
              %154 = arith.addi %152, %153 : i8
              affine.store %154, %79[%c0_117, %arg2, %arg3, %arg4] : memref<1x128x16x16xi8>
              %155 = affine.apply #map1(%c0_17)
              %156 = affine.apply #map34(%arg4, %155)
              %157 = affine.load %87[%c0_117, %arg5, %141, %156] : memref<1x128x18x18xi8>
              %158 = affine.load %44[%arg2, %arg5, %arg6, %155] : memref<128x128x3x3xi8>
              %159 = affine.load %79[%c0_117, %arg2, %arg3, %arg4] : memref<1x128x16x16xi8>
              %160 = arith.muli %157, %158 : i8
              %161 = arith.addi %159, %160 : i8
              affine.store %161, %79[%c0_117, %arg2, %arg3, %arg4] : memref<1x128x16x16xi8>
            }
          }
          %137 = affine.load %79[%c0_171, %arg2, %arg3, %arg4] : memref<1x128x16x16xi8>
          %138 = arith.cmpi ugt, %137, %c0_i8 : i8
…
      affine.store %3008, %14[0, 0] : memref<1x1xi8>
      %3009 = affine.load %135[%c0_42, %3007] : memref<1x512xi8>
      %3010 = affine.load %14[0, 0] : memref<1x1xi8>
      %3011 = affine.load %arg1[%c0_42, %arg2] : memref<1x10xi8>
      %3012 = arith.muli %3009, %3010 : i8
      %3013 = arith.addi %3011, %3012 : i8
      affine.store %3013, %arg1[%c0_42, %arg2] : memref<1x10xi8>
      %3014 = affine.apply #map419(%c0)
      %3015 = affine.load %51[%arg2, %3014] : memref<10x512xi8>
      affine.store %3015, %14[0, 0] : memref<1x1xi8>
      %3016 = affine.load %135[%c0_42, %3014] : memref<1x512xi8>
      %3017 = affine.load %14[0, 0] : memref<1x1xi8>
      %3018 = affine.load %arg1[%c0_42, %arg2] : memref<1x10xi8>
      %3019 = arith.muli %3016, %3017 : i8
      %3020 = arith.addi %3018, %3019 : i8
      affine.store %3020, %arg1[%c0_42, %arg2] : memref<1x10xi8>
      %3021 = affine.apply #map420(%c0)
      %3022 = affine.load %51[%arg2, %3021] : memref<10x512xi8>
      affine.store %3022, %14[0, 0] : memref<1x1xi8>
      %3023 = affine.load %135[%c0_42, %3021] : memref<1x512xi8>
      %3024 = affine.load %14[0, 0] : memref<1x1xi8>
      %3025 = affine.load %arg1[%c0_42, %arg2] : memref<1x10xi8>
      %3026 = arith.muli %3023, %3024 : i8
      %3027 = arith.addi %3025, %3026 : i8
      affine.store %3027, %arg1[%c0_42, %arg2] : memref<1x10xi8>
      %3028 = affine.apply #map421(%c0)
      %3029 = affine.load %51[%arg2, %3028] : memref<10x512xi8>
      affine.store %3029, %14[0, 0] : memref<1x1xi8>
      %3030 = affine.load %135[%c0_42, %3028] : memref<1x512xi8>
      %3031 = affine.load %14[0, 0] : memref<1x1xi8>
      %3032 = affine.load %arg1[%c0_42, %arg2] : memref<1x10xi8>
      %3033 = arith.muli %3030, %3031 : i8
      %3034 = arith.addi %3032, %3033 : i8
      affine.store %3034, %arg1[%c0_42, %arg2] : memref<1x10xi8>
      %3035 = affine.apply #map422(%c0)
      %3036 = affine.load %51[%arg2, %3035] : memref<10x512xi8>
      affine.store %3036, %14[0, 0] : memref<1x1xi8>
      %3037 = affine.load %135[%c0_42, %3035] : memref<1x512xi8>
      %3038 = affine.load %14[0, 0] : memref<1x1xi8>
      %3039 = affine.load %arg1[%c0_42, %arg2] : memref<1x10xi8>
      %3040 = arith.muli %3037, %3038 : i8
      %3041 = arith.addi %3039, %3040 : i8
      affine.store %3041, %arg1[%c0_42, %arg2] : memref<1x10xi8>
      %3042 = affine.apply #map423(%c0)
      %3043 = affine.load %51[%arg2, %3042] : memref<10x512xi8>
      affine.store %3043, %14[0, 0] : memref<1x1xi8>
      %3044 = affine.load %135[%c0_42, %3042] : memref<1x512xi8>
      %3045 = affine.load %14[0, 0] : memref<1x1xi8>
      %3046 = affine.load %arg1[%c0_42, %arg2] : memref<1x10xi8>
      %3047 = arith.muli %3044, %3045 : i8
      %3048 = arith.addi %3046, %3047 : i8
      affine.store %3048, %arg1[%c0_42, %arg2] : memref<1x10xi8>
      %3049 = affine.apply #map424(%c0)
      %3050 = affine.load %51[%arg2, %3049] : memref<10x512xi8>
      affine.store %3050, %14[0, 0] : memref<1x1xi8>
      %3051 = affine.load %135[%c0_42, %3049] : memref<1x512xi8>
      %3052 = affine.load %14[0, 0] : memref<1x1xi8>
      %3053 = affine.load %arg1[%c0_42, %arg2] : memref<1x10xi8>
      %3054 = arith.muli %3051, %3052 : i8
      %3055 = arith.addi %3053, %3054 : i8
      affine.store %3055, %arg1[%c0_42, %arg2] : memref<1x10xi8>
      %3056 = affine.apply #map425(%c0)
      %3057 = affine.load %51[%arg2, %3056] : memref<10x512xi8>
      affine.store %3057, %14[0, 0] : memref<1x1xi8>
      %3058 = affine.load %135[%c0_42, %3056] : memref<1x512xi8>
      %3059 = affine.load %14[0, 0] : memref<1x1xi8>
      %3060 = affine.load %arg1[%c0_42, %arg2] : memref<1x10xi8>
      %3061 = arith.muli %3058, %3059 : i8
      %3062 = arith.addi %3060, %3061 : i8
      affine.store %3062, %arg1[%c0_42, %arg2] : memref<1x10xi8>
      %3063 = affine.apply #map426(%c0)
      %3064 = affine.load %51[%arg2, %3063] : memref<10x512xi8>
      affine.store %3064, %14[0, 0] : memref<1x1xi8>
      %3065 = affine.load %135[%c0_42, %3063] : memref<1x512xi8>
      %3066 = affine.load %14[0, 0] : memref<1x1xi8>
      %3067 = affine.load %arg1[%c0_42, %arg2] : memref<1x10xi8>
      %3068 = arith.muli %3065, %3066 : i8
      %3069 = arith.addi %3067, %3068 : i8
      affine.store %3069, %arg1[%c0_42, %arg2] : memref<1x10xi8>
      %3070 = affine.apply #map427(%c0)
      %3071 = affine.load %51[%arg2, %3070] : memref<10x512xi8>
      affine.store %3071, %14[0, 0] : memref<1x1xi8>
      %3072 = affine.load %135[%c0_42, %3070] : memref<1x512xi8>
      %3073 = affine.load %14[0, 0] : memref<1x1xi8>
      %3074 = affine.load %arg1[%c0_42, %arg2] : memref<1x10xi8>
      %3075 = arith.muli %3072, %3073 : i8
      %3076 = arith.addi %3074, %3075 : i8
      affine.store %3076, %arg1[%c0_42, %arg2] : memref<1x10xi8>
      %3077 = affine.apply #map428(%c0)
      %3078 = affine.load %51[%arg2, %3077] : memref<10x512xi8>
      affine.store %3078, %14[0, 0] : memref<1x1xi8>
      %3079 = affine.load %135[%c0_42, %3077] : memref<1x512xi8>
      %3080 = affine.load %14[0, 0] : memref<1x1xi8>
      %3081 = affine.load %arg1[%c0_42, %arg2] : memref<1x10xi8>
      %3082 = arith.muli %3079, %3080 : i8
      %3083 = arith.addi %3081, %3082 : i8
      affine.store %3083, %arg1[%c0_42, %arg2] : memref<1x10xi8>
      %3084 = affine.apply #map429(%c0)
      %3085 = affine.load %51[%arg2, %3084] : memref<10x512xi8>
      affine.store %3085, %14[0, 0] : memref<1x1xi8>
      %3086 = affine.load %135[%c0_42, %3084] : memref<1x512xi8>
      %3087 = affine.load %14[0, 0] : memref<1x1xi8>
      %3088 = affine.load %arg1[%c0_42, %arg2] : memref<1x10xi8>
      %3089 = arith.muli %3086, %3087 : i8
      %3090 = arith.addi %3088, %3089 : i8
      affine.store %3090, %arg1[%c0_42, %arg2] : memref<1x10xi8>
      %3091 = affine.apply #map430(%c0)
      %3092 = affine.load %51[%arg2, %3091] : memref<10x512xi8>
      affine.store %3092, %14[0, 0] : memref<1x1xi8>
      %3093 = affine.load %135[%c0_42, %3091] : memref<1x512xi8>
      %3094 = affine.load %14[0, 0] : memref<1x1xi8>
      %3095 = affine.load %arg1[%c0_42, %arg2] : memref<1x10xi8>
      %3096 = arith.muli %3093, %3094 : i8
      %3097 = arith.addi %3095, %3096 : i8
      affine.store %3097, %arg1[%c0_42, %arg2] : memref<1x10xi8>
      %3098 = affine.apply #map431(%c0)
      %3099 = affine.load %51[%arg2, %3098] : memref<10x512xi8>
      affine.store %3099, %14[0, 0] : memref<1x1xi8>
      %3100 = affine.load %135[%c0_42, %3098] : memref<1x512xi8>
      %3101 = affine.load %14[0, 0] : memref<1x1xi8>
      %3102 = affine.load %arg1[%c0_42, %arg2] : memref<1x10xi8>
      %3103 = arith.muli %3100, %3101 : i8
      %3104 = arith.addi %3102, %3103 : i8
      affine.store %3104, %arg1[%c0_42, %arg2] : memref<1x10xi8>
      %3105 = affine.apply #map432(%c0)
      %3106 = affine.load %51[%arg2, %3105] : memref<10x512xi8>
      affine.store %3106, %14[0, 0] : memref<1x1xi8>
      %3107 = affine.load %135[%c0_42, %3105] : memref<1x512xi8>
      %3108 = affine.load %14[0, 0] : memref<1x1xi8>
      %3109 = affine.load %arg1[%c0_42, %arg2] : memref<1x10xi8>
      %3110 = arith.muli %3107, %3108 : i8
      %3111 = arith.addi %3109, %3110 : i8
      affine.store %3111, %arg1[%c0_42, %arg2] : memref<1x10xi8>
      %3112 = affine.apply #map433(%c0)
      %3113 = affine.load %51[%arg2, %3112] : memref<10x512xi8>
      affine.store %3113, %14[0, 0] : memref<1x1xi8>
      %3114 = affine.load %135[%c0_42, %3112] : memref<1x512xi8>
      %3115 = affine.load %14[0, 0] : memref<1x1xi8>
      %3116 = affine.load %arg1[%c0_42, %arg2] : memref<1x10xi8>
      %3117 = arith.muli %3114, %3115 : i8
      %3118 = arith.addi %3116, %3117 : i8
      affine.store %3118, %arg1[%c0_42, %arg2] : memref<1x10xi8>
      %3119 = affine.apply #map434(%c0)
      %3120 = affine.load %51[%arg2, %3119] : memref<10x512xi8>
      affine.store %3120, %14[0, 0] : memref<1x1xi8>
      %3121 = affine.load %135[%c0_42, %3119] : memref<1x512xi8>
      %3122 = affine.load %14[0, 0] : memref<1x1xi8>
      %3123 = affine.load %arg1[%c0_42, %arg2] : memref<1x10xi8>
      %3124 = arith.muli %3121, %3122 : i8
      %3125 = arith.addi %3123, %3124 : i8
      affine.store %3125, %arg1[%c0_42, %arg2] : memref<1x10xi8>
      %3126 = affine.apply #map435(%c0)
      %3127 = affine.load %51[%arg2, %3126] : memref<10x512xi8>
      affine.store %3127, %14[0, 0] : memref<1x1xi8>
      %3128 = affine.load %135[%c0_42, %3126] : memref<1x512xi8>
      %3129 = affine.load %14[0, 0] : memref<1x1xi8>
      %3130 = affine.load %arg1[%c0_42, %arg2] : memref<1x10xi8>
      %3131 = arith.muli %3128, %3129 : i8
      %3132 = arith.addi %3130, %3131 : i8
      affine.store %3132, %arg1[%c0_42, %arg2] : memref<1x10xi8>
      %3133 = affine.apply #map436(%c0)
      %3134 = affine.load %51[%arg2, %3133] : memref<10x512xi8>
      affine.store %3134, %14[0, 0] : memref<1x1xi8>
      %3135 = affine.load %135[%c0_42, %3133] : memref<1x512xi8>
      %3136 = affine.load %14[0, 0] : memref<1x1xi8>
      %3137 = affine.load %arg1[%c0_42, %arg2] : memref<1x10xi8>
      %3138 = arith.muli %3135, %3136 : i8
      %3139 = arith.addi %3137, %3138 : i8
      affine.store %3139, %arg1[%c0_42, %arg2] : memref<1x10xi8>
      %3140 = affine.apply #map437(%c0)
      %3141 = affine.load %51[%arg2, %3140] : memref<10x512xi8>
      affine.store %3141, %14[0, 0] : memref<1x1xi8>
      %3142 = affine.load %135[%c0_42, %3140] : memref<1x512xi8>
      %3143 = affine.load %14[0, 0] : memref<1x1xi8>
      %3144 = affine.load %arg1[%c0_42, %arg2] : memref<1x10xi8>
      %3145 = arith.muli %3142, %3143 : i8
      %3146 = arith.addi %3144, %3145 : i8
      affine.store %3146, %arg1[%c0_42, %arg2] : memref<1x10xi8>
      %3147 = affine.apply #map438(%c0)
      %3148 = affine.load %51[%arg2, %3147] : memref<10x512xi8>
      affine.store %3148, %14[0, 0] : memref<1x1xi8>
      %3149 = affine.load %135[%c0_42, %3147] : memref<1x512xi8>
      %3150 = affine.load %14[0, 0] : memref<1x1xi8>
      %3151 = affine.load %arg1[%c0_42, %arg2] : memref<1x10xi8>
      %3152 = arith.muli %3149, %3150 : i8
      %3153 = arith.addi %3151, %3152 : i8
      affine.store %3153, %arg1[%c0_42, %arg2] : memref<1x10xi8>
      %3154 = affine.apply #map439(%c0)
      %3155 = affine.load %51[%arg2, %3154] : memref<10x512xi8>
      affine.store %3155, %14[0, 0] : memref<1x1xi8>
      %3156 = affine.load %135[%c0_42, %3154] : memref<1x512xi8>
      %3157 = affine.load %14[0, 0] : memref<1x1xi8>
      %3158 = affine.load %arg1[%c0_42, %arg2] : memref<1x10xi8>
      %3159 = arith.muli %3156, %3157 : i8
      %3160 = arith.addi %3158, %3159 : i8
      affine.store %3160, %arg1[%c0_42, %arg2] : memref<1x10xi8>
      %3161 = affine.apply #map440(%c0)
      %3162 = affine.load %51[%arg2, %3161] : memref<10x512xi8>
      affine.store %3162, %14[0, 0] : memref<1x1xi8>
      %3163 = affine.load %135[%c0_42, %3161] : memref<1x512xi8>
      %3164 = affine.load %14[0, 0] : memref<1x1xi8>
      %3165 = affine.load %arg1[%c0_42, %arg2] : memref<1x10xi8>
      %3166 = arith.muli %3163, %3164 : i8
      %3167 = arith.addi %3165, %3166 : i8
      affine.store %3167, %arg1[%c0_42, %arg2] : memref<1x10xi8>
      %3168 = affine.apply #map441(%c0)
      %3169 = affine.load %51[%arg2, %3168] : memref<10x512xi8>
      affine.store %3169, %14[0, 0] : memref<1x1xi8>
      %3170 = affine.load %135[%c0_42, %3168] : memref<1x512xi8>
      %3171 = affine.load %14[0, 0] : memref<1x1xi8>
      %3172 = affine.load %arg1[%c0_42, %arg2] : memref<1x10xi8>
      %3173 = arith.muli %3170, %3171 : i8
      %3174 = arith.addi %3172, %3173 : i8
      affine.store %3174, %arg1[%c0_42, %arg2] : memref<1x10xi8>
      %3175 = affine.apply #map442(%c0)
      %3176 = affine.load %51[%arg2, %3175] : memref<10x512xi8>
      affine.store %3176, %14[0, 0] : memref<1x1xi8>
      %3177 = affine.load %135[%c0_42, %3175] : memref<1x512xi8>
      %3178 = affine.load %14[0, 0] : memref<1x1xi8>
      %3179 = affine.load %arg1[%c0_42, %arg2] : memref<1x10xi8>
      %3180 = arith.muli %3177, %3178 : i8
      %3181 = arith.addi %3179, %3180 : i8
      affine.store %3181, %arg1[%c0_42, %arg2] : memref<1x10xi8>
      %3182 = affine.apply #map443(%c0)
      %3183 = affine.load %51[%arg2, %3182] : memref<10x512xi8>
      affine.store %3183, %14[0, 0] : memref<1x1xi8>
      %3184 = affine.load %135[%c0_42, %3182] : memref<1x512xi8>
      %3185 = affine.load %14[0, 0] : memref<1x1xi8>
      %3186 = affine.load %arg1[%c0_42, %arg2] : memref<1x10xi8>
      %3187 = arith.muli %3184, %3185 : i8
      %3188 = arith.addi %3186, %3187 : i8
      affine.store %3188, %arg1[%c0_42, %arg2] : memref<1x10xi8>
      %3189 = affine.apply #map444(%c0)
      %3190 = affine.load %51[%arg2, %3189] : memref<10x512xi8>
      affine.store %3190, %14[0, 0] : memref<1x1xi8>
      %3191 = affine.load %135[%c0_42, %3189] : memref<1x512xi8>
      %3192 = affine.load %14[0, 0] : memref<1x1xi8>
      %3193 = affine.load %arg1[%c0_42, %arg2] : memref<1x10xi8>
      %3194 = arith.muli %3191, %3192 : i8
      %3195 = arith.addi %3193, %3194 : i8
      affine.store %3195, %arg1[%c0_42, %arg2] : memref<1x10xi8>
      %3196 = affine.apply #map445(%c0)
      %3197 = affine.load %51[%arg2, %3196] : memref<10x512xi8>
      affine.store %3197, %14[0, 0] : memref<1x1xi8>
      %3198 = affine.load %135[%c0_42, %3196] : memref<1x512xi8>
      %3199 = affine.load %14[0, 0] : memref<1x1xi8>
      %3200 = affine.load %arg1[%c0_42, %arg2] : memref<1x10xi8>
      %3201 = arith.muli %3198, %3199 : i8
      %3202 = arith.addi %3200, %3201 : i8
      affine.store %3202, %arg1[%c0_42, %arg2] : memref<1x10xi8>
      %3203 = affine.apply #map446(%c0)
      %3204 = affine.load %51[%arg2, %3203] : memref<10x512xi8>
      affine.store %3204, %14[0, 0] : memref<1x1xi8>
      %3205 = affine.load %135[%c0_42, %3203] : memref<1x512xi8>
      %3206 = affine.load %14[0, 0] : memref<1x1xi8>
      %3207 = affine.load %arg1[%c0_42, %arg2] : memref<1x10xi8>
      %3208 = arith.muli %3205, %3206 : i8
      %3209 = arith.addi %3207, %3208 : i8
      affine.store %3209, %arg1[%c0_42, %arg2] : memref<1x10xi8>
      %3210 = affine.apply #map447(%c0)
      %3211 = affine.load %51[%arg2, %3210] : memref<10x512xi8>
      affine.store %3211, %14[0, 0] : memref<1x1xi8>
      %3212 = affine.load %135[%c0_42, %3210] : memref<1x512xi8>
      %3213 = affine.load %14[0, 0] : memref<1x1xi8>
      %3214 = affine.load %arg1[%c0_42, %arg2] : memref<1x10xi8>
      %3215 = arith.muli %3212, %3213 : i8
      %3216 = arith.addi %3214, %3215 : i8
      affine.store %3216, %arg1[%c0_42, %arg2] : memref<1x10xi8>
      %3217 = affine.apply #map448(%c0)
      %3218 = affine.load %51[%arg2, %3217] : memref<10x512xi8>
      affine.store %3218, %14[0, 0] : memref<1x1xi8>
      %3219 = affine.load %135[%c0_42, %3217] : memref<1x512xi8>
      %3220 = affine.load %14[0, 0] : memref<1x1xi8>
      %3221 = affine.load %arg1[%c0_42, %arg2] : memref<1x10xi8>
      %3222 = arith.muli %3219, %3220 : i8
      %3223 = arith.addi %3221, %3222 : i8
      affine.store %3223, %arg1[%c0_42, %arg2] : memref<1x10xi8>
      %3224 = affine.apply #map449(%c0)
      %3225 = affine.load %51[%arg2, %3224] : memref<10x512xi8>
      affine.store %3225, %14[0, 0] : memref<1x1xi8>
      %3226 = affine.load %135[%c0_42, %3224] : memref<1x512xi8>
      %3227 = affine.load %14[0, 0] : memref<1x1xi8>
      %3228 = affine.load %arg1[%c0_42, %arg2] : memref<1x10xi8>
      %3229 = arith.muli %3226, %3227 : i8
      %3230 = arith.addi %3228, %3229 : i8
      affine.store %3230, %arg1[%c0_42, %arg2] : memref<1x10xi8>
      %3231 = affine.apply #map450(%c0)
      %3232 = affine.load %51[%arg2, %3231] : memref<10x512xi8>
      affine.store %3232, %14[0, 0] : memref<1x1xi8>
      %3233 = affine.load %135[%c0_42, %3231] : memref<1x512xi8>
      %3234 = affine.load %14[0, 0] : memref<1x1xi8>
      %3235 = affine.load %arg1[%c0_42, %arg2] : memref<1x10xi8>
      %3236 = arith.muli %3233, %3234 : i8
      %3237 = arith.addi %3235, %3236 : i8
      affine.store %3237, %arg1[%c0_42, %arg2] : memref<1x10xi8>
      %3238 = affine.apply #map451(%c0)
      %3239 = affine.load %51[%arg2, %3238] : memref<10x512xi8>
      affine.store %3239, %14[0, 0] : memref<1x1xi8>
      %3240 = affine.load %135[%c0_42, %3238] : memref<1x512xi8>
      %3241 = affine.load %14[0, 0] : memref<1x1xi8>
      %3242 = affine.load %arg1[%c0_42, %arg2] : memref<1x10xi8>
      %3243 = arith.muli %3240, %3241 : i8
      %3244 = arith.addi %3242, %3243 : i8
      affine.store %3244, %arg1[%c0_42, %arg2] : memref<1x10xi8>
      %3245 = affine.apply #map452(%c0)
      %3246 = affine.load %51[%arg2, %3245] : memref<10x512xi8>
      affine.store %3246, %14[0, 0] : memref<1x1xi8>
      %3247 = affine.load %135[%c0_42, %3245] : memref<1x512xi8>
      %3248 = affine.load %14[0, 0] : memref<1x1xi8>
      %3249 = affine.load %arg1[%c0_42, %arg2] : memref<1x10xi8>
      %3250 = arith.muli %3247, %3248 : i8
      %3251 = arith.addi %3249, %3250 : i8
      affine.store %3251, %arg1[%c0_42, %arg2] : memref<1x10xi8>
      %3252 = affine.apply #map453(%c0)
      %3253 = affine.load %51[%arg2, %3252] : memref<10x512xi8>
      affine.store %3253, %14[0, 0] : memref<1x1xi8>
      %3254 = affine.load %135[%c0_42, %3252] : memref<1x512xi8>
      %3255 = affine.load %14[0, 0] : memref<1x1xi8>
      %3256 = affine.load %arg1[%c0_42, %arg2] : memref<1x10xi8>
      %3257 = arith.muli %3254, %3255 : i8
      %3258 = arith.addi %3256, %3257 : i8
      affine.store %3258, %arg1[%c0_42, %arg2] : memref<1x10xi8>
      %3259 = affine.apply #map454(%c0)
      %3260 = affine.load %51[%arg2, %3259] : memref<10x512xi8>
      affine.store %3260, %14[0, 0] : memref<1x1xi8>
      %3261 = affine.load %135[%c0_42, %3259] : memref<1x512xi8>
      %3262 = affine.load %14[0, 0] : memref<1x1xi8>
      %3263 = affine.load %arg1[%c0_42, %arg2] : memref<1x10xi8>
      %3264 = arith.muli %3261, %3262 : i8
      %3265 = arith.addi %3263, %3264 : i8
      affine.store %3265, %arg1[%c0_42, %arg2] : memref<1x10xi8>
      %3266 = affine.apply #map455(%c0)
      %3267 = affine.load %51[%arg2, %3266] : memref<10x512xi8>
      affine.store %3267, %14[0, 0] : memref<1x1xi8>
      %3268 = affine.load %135[%c0_42, %3266] : memref<1x512xi8>
      %3269 = affine.load %14[0, 0] : memref<1x1xi8>
      %3270 = affine.load %arg1[%c0_42, %arg2] : memref<1x10xi8>
      %3271 = arith.muli %3268, %3269 : i8
      %3272 = arith.addi %3270, %3271 : i8
      affine.store %3272, %arg1[%c0_42, %arg2] : memref<1x10xi8>
      %3273 = affine.apply #map456(%c0)
      %3274 = affine.load %51[%arg2, %3273] : memref<10x512xi8>
      affine.store %3274, %14[0, 0] : memref<1x1xi8>
      %3275 = affine.load %135[%c0_42, %3273] : memref<1x512xi8>
      %3276 = affine.load %14[0, 0] : memref<1x1xi8>
      %3277 = affine.load %arg1[%c0_42, %arg2] : memref<1x10xi8>
      %3278 = arith.muli %3275, %3276 : i8
      %3279 = arith.addi %3277, %3278 : i8
      affine.store %3279, %arg1[%c0_42, %arg2] : memref<1x10xi8>
      %3280 = affine.apply #map457(%c0)
      %3281 = affine.load %51[%arg2, %3280] : memref<10x512xi8>
      affine.store %3281, %14[0, 0] : memref<1x1xi8>
      %3282 = affine.load %135[%c0_42, %3280] : memref<1x512xi8>
      %3283 = affine.load %14[0, 0] : memref<1x1xi8>
      %3284 = affine.load %arg1[%c0_42, %arg2] : memref<1x10xi8>
      %3285 = arith.muli %3282, %3283 : i8
      %3286 = arith.addi %3284, %3285 : i8
      affine.store %3286, %arg1[%c0_42, %arg2] : memref<1x10xi8>
      %3287 = affine.apply #map458(%c0)
      %3288 = affine.load %51[%arg2, %3287] : memref<10x512xi8>
      affine.store %3288, %14[0, 0] : memref<1x1xi8>
      %3289 = affine.load %135[%c0_42, %3287] : memref<1x512xi8>
      %3290 = affine.load %14[0, 0] : memref<1x1xi8>
      %3291 = affine.load %arg1[%c0_42, %arg2] : memref<1x10xi8>
      %3292 = arith.muli %3289, %3290 : i8
      %3293 = arith.addi %3291, %3292 : i8
      affine.store %3293, %arg1[%c0_42, %arg2] : memref<1x10xi8>
      %3294 = affine.apply #map459(%c0)
      %3295 = affine.load %51[%arg2, %3294] : memref<10x512xi8>
      affine.store %3295, %14[0, 0] : memref<1x1xi8>
      %3296 = affine.load %135[%c0_42, %3294] : memref<1x512xi8>
      %3297 = affine.load %14[0, 0] : memref<1x1xi8>
      %3298 = affine.load %arg1[%c0_42, %arg2] : memref<1x10xi8>
      %3299 = arith.muli %3296, %3297 : i8
      %3300 = arith.addi %3298, %3299 : i8
      affine.store %3300, %arg1[%c0_42, %arg2] : memref<1x10xi8>
      %3301 = affine.apply #map460(%c0)
      %3302 = affine.load %51[%arg2, %3301] : memref<10x512xi8>
      affine.store %3302, %14[0, 0] : memref<1x1xi8>
      %3303 = affine.load %135[%c0_42, %3301] : memref<1x512xi8>
      %3304 = affine.load %14[0, 0] : memref<1x1xi8>
      %3305 = affine.load %arg1[%c0_42, %arg2] : memref<1x10xi8>
      %3306 = arith.muli %3303, %3304 : i8
      %3307 = arith.addi %3305, %3306 : i8
      affine.store %3307, %arg1[%c0_42, %arg2] : memref<1x10xi8>
      %3308 = affine.apply #map461(%c0)
      %3309 = affine.load %51[%arg2, %3308] : memref<10x512xi8>
      affine.store %3309, %14[0, 0] : memref<1x1xi8>
      %3310 = affine.load %135[%c0_42, %3308] : memref<1x512xi8>
      %3311 = affine.load %14[0, 0] : memref<1x1xi8>
      %3312 = affine.load %arg1[%c0_42, %arg2] : memref<1x10xi8>
      %3313 = arith.muli %3310, %3311 : i8
      %3314 = arith.addi %3312, %3313 : i8
      affine.store %3314, %arg1[%c0_42, %arg2] : memref<1x10xi8>
      %3315 = affine.apply #map462(%c0)
      %3316 = affine.load %51[%arg2, %3315] : memref<10x512xi8>
      affine.store %3316, %14[0, 0] : memref<1x1xi8>
      %3317 = affine.load %135[%c0_42, %3315] : memref<1x512xi8>
      %3318 = affine.load %14[0, 0] : memref<1x1xi8>
      %3319 = affine.load %arg1[%c0_42, %arg2] : memref<1x10xi8>
      %3320 = arith.muli %3317, %3318 : i8
      %3321 = arith.addi %3319, %3320 : i8
      affine.store %3321, %arg1[%c0_42, %arg2] : memref<1x10xi8>
      %3322 = affine.apply #map463(%c0)
      %3323 = affine.load %51[%arg2, %3322] : memref<10x512xi8>
      affine.store %3323, %14[0, 0] : memref<1x1xi8>
      %3324 = affine.load %135[%c0_42, %3322] : memref<1x512xi8>
      %3325 = affine.load %14[0, 0] : memref<1x1xi8>
      %3326 = affine.load %arg1[%c0_42, %arg2] : memref<1x10xi8>
      %3327 = arith.muli %3324, %3325 : i8
      %3328 = arith.addi %3326, %3327 : i8
      affine.store %3328, %arg1[%c0_42, %arg2] : memref<1x10xi8>
      %3329 = affine.apply #map464(%c0)
      %3330 = affine.load %51[%arg2, %3329] : memref<10x512xi8>
      affine.store %3330, %14[0, 0] : memref<1x1xi8>
      %3331 = affine.load %135[%c0_42, %3329] : memref<1x512xi8>
      %3332 = affine.load %14[0, 0] : memref<1x1xi8>
      %3333 = affine.load %arg1[%c0_42, %arg2] : memref<1x10xi8>
      %3334 = arith.muli %3331, %3332 : i8
      %3335 = arith.addi %3333, %3334 : i8
      affine.store %3335, %arg1[%c0_42, %arg2] : memref<1x10xi8>
      %3336 = affine.apply #map465(%c0)
      %3337 = affine.load %51[%arg2, %3336] : memref<10x512xi8>
      affine.store %3337, %14[0, 0] : memref<1x1xi8>
      %3338 = affine.load %135[%c0_42, %3336] : memref<1x512xi8>
      %3339 = affine.load %14[0, 0] : memref<1x1xi8>
      %3340 = affine.load %arg1[%c0_42, %arg2] : memref<1x10xi8>
      %3341 = arith.muli %3338, %3339 : i8
      %3342 = arith.addi %3340, %3341 : i8
      affine.store %3342, %arg1[%c0_42, %arg2] : memref<1x10xi8>
      %3343 = affine.apply #map466(%c0)
      %3344 = affine.load %51[%arg2, %3343] : memref<10x512xi8>
      affine.store %3344, %14[0, 0] : memref<1x1xi8>
      %3345 = affine.load %135[%c0_42, %3343] : memref<1x512xi8>
      %3346 = affine.load %14[0, 0] : memref<1x1xi8>
      %3347 = affine.load %arg1[%c0_42, %arg2] : memref<1x10xi8>
      %3348 = arith.muli %3345, %3346 : i8
      %3349 = arith.addi %3347, %3348 : i8
      affine.store %3349, %arg1[%c0_42, %arg2] : memref<1x10xi8>
      %3350 = affine.apply #map467(%c0)
      %3351 = affine.load %51[%arg2, %3350] : memref<10x512xi8>
      affine.store %3351, %14[0, 0] : memref<1x1xi8>
      %3352 = affine.load %135[%c0_42, %3350] : memref<1x512xi8>
      %3353 = affine.load %14[0, 0] : memref<1x1xi8>
      %3354 = affine.load %arg1[%c0_42, %arg2] : memref<1x10xi8>
      %3355 = arith.muli %3352, %3353 : i8
      %3356 = arith.addi %3354, %3355 : i8
      affine.store %3356, %arg1[%c0_42, %arg2] : memref<1x10xi8>
      %3357 = affine.apply #map468(%c0)
      %3358 = affine.load %51[%arg2, %3357] : memref<10x512xi8>
      affine.store %3358, %14[0, 0] : memref<1x1xi8>
      %3359 = affine.load %135[%c0_42, %3357] : memref<1x512xi8>
      %3360 = affine.load %14[0, 0] : memref<1x1xi8>
      %3361 = affine.load %arg1[%c0_42, %arg2] : memref<1x10xi8>
      %3362 = arith.muli %3359, %3360 : i8
      %3363 = arith.addi %3361, %3362 : i8
      affine.store %3363, %arg1[%c0_42, %arg2] : memref<1x10xi8>
      %3364 = affine.apply #map469(%c0)
      %3365 = affine.load %51[%arg2, %3364] : memref<10x512xi8>
      affine.store %3365, %14[0, 0] : memref<1x1xi8>
      %3366 = affine.load %135[%c0_42, %3364] : memref<1x512xi8>
      %3367 = affine.load %14[0, 0] : memref<1x1xi8>
      %3368 = affine.load %arg1[%c0_42, %arg2] : memref<1x10xi8>
      %3369 = arith.muli %3366, %3367 : i8
      %3370 = arith.addi %3368, %3369 : i8
      affine.store %3370, %arg1[%c0_42, %arg2] : memref<1x10xi8>
      %3371 = affine.apply #map470(%c0)
      %3372 = affine.load %51[%arg2, %3371] : memref<10x512xi8>
      affine.store %3372, %14[0, 0] : memref<1x1xi8>
      %3373 = affine.load %135[%c0_42, %3371] : memref<1x512xi8>
      %3374 = affine.load %14[0, 0] : memref<1x1xi8>
      %3375 = affine.load %arg1[%c0_42, %arg2] : memref<1x10xi8>
      %3376 = arith.muli %3373, %3374 : i8
      %3377 = arith.addi %3375, %3376 : i8
      affine.store %3377, %arg1[%c0_42, %arg2] : memref<1x10xi8>
      %3378 = affine.apply #map471(%c0)
      %3379 = affine.load %51[%arg2, %3378] : memref<10x512xi8>
      affine.store %3379, %14[0, 0] : memref<1x1xi8>
      %3380 = affine.load %135[%c0_42, %3378] : memref<1x512xi8>
      %3381 = affine.load %14[0, 0] : memref<1x1xi8>
      %3382 = affine.load %arg1[%c0_42, %arg2] : memref<1x10xi8>
      %3383 = arith.muli %3380, %3381 : i8
      %3384 = arith.addi %3382, %3383 : i8
      affine.store %3384, %arg1[%c0_42, %arg2] : memref<1x10xi8>
      %3385 = affine.apply #map472(%c0)
      %3386 = affine.load %51[%arg2, %3385] : memref<10x512xi8>
      affine.store %3386, %14[0, 0] : memref<1x1xi8>
      %3387 = affine.load %135[%c0_42, %3385] : memref<1x512xi8>
      %3388 = affine.load %14[0, 0] : memref<1x1xi8>
      %3389 = affine.load %arg1[%c0_42, %arg2] : memref<1x10xi8>
      %3390 = arith.muli %3387, %3388 : i8
      %3391 = arith.addi %3389, %3390 : i8
      affine.store %3391, %arg1[%c0_42, %arg2] : memref<1x10xi8>
      %3392 = affine.apply #map473(%c0)
      %3393 = affine.load %51[%arg2, %3392] : memref<10x512xi8>
      affine.store %3393, %14[0, 0] : memref<1x1xi8>
      %3394 = affine.load %135[%c0_42, %3392] : memref<1x512xi8>
      %3395 = affine.load %14[0, 0] : memref<1x1xi8>
      %3396 = affine.load %arg1[%c0_42, %arg2] : memref<1x10xi8>
      %3397 = arith.muli %3394, %3395 : i8
      %3398 = arith.addi %3396, %3397 : i8
      affine.store %3398, %arg1[%c0_42, %arg2] : memref<1x10xi8>
      %3399 = affine.apply #map474(%c0)
      %3400 = affine.load %51[%arg2, %3399] : memref<10x512xi8>
      affine.store %3400, %14[0, 0] : memref<1x1xi8>
      %3401 = affine.load %135[%c0_42, %3399] : memref<1x512xi8>
      %3402 = affine.load %14[0, 0] : memref<1x1xi8>
      %3403 = affine.load %arg1[%c0_42, %arg2] : memref<1x10xi8>
      %3404 = arith.muli %3401, %3402 : i8
      %3405 = arith.addi %3403, %3404 : i8
      affine.store %3405, %arg1[%c0_42, %arg2] : memref<1x10xi8>
      %3406 = affine.apply #map475(%c0)
      %3407 = affine.load %51[%arg2, %3406] : memref<10x512xi8>
      affine.store %3407, %14[0, 0] : memref<1x1xi8>
      %3408 = affine.load %135[%c0_42, %3406] : memref<1x512xi8>
      %3409 = affine.load %14[0, 0] : memref<1x1xi8>
      %3410 = affine.load %arg1[%c0_42, %arg2] : memref<1x10xi8>
      %3411 = arith.muli %3408, %3409 : i8
      %3412 = arith.addi %3410, %3411 : i8
      affine.store %3412, %arg1[%c0_42, %arg2] : memref<1x10xi8>
      %3413 = affine.apply #map476(%c0)
      %3414 = affine.load %51[%arg2, %3413] : memref<10x512xi8>
      affine.store %3414, %14[0, 0] : memref<1x1xi8>
      %3415 = affine.load %135[%c0_42, %3413] : memref<1x512xi8>
      %3416 = affine.load %14[0, 0] : memref<1x1xi8>
      %3417 = affine.load %arg1[%c0_42, %arg2] : memref<1x10xi8>
      %3418 = arith.muli %3415, %3416 : i8
      %3419 = arith.addi %3417, %3418 : i8
      affine.store %3419, %arg1[%c0_42, %arg2] : memref<1x10xi8>
      %3420 = affine.apply #map477(%c0)
      %3421 = affine.load %51[%arg2, %3420] : memref<10x512xi8>
      affine.store %3421, %14[0, 0] : memref<1x1xi8>
      %3422 = affine.load %135[%c0_42, %3420] : memref<1x512xi8>
      %3423 = affine.load %14[0, 0] : memref<1x1xi8>
      %3424 = affine.load %arg1[%c0_42, %arg2] : memref<1x10xi8>
      %3425 = arith.muli %3422, %3423 : i8
      %3426 = arith.addi %3424, %3425 : i8
      affine.store %3426, %arg1[%c0_42, %arg2] : memref<1x10xi8>
      %3427 = affine.apply #map478(%c0)
      %3428 = affine.load %51[%arg2, %3427] : memref<10x512xi8>
      affine.store %3428, %14[0, 0] : memref<1x1xi8>
      %3429 = affine.load %135[%c0_42, %3427] : memref<1x512xi8>
      %3430 = affine.load %14[0, 0] : memref<1x1xi8>
      %3431 = affine.load %arg1[%c0_42, %arg2] : memref<1x10xi8>
      %3432 = arith.muli %3429, %3430 : i8
      %3433 = arith.addi %3431, %3432 : i8
      affine.store %3433, %arg1[%c0_42, %arg2] : memref<1x10xi8>
      %3434 = affine.apply #map479(%c0)
      %3435 = affine.load %51[%arg2, %3434] : memref<10x512xi8>
      affine.store %3435, %14[0, 0] : memref<1x1xi8>
      %3436 = affine.load %135[%c0_42, %3434] : memref<1x512xi8>
      %3437 = affine.load %14[0, 0] : memref<1x1xi8>
      %3438 = affine.load %arg1[%c0_42, %arg2] : memref<1x10xi8>
      %3439 = arith.muli %3436, %3437 : i8
      %3440 = arith.addi %3438, %3439 : i8
      affine.store %3440, %arg1[%c0_42, %arg2] : memref<1x10xi8>
      %3441 = affine.apply #map480(%c0)
      %3442 = affine.load %51[%arg2, %3441] : memref<10x512xi8>
      affine.store %3442, %14[0, 0] : memref<1x1xi8>
      %3443 = affine.load %135[%c0_42, %3441] : memref<1x512xi8>
      %3444 = affine.load %14[0, 0] : memref<1x1xi8>
      %3445 = affine.load %arg1[%c0_42, %arg2] : memref<1x10xi8>
      %3446 = arith.muli %3443, %3444 : i8
      %3447 = arith.addi %3445, %3446 : i8
      affine.store %3447, %arg1[%c0_42, %arg2] : memref<1x10xi8>
      %3448 = affine.apply #map481(%c0)
      %3449 = affine.load %51[%arg2, %3448] : memref<10x512xi8>
      affine.store %3449, %14[0, 0] : memref<1x1xi8>
      %3450 = affine.load %135[%c0_42, %3448] : memref<1x512xi8>
      %3451 = affine.load %14[0, 0] : memref<1x1xi8>
      %3452 = affine.load %arg1[%c0_42, %arg2] : memref<1x10xi8>
      %3453 = arith.muli %3450, %3451 : i8
      %3454 = arith.addi %3452, %3453 : i8
      affine.store %3454, %arg1[%c0_42, %arg2] : memref<1x10xi8>
      %3455 = affine.apply #map482(%c0)
      %3456 = affine.load %51[%arg2, %3455] : memref<10x512xi8>
      affine.store %3456, %14[0, 0] : memref<1x1xi8>
      %3457 = affine.load %135[%c0_42, %3455] : memref<1x512xi8>
      %3458 = affine.load %14[0, 0] : memref<1x1xi8>
      %3459 = affine.load %arg1[%c0_42, %arg2] : memref<1x10xi8>
      %3460 = arith.muli %3457, %3458 : i8
      %3461 = arith.addi %3459, %3460 : i8
      affine.store %3461, %arg1[%c0_42, %arg2] : memref<1x10xi8>
      %3462 = affine.apply #map483(%c0)
      %3463 = affine.load %51[%arg2, %3462] : memref<10x512xi8>
      affine.store %3463, %14[0, 0] : memref<1x1xi8>
      %3464 = affine.load %135[%c0_42, %3462] : memref<1x512xi8>
      %3465 = affine.load %14[0, 0] : memref<1x1xi8>
      %3466 = affine.load %arg1[%c0_42, %arg2] : memref<1x10xi8>
      %3467 = arith.muli %3464, %3465 : i8
      %3468 = arith.addi %3466, %3467 : i8
      affine.store %3468, %arg1[%c0_42, %arg2] : memref<1x10xi8>
      %3469 = affine.apply #map484(%c0)
      %3470 = affine.load %51[%arg2, %3469] : memref<10x512xi8>
      affine.store %3470, %14[0, 0] : memref<1x1xi8>
      %3471 = affine.load %135[%c0_42, %3469] : memref<1x512xi8>
      %3472 = affine.load %14[0, 0] : memref<1x1xi8>
      %3473 = affine.load %arg1[%c0_42, %arg2] : memref<1x10xi8>
      %3474 = arith.muli %3471, %3472 : i8
      %3475 = arith.addi %3473, %3474 : i8
      affine.store %3475, %arg1[%c0_42, %arg2] : memref<1x10xi8>
      %3476 = affine.apply #map485(%c0)
      %3477 = affine.load %51[%arg2, %3476] : memref<10x512xi8>
      affine.store %3477, %14[0, 0] : memref<1x1xi8>
      %3478 = affine.load %135[%c0_42, %3476] : memref<1x512xi8>
      %3479 = affine.load %14[0, 0] : memref<1x1xi8>
      %3480 = affine.load %arg1[%c0_42, %arg2] : memref<1x10xi8>
      %3481 = arith.muli %3478, %3479 : i8
      %3482 = arith.addi %3480, %3481 : i8
      affine.store %3482, %arg1[%c0_42, %arg2] : memref<1x10xi8>
      %3483 = affine.apply #map486(%c0)
      %3484 = affine.load %51[%arg2, %3483] : memref<10x512xi8>
      affine.store %3484, %14[0, 0] : memref<1x1xi8>
      %3485 = affine.load %135[%c0_42, %3483] : memref<1x512xi8>
      %3486 = affine.load %14[0, 0] : memref<1x1xi8>
      %3487 = affine.load %arg1[%c0_42, %arg2] : memref<1x10xi8>
      %3488 = arith.muli %3485, %3486 : i8
      %3489 = arith.addi %3487, %3488 : i8
      affine.store %3489, %arg1[%c0_42, %arg2] : memref<1x10xi8>
      %3490 = affine.apply #map487(%c0)
      %3491 = affine.load %51[%arg2, %3490] : memref<10x512xi8>
      affine.store %3491, %14[0, 0] : memref<1x1xi8>
      %3492 = affine.load %135[%c0_42, %3490] : memref<1x512xi8>
      %3493 = affine.load %14[0, 0] : memref<1x1xi8>
      %3494 = affine.load %arg1[%c0_42, %arg2] : memref<1x10xi8>
      %3495 = arith.muli %3492, %3493 : i8
      %3496 = arith.addi %3494, %3495 : i8
      affine.store %3496, %arg1[%c0_42, %arg2] : memref<1x10xi8>
      %3497 = affine.apply #map488(%c0)
      %3498 = affine.load %51[%arg2, %3497] : memref<10x512xi8>
      affine.store %3498, %14[0, 0] : memref<1x1xi8>
      %3499 = affine.load %135[%c0_42, %3497] : memref<1x512xi8>
      %3500 = affine.load %14[0, 0] : memref<1x1xi8>
      %3501 = affine.load %arg1[%c0_42, %arg2] : memref<1x10xi8>
      %3502 = arith.muli %3499, %3500 : i8
      %3503 = arith.addi %3501, %3502 : i8
      affine.store %3503, %arg1[%c0_42, %arg2] : memref<1x10xi8>
      %3504 = affine.apply #map489(%c0)
      %3505 = affine.load %51[%arg2, %3504] : memref<10x512xi8>
      affine.store %3505, %14[0, 0] : memref<1x1xi8>
      %3506 = affine.load %135[%c0_42, %3504] : memref<1x512xi8>
      %3507 = affine.load %14[0, 0] : memref<1x1xi8>
      %3508 = affine.load %arg1[%c0_42, %arg2] : memref<1x10xi8>
      %3509 = arith.muli %3506, %3507 : i8
      %3510 = arith.addi %3508, %3509 : i8
      affine.store %3510, %arg1[%c0_42, %arg2] : memref<1x10xi8>
      %3511 = affine.apply #map490(%c0)
      %3512 = affine.load %51[%arg2, %3511] : memref<10x512xi8>
      affine.store %3512, %14[0, 0] : memref<1x1xi8>
      %3513 = affine.load %135[%c0_42, %3511] : memref<1x512xi8>
      %3514 = affine.load %14[0, 0] : memref<1x1xi8>
      %3515 = affine.load %arg1[%c0_42, %arg2] : memref<1x10xi8>
      %3516 = arith.muli %3513, %3514 : i8
      %3517 = arith.addi %3515, %3516 : i8
      affine.store %3517, %arg1[%c0_42, %arg2] : memref<1x10xi8>
      %3518 = affine.apply #map491(%c0)
      %3519 = affine.load %51[%arg2, %3518] : memref<10x512xi8>
      affine.store %3519, %14[0, 0] : memref<1x1xi8>
      %3520 = affine.load %135[%c0_42, %3518] : memref<1x512xi8>
      %3521 = affine.load %14[0, 0] : memref<1x1xi8>
      %3522 = affine.load %arg1[%c0_42, %arg2] : memref<1x10xi8>
      %3523 = arith.muli %3520, %3521 : i8
      %3524 = arith.addi %3522, %3523 : i8
      affine.store %3524, %arg1[%c0_42, %arg2] : memref<1x10xi8>
      %3525 = affine.apply #map492(%c0)
      %3526 = affine.load %51[%arg2, %3525] : memref<10x512xi8>
      affine.store %3526, %14[0, 0] : memref<1x1xi8>
      %3527 = affine.load %135[%c0_42, %3525] : memref<1x512xi8>
      %3528 = affine.load %14[0, 0] : memref<1x1xi8>
      %3529 = affine.load %arg1[%c0_42, %arg2] : memref<1x10xi8>
      %3530 = arith.muli %3527, %3528 : i8
      %3531 = arith.addi %3529, %3530 : i8
      affine.store %3531, %arg1[%c0_42, %arg2] : memref<1x10xi8>
      %3532 = affine.apply #map493(%c0)
      %3533 = affine.load %51[%arg2, %3532] : memref<10x512xi8>
      affine.store %3533, %14[0, 0] : memref<1x1xi8>
      %3534 = affine.load %135[%c0_42, %3532] : memref<1x512xi8>
      %3535 = affine.load %14[0, 0] : memref<1x1xi8>
      %3536 = affine.load %arg1[%c0_42, %arg2] : memref<1x10xi8>
      %3537 = arith.muli %3534, %3535 : i8
      %3538 = arith.addi %3536, %3537 : i8
      affine.store %3538, %arg1[%c0_42, %arg2] : memref<1x10xi8>
      %3539 = affine.apply #map494(%c0)
      %3540 = affine.load %51[%arg2, %3539] : memref<10x512xi8>
      affine.store %3540, %14[0, 0] : memref<1x1xi8>
      %3541 = affine.load %135[%c0_42, %3539] : memref<1x512xi8>
      %3542 = affine.load %14[0, 0] : memref<1x1xi8>
      %3543 = affine.load %arg1[%c0_42, %arg2] : memref<1x10xi8>
      %3544 = arith.muli %3541, %3542 : i8
      %3545 = arith.addi %3543, %3544 : i8
      affine.store %3545, %arg1[%c0_42, %arg2] : memref<1x10xi8>
      %3546 = affine.apply #map495(%c0)
      %3547 = affine.load %51[%arg2, %3546] : memref<10x512xi8>
      affine.store %3547, %14[0, 0] : memref<1x1xi8>
      %3548 = affine.load %135[%c0_42, %3546] : memref<1x512xi8>
      %3549 = affine.load %14[0, 0] : memref<1x1xi8>
      %3550 = affine.load %arg1[%c0_42, %arg2] : memref<1x10xi8>
      %3551 = arith.muli %3548, %3549 : i8
      %3552 = arith.addi %3550, %3551 : i8
      affine.store %3552, %arg1[%c0_42, %arg2] : memref<1x10xi8>
      %3553 = affine.apply #map496(%c0)
      %3554 = affine.load %51[%arg2, %3553] : memref<10x512xi8>
      affine.store %3554, %14[0, 0] : memref<1x1xi8>
      %3555 = affine.load %135[%c0_42, %3553] : memref<1x512xi8>
      %3556 = affine.load %14[0, 0] : memref<1x1xi8>
      %3557 = affine.load %arg1[%c0_42, %arg2] : memref<1x10xi8>
      %3558 = arith.muli %3555, %3556 : i8
      %3559 = arith.addi %3557, %3558 : i8
      affine.store %3559, %arg1[%c0_42, %arg2] : memref<1x10xi8>
      %3560 = affine.apply #map497(%c0)
      %3561 = affine.load %51[%arg2, %3560] : memref<10x512xi8>
      affine.store %3561, %14[0, 0] : memref<1x1xi8>
      %3562 = affine.load %135[%c0_42, %3560] : memref<1x512xi8>
      %3563 = affine.load %14[0, 0] : memref<1x1xi8>
      %3564 = affine.load %arg1[%c0_42, %arg2] : memref<1x10xi8>
      %3565 = arith.muli %3562, %3563 : i8
      %3566 = arith.addi %3564, %3565 : i8
      affine.store %3566, %arg1[%c0_42, %arg2] : memref<1x10xi8>
      %3567 = affine.apply #map498(%c0)
      %3568 = affine.load %51[%arg2, %3567] : memref<10x512xi8>
      affine.store %3568, %14[0, 0] : memref<1x1xi8>
      %3569 = affine.load %135[%c0_42, %3567] : memref<1x512xi8>
      %3570 = affine.load %14[0, 0] : memref<1x1xi8>
      %3571 = affine.load %arg1[%c0_42, %arg2] : memref<1x10xi8>
      %3572 = arith.muli %3569, %3570 : i8
      %3573 = arith.addi %3571, %3572 : i8
      affine.store %3573, %arg1[%c0_42, %arg2] : memref<1x10xi8>
      %3574 = affine.apply #map499(%c0)
      %3575 = affine.load %51[%arg2, %3574] : memref<10x512xi8>
      affine.store %3575, %14[0, 0] : memref<1x1xi8>
      %3576 = affine.load %135[%c0_42, %3574] : memref<1x512xi8>
      %3577 = affine.load %14[0, 0] : memref<1x1xi8>
      %3578 = affine.load %arg1[%c0_42, %arg2] : memref<1x10xi8>
      %3579 = arith.muli %3576, %3577 : i8
      %3580 = arith.addi %3578, %3579 : i8
      affine.store %3580, %arg1[%c0_42, %arg2] : memref<1x10xi8>
      %3581 = affine.apply #map500(%c0)
      %3582 = affine.load %51[%arg2, %3581] : memref<10x512xi8>
      affine.store %3582, %14[0, 0] : memref<1x1xi8>
      %3583 = affine.load %135[%c0_42, %3581] : memref<1x512xi8>
      %3584 = affine.load %14[0, 0] : memref<1x1xi8>
      %3585 = affine.load %arg1[%c0_42, %arg2] : memref<1x10xi8>
      %3586 = arith.muli %3583, %3584 : i8
      %3587 = arith.addi %3585, %3586 : i8
      affine.store %3587, %arg1[%c0_42, %arg2] : memref<1x10xi8>
      %3588 = affine.apply #map501(%c0)
      %3589 = affine.load %51[%arg2, %3588] : memref<10x512xi8>
      affine.store %3589, %14[0, 0] : memref<1x1xi8>
      %3590 = affine.load %135[%c0_42, %3588] : memref<1x512xi8>
      %3591 = affine.load %14[0, 0] : memref<1x1xi8>
      %3592 = affine.load %arg1[%c0_42, %arg2] : memref<1x10xi8>
      %3593 = arith.muli %3590, %3591 : i8
      %3594 = arith.addi %3592, %3593 : i8
      affine.store %3594, %arg1[%c0_42, %arg2] : memref<1x10xi8>
      %3595 = affine.apply #map502(%c0)
      %3596 = affine.load %51[%arg2, %3595] : memref<10x512xi8>
      affine.store %3596, %14[0, 0] : memref<1x1xi8>
      %3597 = affine.load %135[%c0_42, %3595] : memref<1x512xi8>
      %3598 = affine.load %14[0, 0] : memref<1x1xi8>
      %3599 = affine.load %arg1[%c0_42, %arg2] : memref<1x10xi8>
      %3600 = arith.muli %3597, %3598 : i8
      %3601 = arith.addi %3599, %3600 : i8
      affine.store %3601, %arg1[%c0_42, %arg2] : memref<1x10xi8>
      %3602 = affine.apply #map503(%c0)
      %3603 = affine.load %51[%arg2, %3602] : memref<10x512xi8>
      affine.store %3603, %14[0, 0] : memref<1x1xi8>
      %3604 = affine.load %135[%c0_42, %3602] : memref<1x512xi8>
      %3605 = affine.load %14[0, 0] : memref<1x1xi8>
      %3606 = affine.load %arg1[%c0_42, %arg2] : memref<1x10xi8>
      %3607 = arith.muli %3604, %3605 : i8
      %3608 = arith.addi %3606, %3607 : i8
      affine.store %3608, %arg1[%c0_42, %arg2] : memref<1x10xi8>
      %3609 = affine.apply #map504(%c0)
      %3610 = affine.load %51[%arg2, %3609] : memref<10x512xi8>
      affine.store %3610, %14[0, 0] : memref<1x1xi8>
      %3611 = affine.load %135[%c0_42, %3609] : memref<1x512xi8>
      %3612 = affine.load %14[0, 0] : memref<1x1xi8>
      %3613 = affine.load %arg1[%c0_42, %arg2] : memref<1x10xi8>
      %3614 = arith.muli %3611, %3612 : i8
      %3615 = arith.addi %3613, %3614 : i8
      affine.store %3615, %arg1[%c0_42, %arg2] : memref<1x10xi8>
      %3616 = affine.apply #map505(%c0)
      %3617 = affine.load %51[%arg2, %3616] : memref<10x512xi8>
      affine.store %3617, %14[0, 0] : memref<1x1xi8>
      %3618 = affine.load %135[%c0_42, %3616] : memref<1x512xi8>
      %3619 = affine.load %14[0, 0] : memref<1x1xi8>
      %3620 = affine.load %arg1[%c0_42, %arg2] : memref<1x10xi8>
      %3621 = arith.muli %3618, %3619 : i8
      %3622 = arith.addi %3620, %3621 : i8
      affine.store %3622, %arg1[%c0_42, %arg2] : memref<1x10xi8>
      %3623 = affine.apply #map506(%c0)
      %3624 = affine.load %51[%arg2, %3623] : memref<10x512xi8>
      affine.store %3624, %14[0, 0] : memref<1x1xi8>
      %3625 = affine.load %135[%c0_42, %3623] : memref<1x512xi8>
      %3626 = affine.load %14[0, 0] : memref<1x1xi8>
      %3627 = affine.load %arg1[%c0_42, %arg2] : memref<1x10xi8>
      %3628 = arith.muli %3625, %3626 : i8
      %3629 = arith.addi %3627, %3628 : i8
      affine.store %3629, %arg1[%c0_42, %arg2] : memref<1x10xi8>
      %3630 = affine.apply #map507(%c0)
      %3631 = affine.load %51[%arg2, %3630] : memref<10x512xi8>
      affine.store %3631, %14[0, 0] : memref<1x1xi8>
      %3632 = affine.load %135[%c0_42, %3630] : memref<1x512xi8>
      %3633 = affine.load %14[0, 0] : memref<1x1xi8>
      %3634 = affine.load %arg1[%c0_42, %arg2] : memref<1x10xi8>
      %3635 = arith.muli %3632, %3633 : i8
      %3636 = arith.addi %3634, %3635 : i8
      affine.store %3636, %arg1[%c0_42, %arg2] : memref<1x10xi8>
      %3637 = affine.apply #map508(%c0)
      %3638 = affine.load %51[%arg2, %3637] : memref<10x512xi8>
      affine.store %3638, %14[0, 0] : memref<1x1xi8>
      %3639 = affine.load %135[%c0_42, %3637] : memref<1x512xi8>
      %3640 = affine.load %14[0, 0] : memref<1x1xi8>
      %3641 = affine.load %arg1[%c0_42, %arg2] : memref<1x10xi8>
      %3642 = arith.muli %3639, %3640 : i8
      %3643 = arith.addi %3641, %3642 : i8
      affine.store %3643, %arg1[%c0_42, %arg2] : memref<1x10xi8>
      %3644 = affine.apply #map509(%c0)
      %3645 = affine.load %51[%arg2, %3644] : memref<10x512xi8>
      affine.store %3645, %14[0, 0] : memref<1x1xi8>
      %3646 = affine.load %135[%c0_42, %3644] : memref<1x512xi8>
      %3647 = affine.load %14[0, 0] : memref<1x1xi8>
      %3648 = affine.load %arg1[%c0_42, %arg2] : memref<1x10xi8>
      %3649 = arith.muli %3646, %3647 : i8
      %3650 = arith.addi %3648, %3649 : i8
      affine.store %3650, %arg1[%c0_42, %arg2] : memref<1x10xi8>
      %3651 = affine.apply #map510(%c0)
      %3652 = affine.load %51[%arg2, %3651] : memref<10x512xi8>
      affine.store %3652, %14[0, 0] : memref<1x1xi8>
      %3653 = affine.load %135[%c0_42, %3651] : memref<1x512xi8>
      %3654 = affine.load %14[0, 0] : memref<1x1xi8>
      %3655 = affine.load %arg1[%c0_42, %arg2] : memref<1x10xi8>
      %3656 = arith.muli %3653, %3654 : i8
      %3657 = arith.addi %3655, %3656 : i8
      affine.store %3657, %arg1[%c0_42, %arg2] : memref<1x10xi8>
      %3658 = affine.apply #map511(%c0)
      %3659 = affine.load %51[%arg2, %3658] : memref<10x512xi8>
      affine.store %3659, %14[0, 0] : memref<1x1xi8>
      %3660 = affine.load %135[%c0_42, %3658] : memref<1x512xi8>
      %3661 = affine.load %14[0, 0] : memref<1x1xi8>
      %3662 = affine.load %arg1[%c0_42, %arg2] : memref<1x10xi8>
      %3663 = arith.muli %3660, %3661 : i8
      %3664 = arith.addi %3662, %3663 : i8
      affine.store %3664, %arg1[%c0_42, %arg2] : memref<1x10xi8>
      %3665 = affine.apply #map512(%c0)
      %3666 = affine.load %51[%arg2, %3665] : memref<10x512xi8>
      affine.store %3666, %14[0, 0] : memref<1x1xi8>
      %3667 = affine.load %135[%c0_42, %3665] : memref<1x512xi8>
      %3668 = affine.load %14[0, 0] : memref<1x1xi8>
      %3669 = affine.load %arg1[%c0_42, %arg2] : memref<1x10xi8>
      %3670 = arith.muli %3667, %3668 : i8
      %3671 = arith.addi %3669, %3670 : i8
      affine.store %3671, %arg1[%c0_42, %arg2] : memref<1x10xi8>
      %3672 = affine.apply #map513(%c0)
      %3673 = affine.load %51[%arg2, %3672] : memref<10x512xi8>
      affine.store %3673, %14[0, 0] : memref<1x1xi8>
      %3674 = affine.load %135[%c0_42, %3672] : memref<1x512xi8>
      %3675 = affine.load %14[0, 0] : memref<1x1xi8>
      %3676 = affine.load %arg1[%c0_42, %arg2] : memref<1x10xi8>
      %3677 = arith.muli %3674, %3675 : i8
      %3678 = arith.addi %3676, %3677 : i8
      affine.store %3678, %arg1[%c0_42, %arg2] : memref<1x10xi8>
      %3679 = affine.apply #map514(%c0)
      %3680 = affine.load %51[%arg2, %3679] : memref<10x512xi8>
      affine.store %3680, %14[0, 0] : memref<1x1xi8>
      %3681 = affine.load %135[%c0_42, %3679] : memref<1x512xi8>
      %3682 = affine.load %14[0, 0] : memref<1x1xi8>
      %3683 = affine.load %arg1[%c0_42, %arg2] : memref<1x10xi8>
      %3684 = arith.muli %3681, %3682 : i8
      %3685 = arith.addi %3683, %3684 : i8
      affine.store %3685, %arg1[%c0_42, %arg2] : memref<1x10xi8>
      %3686 = affine.apply #map515(%c0)
      %3687 = affine.load %51[%arg2, %3686] : memref<10x512xi8>
      affine.store %3687, %14[0, 0] : memref<1x1xi8>
      %3688 = affine.load %135[%c0_42, %3686] : memref<1x512xi8>
      %3689 = affine.load %14[0, 0] : memref<1x1xi8>
      %3690 = affine.load %arg1[%c0_42, %arg2] : memref<1x10xi8>
      %3691 = arith.muli %3688, %3689 : i8
      %3692 = arith.addi %3690, %3691 : i8
      affine.store %3692, %arg1[%c0_42, %arg2] : memref<1x10xi8>
      %3693 = affine.apply #map516(%c0)
      %3694 = affine.load %51[%arg2, %3693] : memref<10x512xi8>
      affine.store %3694, %14[0, 0] : memref<1x1xi8>
      %3695 = affine.load %135[%c0_42, %3693] : memref<1x512xi8>
      %3696 = affine.load %14[0, 0] : memref<1x1xi8>
      %3697 = affine.load %arg1[%c0_42, %arg2] : memref<1x10xi8>
      %3698 = arith.muli %3695, %3696 : i8
      %3699 = arith.addi %3697, %3698 : i8
      affine.store %3699, %arg1[%c0_42, %arg2] : memref<1x10xi8>
      %3700 = affine.apply #map517(%c0)
      %3701 = affine.load %51[%arg2, %3700] : memref<10x512xi8>
      affine.store %3701, %14[0, 0] : memref<1x1xi8>
      %3702 = affine.load %135[%c0_42, %3700] : memref<1x512xi8>
      %3703 = affine.load %14[0, 0] : memref<1x1xi8>
      %3704 = affine.load %arg1[%c0_42, %arg2] : memref<1x10xi8>
      %3705 = arith.muli %3702, %3703 : i8
      %3706 = arith.addi %3704, %3705 : i8
      affine.store %3706, %arg1[%c0_42, %arg2] : memref<1x10xi8>
      %3707 = affine.apply #map518(%c0)
      %3708 = affine.load %51[%arg2, %3707] : memref<10x512xi8>
      affine.store %3708, %14[0, 0] : memref<1x1xi8>
      %3709 = affine.load %135[%c0_42, %3707] : memref<1x512xi8>
      %3710 = affine.load %14[0, 0] : memref<1x1xi8>
      %3711 = affine.load %arg1[%c0_42, %arg2] : memref<1x10xi8>
      %3712 = arith.muli %3709, %3710 : i8
      %3713 = arith.addi %3711, %3712 : i8
      affine.store %3713, %arg1[%c0_42, %arg2] : memref<1x10xi8>
      %3714 = affine.apply #map519(%c0)
      %3715 = affine.load %51[%arg2, %3714] : memref<10x512xi8>
      affine.store %3715, %14[0, 0] : memref<1x1xi8>
      %3716 = affine.load %135[%c0_42, %3714] : memref<1x512xi8>
      %3717 = affine.load %14[0, 0] : memref<1x1xi8>
      %3718 = affine.load %arg1[%c0_42, %arg2] : memref<1x10xi8>
      %3719 = arith.muli %3716, %3717 : i8
      %3720 = arith.addi %3718, %3719 : i8
      affine.store %3720, %arg1[%c0_42, %arg2] : memref<1x10xi8>
    }
    return
  }
}

